LSTM_model/best_model7.pt_epoch1.pt (torch, 703249 bytes, 33 tensors)

lstm.weight_ih_l0 f4 [256, 20]
000000 54 83 32 3e c2 88 26 3e 08 3e a2 3d ae 8a 3a 3d
       0.1743291 0.16263106 0.07921988 0.04554241
000010 ad b3 4e bc 29 c6 8b bd c0 31 aa bd 3e ac 60 bd
       -0.01261608 -0.068249054 -0.0831027 -0.054851763
000020 d4 1d 55 bd c7 48 05 be a6 25 c8 bd b4 13 26 bc
       -0.0520304 -0.13016044 -0.09772806 -0.0101365335
000030 34 dc 40 bd bd 39 bc 3a 02 39 57 3d 83 33 98 3d
       -0.047085002 0.0014360469 0.0525446 0.074317
000040 ef c9 39 bb 32 c2 4b 3e 76 9c 09 be 5c 0b 2d 3d
       -0.0028349122 0.19898298 -0.13438591 0.04224716
000050 a7 bb 51 3e eb 79 1d 3d 74 12 b1 bd 94 c2 aa 3d
       0.2048174 0.03844635 -0.08646098 0.08337894
000060 cb 8f 4c bc 7c aa 3f 3d 3f 92 80 3d 0f ce 8f bd
       -0.012485455 0.046793446 0.06277894 -0.070217244
000070 b5 4c 16 be c4 15 67 bc 34 62 c1 3c 95 3e 12 3e
       -0.14677699 -0.01410431 0.023606397 0.14281686
000080 b2 1d 33 3d e4 d5 0e 3e 11 57 24 bd d7 80 00 bd
       0.04372949 0.1394878 -0.040122095 -0.03137287
000090 08 ff d9 bc 69 12 01 3e 70 77 86 3d 12 95 0f 3d
       -0.026610866 0.12604679 0.0656575 0.035054274
0000a0 ee 35 2f 3e f8 a3 76 bc 1c d3 67 3d f5 5d 0e be
       0.17110416 -0.015053742 0.056597814 -0.1390303
0000b0 69 18 0b be b3 44 b1 bd fd ac 18 3c a3 7e ac 3d
       -0.1358353 -0.086556815 0.009318587 0.084225915
0000c0 90 38 06 3c 9c b4 5f 3c 7b 46 af 3d 6b 92 35 bd
       0.0081921965 0.0136539005 0.08558365 -0.04432909
0000d0 d1 01 ec 3d 8f 07 c6 3c 1f 8a d2 3d f0 22 ee 3d
       0.11523784 0.024173526 0.10280251 0.116277575
0000e0 26 63 21 bd a0 3e 87 bc 85 4c 26 3d 3a 69 05 3e
       -0.039401196 -0.016509354 0.04060032 0.13028422
0000f0 9d 01 01 3d 1c 2b 2a 3d 51 39 29 bd e7 b2 63 3d
       0.03149568 0.04154502 -0.041314427 0.055590536
000100 e9 a4 c5 bd 20 e7 d9 bd 45 ba 76 bd 88 4d e2 3d
       -0.09650595 -0.10639787 -0.060236234 0.11049944
000110 68 af 96 bd f5 f1 69 bb 4f 52 c8 bb e1 c2 dc ba
       -0.07357675 -0.0035697196 -0.0061133276 -0.0016842746
000120 8b 48 4f bd 28 75 24 3d e6 2e 04 3e f0 33 a7 3d
       -0.05060629 0.04015079 0.12908515 0.08164203
000130 39 bc ca 3c bd 20 fd 3b d1 9f 6d 3d 9f 93 d4 bc
       0.024747955 0.00772485 0.05801374 -0.025949297
000140 cb c5 db 3c 10 6a 22 3d 75 41 82 3d e9 be ab bd
       0.026827713 0.03965193 0.06360141 -0.083860226
000150 92 17 cd bc 70 66 da bd fe 32 d3 bd ea c7 07 3e
       -0.025035653 -0.1066407 -0.1031246 0.13259855
000160 4d ff 2b bd 66 13 1d bd c3 95 51 3d 98 a1 84 3d
       -0.04199152 -0.038348578 0.051168215 0.06476134
000170 cb ae 98 3d 60 cd b4 3c a8 2f 3e bd 8a 44 2a 3d
       0.07455214 0.022070587 -0.046432167 0.04156927
000180 b6 75 a2 3d 07 ed 97 3c fa 57 2a bc 5a b4 b4 bd
       0.07932608 0.01854564 -0.010396952 -0.08823462
000190 ae fc e8 bd 0e 52 3f 3d 3b 43 e3 3b 9f 3c c3 bc
       -0.1137632 0.046709113 0.0069355047 -0.023832617
0001a0 58 24 49 bd 94 70 e6 bd 2e 95 f4 3c 51 b1 63 bd
       -0.049106926 -0.11251941 0.02985629 -0.055589024
0001b0 7c 3e b2 bd ac bd 74 3c f3 af 5a 3d 76 28 ce 3d
       -0.08703324 0.014937799 0.053390455 0.10066311
0001c0 40 51 33 bc 0a ac 8a bc 3a db 39 3d b3 9f 2b 3e
       -0.0109446645 -0.016927738 0.045375086 0.16760139
0001d0 8a 2a 9c 3d 5d 44 6a 3c d9 ef 9b bd 78 40 a3 3d
       0.07625301 0.014298526 -0.07614107 0.07971281
0001e0 0e cc e6 3b c8 8b 74 3d 69 2b 58 3c bb 0f 8c bd
       0.007043368 0.05970362 0.013193944 -0.06838938
0001f0 eb 18 aa 3d 71 c8 4c bc 32 90 04 3e 28 e5 e1 bd
       0.08305534 -0.012498961 0.12945631 -0.11030036
000200 a8 10 81 3c 11 81 4d bd f8 b6 24 3e 46 d3 1a bd
       0.015755013 -0.050171915 0.16085422 -0.037799142
000210 0b 76 03 bd 77 02 43 3c cd 4d a1 3d 6e 92 e5 bc
       -0.032094996 0.011902443 0.078761674 -0.028023925
000220 89 fd 27 3d 9d 23 19 3e d7 e6 3a 3d 0a d4 ab 3d
       0.041013274 0.14954992 0.045630302 0.083900526
000230 12 bd 2c 3e f7 1f d1 bd 47 49 f5 bd 3e 1d 7d 3c
       0.16869 -0.10211175 -0.11976867 0.015448866
000240 c8 22 43 be 11 71 21 be e3 9c 22 3b f5 51 90 bd
       -0.19056237 -0.15765788 0.002481275 -0.07046882
000250 1b 2d a1 3d fc 4a a2 bd e1 7f a4 3d d0 e3 f6 3d
       0.07869931 -0.079244584 0.080322035 0.120551705
000260 44 19 c2 bd e1 84 77 3c 2d a6 9d bd 09 a9 98 3d
       -0.09477475 0.015107364 -0.07697711 0.07454116
000270 01 b9 c3 3c b0 6c cc 3d 90 4c 62 be 2e f5 64 bd
       0.023891928 0.09981668 -0.22099519 -0.055897884
000280 88 01 c2 3d 5a ee 25 bd 9e f1 f5 3d e6 aa a4 bd
       0.09472948 -0.040510513 0.120089754 -0.08040409
000290 46 79 53 3c ef 08 ab 3d 86 b1 0e 3d a0 92 62 3d
       0.012907332 0.08351313 0.03483727 0.055315614
0002a0 af ba ed 3b e9 79 b1 bc 05 4f bb bc 4d be 83 3c
       0.0072549204 -0.021664577 -0.022864828 0.016081953
0002b0 55 d0 13 3e f9 7c 8c bd 79 9c a5 3b f0 3a c6 3d
       0.14434941 -0.06859774 0.0050540534 0.0967921
0002c0 5a d0 d5 3d 3d b7 6b bd e4 b4 09 3e 2a 08 fa 3b
       0.104401305 -0.057547797 0.1344791 0.0076303678
0002d0 31 d8 b6 3d db 6a 7a 3b 7e 99 aa bd cf 10 12 bd
       0.08927954 0.0038210663 -0.083300576 -0.03566056
0002e0 64 74 34 be 1c 36 1c be 8e 74 0f bd 08 b9 ab bd
       -0.17622524 -0.15255016 -0.035023265 -0.08384901
0002f0 9f d7 87 3d c3 41 17 be 49 05 08 3e 96 7c 14 3e
       0.06632923 -0.1477118 0.13283266 0.14500651
000300 60 36 01 bd dc 83 83 3e d8 6c 56 3d 99 8c 8f 3c
       -0.031545997 0.25686538 0.052349895 0.017523097
000310 af 9f fd bb f1 5c 3b 3e ca 36 9b 3d ae 8b 1d 3e
       -0.007739983 0.18297173 0.075788096 0.15385315
000320 8f 6d 1d be 2a d7 ea 3d e3 47 b2 3d 59 90 13 3d
       -0.15373825 0.114668205 0.087051176 0.036026333
000330 b4 43 c1 3d ea d8 35 3d c2 e5 ce 3d 82 75 db bc
       0.094367415 0.04439632 0.101024166 -0.02678943
000340 0c f9 0c bc 99 f3 b2 3d b0 81 48 3d ae 57 16 be
       -0.008604299 0.08737869 0.048951805 -0.14681885
000350 19 06 03 3e 04 a6 3b bd b5 36 b5 bd a7 e9 41 bd
       0.12795295 -0.04581262 -0.08848325 -0.04734197
000360 b4 a4 39 3d b3 ff 83 bd 82 20 bf bd cf dd 6b bc
       0.04532309 -0.06445255 -0.09332372 -0.014396145
000370 64 55 36 3e d3 6b 87 3d 7d 85 b1 bd e2 99 e0 3d
       0.17806011 0.06612363 -0.08668039 0.10966851
000380 c2 38 bd bd d8 32 39 3d 5a ab e2 bd e1 18 8e bb
       -0.09239341 0.045214504 -0.11067839 -0.004336462
000390 4f 9b 37 bc e7 3e 6f bd 31 fb a6 bc 66 b2 fc 3b
       -0.011206462 -0.058409598 -0.02038345 0.0077116964
0003a0 ef 21 83 3d 95 9a 09 3e a4 04 30 bd 99 74 7f bd
       0.06402957 0.13437875 -0.042973176 -0.062367056
0003b0 e0 ee 60 bd 1d 43 4f 3d f0 2b c5 bd 9e bc cd bc
       -0.05491531 0.050601114 -0.09627521 -0.025114354
0003c0 96 51 d7 3b e8 3f 32 3d 73 48 84 bd 19 60 d9 3d
       0.006571005 0.043517977 -0.06459131 0.10614032
0003d0 ed 1b 25 3e 62 74 19 bd 0a 54 8d 3c c6 f4 bd 3c
       0.16123934 -0.037464507 0.017251987 0.023188006
0003e0 d4 ee b9 bd 40 ba 67 bc 94 a2 91 3d 14 4c 82 bd
       -0.09078756 -0.014143527 0.071110874 -0.06362167
0003f0 95 eb 8c bd b1 c4 6a be 08 43 d5 3c 2f 8d 90 3c
       -0.06880871 -0.22926594 0.02603294 0.017645447

lstm.weight_hh_l0 f4 [256, 64]
000000 d4 37 d3 bd e8 5a ad bd e3 f6 ac 3c a3 58 f1 3b
       -0.10313383 -0.084646046 0.021113819 0.0073653026
000010 69 d9 ac 3c 6b 4e 45 3a 79 9c 1b be 8e 44 95 bc
       0.021099763 0.0007526639 -0.15196408 -0.018221166
000020 51 08 ec bd 4d 04 7f bd 18 07 f5 bc 5b ab 3a 3c
       -0.11525024 -0.06225996 -0.02991061 0.011393393
000030 47 89 b3 bd 65 5c 22 bc 2e 25 25 3d 4c e7 fa bc
       -0.08766418 -0.009909724 0.04031866 -0.03062787
000040 d3 ee 49 be 33 50 57 3d 71 76 d7 3d 9a bc 54 3c
       -0.1972001 0.05256672 0.10520638 0.012984419
000050 95 a9 9e bd 46 ee d8 bd 5e 23 c3 bd d1 c7 a1 bd
       -0.07747189 -0.10592322 -0.0952823 -0.0789944
000060 03 d9 58 3d 6d d5 a3 bd 27 95 9a 3d 05 4d 2a bb
       0.052941334 -0.07999692 0.0754798 -0.0025985849
000070 83 f6 26 3d eb 41 1e 3d 10 e1 ac 3d e8 74 10 bd
       0.040762436 0.038637083 0.08441365 -0.03526774
000080 33 f7 13 bd 06 63 a2 3d 48 67 bc 3d 33 02 04 bc
       -0.03612442 0.079290435 0.09199387 -0.008057165
000090 5f 0e 9e 3d be 4a 8c 3d 66 fa 1d 3c 1a 74 8a 3d
       0.07717585 0.068501934 0.009642219 0.06760426
0000a0 19 28 6d bd bd 6f 01 bd 53 7c a8 3b 54 04 b4 3d
       -0.05789957 -0.031600703 0.0051417737 0.08789888
0000b0 4d d5 eb 3c 5d b9 a2 3d 1a fb 79 3d 38 4e d7 bd
       0.028788233 0.079455115 0.061030485 -0.10512966
0000c0 2e 25 22 bd c7 5c c1 3c 49 07 49 3c 74 53 71 3d
       -0.03958624 0.02360381 0.012269803 0.058917478
0000d0 85 70 8c 3c fd 33 6e bc 27 6b b1 bd 91 71 1a be
       0.017143497 -0.014538762 -0.08663016 -0.15082385
0000e0 c2 10 32 3d 8c 07 90 bd 0e ad 7e bd 2a c7 2a 3d
       0.043473013 -0.070326895 -0.062176757 0.041693844
0000f0 e4 2f 58 bd 87 62 c8 3d 87 e9 a6 bb 12 00 44 3d
       -0.052780047 0.097844176 -0.0050937566 0.04785163
000100 1b 63 13 3d 23 02 a6 3d 9f 4e c8 bb 20 86 9a 3d
       0.035983186 0.08105876 -0.006112888 0.075451136
000110 c0 55 d6 3d 29 1c 08 bc 4f 26 5c bc fa e6 23 3d
       0.10465574 -0.008307495 -0.013436868 0.0400152
000120 0f 69 ff bd b1 ff d5 bc 3b fa 8c 3d 81 f1 b7 3c
       -0.1247121 -0.0261229 0.06883665 0.022454025
000130 8e 13 f7 bd 3e 2d 65 bc 26 16 a9 3d 1c 14 ca bd
       -0.12064277 -0.013987837 0.082561776 -0.09867117
000140 ab 4a 9d bd 64 2d ca bd c6 2f 67 bd d4 28 4f 3c
       -0.076802574 -0.09871939 -0.056442045 0.0126440115
000150 32 2c 96 3d b4 88 c5 3d 14 f9 b4 bd 12 4a b2 3d
       0.07332648 0.09645215 -0.088365704 0.08705534
000160 99 25 30 3e 71 ca 33 3d ca cc 25 bd 4f d1 8a 3d
       0.17201842 0.043894235 -0.040478505 0.06778204
000170 a3 df 22 be e6 d5 be 3d 02 9e 90 3d 29 cf 71 3d
       -0.15905623 0.09318142 0.070613876 0.059035454
000180 af d3 51 bc cc 6d ea bc 92 a0 2c bc 28 cd 5a 3d
       -0.012806817 -0.028616808 -0.01053633 0.05341831
000190 1c 17 c9 3d f4 8d aa 3d 26 d1 cb bd 87 dd af 3d
       0.09818861 0.08327857 -0.09952001 0.08587175
0001a0 b6 40 88 bd 4f 64 17 bd 48 2c 02 be 08 9c 6f 3d
       -0.06652968 -0.036960896 -0.12712204 0.058498412
0001b0 0f d2 c5 3d c6 bd 6b bd 4f 88 46 3d 86 a0 4b 3d
       0.09659206 -0.05755403 0.048469838 0.049713634
0001c0 5f 4e 45 3d e3 42 ce bc b9 16 29 3d bc 0d bb bd
       0.048170444 -0.025178378 0.041281436 -0.09133479
0001d0 5a 57 13 bd 04 c0 b1 bd 0f 20 33 bd 4d ff b5 3d
       -0.035971977 -0.08679202 -0.043731745 0.088865854
0001e0 b7 7d 1f 3d 07 9c 2c ba 20 24 5c 3c 1b d3 b1 3c
       0.03893825 -0.0006584529 0.013436347 0.021707108
0001f0 00 59 89 bd 00 0a 14 3e aa ca 92 bd ac cd 86 bd
       -0.067064285 0.1445694 -0.07167561 -0.065821975
000200 56 73 e7 bc da 11 ae bd e4 72 0f 3e 68 17 c3 bc
       -0.028253239 -0.08499499 0.14008671 -0.023814872
000210 1d 4c 36 3d e1 b4 83 bd 49 50 d0 3d c9 43 20 3e
       0.04450618 -0.06430984 0.10171563 0.15650858
000220 97 68 64 3d 7e 1b 0a 3d 9f 24 bf bd cb 87 b1 3d
       0.055763807 0.033717625 -0.09333157 0.086684786
000230 95 55 f7 3d 52 fa c8 3d e1 43 cb 3b 59 d0 15 3d
       0.1207687 0.0981337 0.00620316 0.03657565
000240 0e 33 40 bd 00 b0 ec 3c 94 76 85 3c 4d f3 b5 bd
       -0.04692369 0.028892517 0.016291894 -0.088842966
000250 b7 a4 d9 bd 84 85 83 b8 f8 bc 44 be c4 40 fc bd
       -0.1062712 -6.271436e-05 -0.19212711 -0.123170406
000260 dd 3c c9 3d 54 8f 0d bd ea d3 27 3d c2 18 c7 3c
       0.09826062 -0.034560516 0.04097358 0.024303798
000270 f4 45 00 be e5 93 18 3d c7 5e e0 3d dd 66 7c bd
       -0.12526685 0.03725042 0.10955577 -0.061621536
000280 97 70 8e 3d dd 32 a7 3d 2d 02 ce 3c c4 3f cd 3d
       0.069550686 0.08163998 0.025147522 0.10021928
000290 fc c9 7e 3d 79 de b5 bd cc ad e3 3d 87 7b e4 bc
       0.062204346 -0.08880324 0.111171335 -0.027890934
0002a0 56 d7 b1 bd b4 49 98 bc 31 3e ea bc 31 e6 d1 bb
       -0.0868365 -0.018589832 -0.028594108 -0.006405615
0002b0 48 bb 98 3c b4 49 fb bc 85 25 af bd da 81 b2 bd
       0.01864399 -0.030674793 -0.08552078 -0.087161735
0002c0 08 5f 53 3d 32 6b b9 bd 38 98 af 3c d0 6e 85 3d
       0.0516043 -0.09053649 0.021434888 0.065152764
0002d0 be 1a 26 bd d8 ff 9a 3d 2f ff 01 3b 9b de 8f bd
       -0.040552847 0.075683296 0.001983594 -0.070248805
0002e0 0e e8 32 bd a6 51 b8 bd fe 71 b2 3d fa 62 a1 3d
       -0.043678336 -0.08999948 0.087131485 0.078802064
0002f0 0a d8 a7 bd 39 ac 90 bd 8b fd e1 3d df d6 a9 3c
       -0.08195503 -0.07064099 0.110346876 0.020732341
000300 b9 3d c1 bd 67 63 8f bd e7 6a ca 3c 80 b4 b1 bd
       -0.09435601 -0.07001381 0.024709178 -0.08677006
000310 d1 70 12 3e d7 28 63 3e ac 03 64 bd 36 71 75 3c
       0.14300849 0.22183548 -0.055667564 0.014980605
000320 90 64 29 bd 32 51 d7 3d d4 2a 25 3d b8 3b 6c 3d
       -0.04135567 0.10513534 0.040324047 0.05767414
000330 3f 6b e6 bd a4 bc 1a 3e 03 cb 08 3e 84 59 41 bd
       -0.11250924 0.15111023 0.13358693 -0.04720451
000340 a4 ac d9 bd d9 29 2b 3d 5f 73 94 bd 6d 70 bd 3d
       -0.10628632 0.041787956 -0.07248568 0.09249959
000350 c6 c6 f0 3d 3f c5 6c 3c 72 20 37 bc c7 41 8d bb
       0.11756663 0.014451324 -0.011177169 -0.00431082
000360 5e 1a c7 3d 6f f5 45 bd 7d 16 0c 3e 36 05 8c bc
       0.09721826 -0.048329767 0.13680454 -0.017092329
000370 33 af c3 bd 6f ac 4f 3b 68 4d 21 3e 12 87 52 3d
       -0.09554901 0.0031688472 0.15752184 0.051398344
000380 37 fe 02 3e cd 66 3a bd 3f c9 34 3d 73 92 0d 3e
       0.12792288 -0.045508195 0.044137236 0.13825397
000390 e7 f9 93 3d 90 fb e6 3c bf 47 b5 bd 86 2a e1 bd
       0.072253995 0.028196126 -0.08851575 -0.10994439
0003a0 bf 7c 01 be ec d8 09 3d 4c 12 9d 3c 4a 3e 93 3d
       -0.12645243 0.03365414 0.019173764 0.07189615
0003b0 05 61 9f bd c0 cf cf 3d 18 7f 27 bd 55 c3 17 3d
       -0.07782177 0.10147047 -0.04089269 0.037051518
0003c0 69 87 a8 3d 02 63 87 bd 34 c2 e3 3c 7b 97 5b bd
       0.082289524 -0.06610681 0.027802564 -0.05361126
0003d0 e1 05 9d 3d 62 3d 9d bc 19 a6 4c bd d9 c8 d2 bc
       0.07667137 -0.019194309 -0.04996309 -0.025730537
0003e0 ce 75 14 be a2 b3 49 bd d0 f3 10 be cc b7 d9 bc
       -0.14498064 -0.049243577 -0.14155507 -0.026576899
0003f0 12 83 1a bd 9a 0a 85 3d 54 ef a2 3d fa 25 46 bd
       -0.037722655 0.06496163 0.079558045 -0.04837606

lstm.bias_ih_l0 f4 [256]
000000 5d 6f 87 bd 6b 85 63 bd 7c d4 ab bc 21 37 e8 bd
       -0.06613038 -0.05554716 -0.020975344 -0.1133864
000010 6a b6 7a bd b7 4f 21 3e b4 8f 49 3d f5 11 f5 bd
       -0.06120912 0.15753065 0.04920931 -0.11966316
000020 a5 30 28 bd 4d e6 cb 3d 82 3b 59 bd eb de b6 bd
       -0.041062016 0.09956036 -0.053035267 -0.08929237
000030 1f af d9 3d d5 1e 30 3e 3c 63 0c 3e 6a e8 1f 3c
       0.10629105 0.17199261 0.1370973 0.009760002
000040 33 81 20 be 7c 94 cb bd 85 45 f5 3c 26 ec 93 3d
       -0.15674286 -0.099404305 0.029940376 0.07222776
000050 35 15 86 b9 66 e3 31 3e 9c d3 f4 bc bb 20 12 3e
       -0.00025574272 0.17371902 -0.02988606 0.14270298
000060 01 50 07 be 00 5a 31 bd 28 ef 2b bd 79 55 b1 bd
       -0.13214113 -0.04329872 -0.041976124 -0.08658881
000070 0d f2 0a be 84 c3 ae bd 91 13 9a bd 7a 0e 98 bc
       -0.13568898 -0.085333854 -0.07523263 -0.01856159
000080 35 b8 ce bd 5c 17 0d be 2a cc c3 3d fa ef 20 3c
       -0.100937285 -0.13778442 0.095604256 0.00982284
000090 d6 8c a6 bc 71 82 37 bd 54 5b af 3a 78 63 e9 bd
       -0.020330828 -0.044802133 0.0013378658 -0.11395925
0000a0 79 f6 f2 3d 10 2d fc bd 02 ff 0e be 4c 2e 09 be
       0.11863417 -0.123132825 -0.13964465 -0.13396567
0000b0 0e fe 67 bd 87 93 9b 3d 2e 29 c0 bd ca cd 4c 3d
       -0.05663877 0.07596498 -0.093828544 0.050000943
0000c0 02 d3 2b 3d 01 09 f8 3d 11 c2 f3 bd 49 09 84 bd
       0.04194928 0.12111092 -0.119022496 -0.064470835
0000d0 ce 3d eb 3c 04 0b 36 be 43 63 d5 bd f6 60 d9 3d
       0.028715994 -0.1777764 -0.10419323 0.10614197
0000e0 58 97 09 3c f4 db 8f bd 09 d7 60 3d 97 64 33 3e
       0.0083979 -0.070243746 0.054892574 0.1751884
0000f0 09 54 26 be be 5f a6 38 53 a6 c6 bd 4e 44 e3 3c
       -0.16242994 7.93333e-05 -0.096996926 0.027742531
000100 c6 ff 89 bd 33 58 97 3d 7a 24 36 bc f2 c9 20 3e
       -0.06738238 0.073898695 -0.011117095 0.15702036
000110 e1 f8 52 3e e1 7b c2 3d 63 db 4f bd 25 3e c7 bd
       0.20602752 0.09496284 -0.050746333 -0.0972865
000120 4b 25 10 3e 0d 26 74 3e df fe 9c 3b d2 52 dd 3d
       0.14076726 0.2384264 0.004791125 0.10806812
000130 1a 32 30 bd 17 2e ce 3d 4d 84 be 3d 86 de 1c 3e
       -0.04301653 0.10067385 0.09302578 0.15319261
000140 98 14 a2 bd f0 ec 10 bd 4a b4 b6 bd aa c2 61 3d
       -0.07914084 -0.03538221 -0.08921106 0.055117287
000150 38 3f d8 3c c7 16 8a 3d f7 72 f7 3d 97 bf 19 bd
       0.026397333 0.06742626 0.12082475 -0.03753623
000160 38 70 86 3d 53 7a f4 3a 28 a5 d1 3d a0 9d 0a 3e
       0.06564373 0.0018652178 0.10236579 0.13536692
000170 85 fb 1c 3e 91 06 ed bd 32 48 4a bd 84 77 5a 3d
       0.15330322 -0.11573518 -0.049385257 0.053336635
000180 b8 00 88 3d c6 68 83 bd 63 18 d0 3d c6 0e 3e 3d
       0.06640762 -0.06416468 0.101609014 0.046400808
000190 d3 5c 51 bc 1f 61 1b 3e 9c 65 0f be c2 aa f1 3c
       -0.012778479 0.15173768 -0.14003605 0.029500369
0001a0 b3 19 43 3e 0a 00 e5 3d ea 31 8e bb 8a 9b 9f bd
       0.19052772 0.11181648 -0.0043394463 -0.077933386
0001b0 57 84 82 3c bf bb 51 3d aa 7d 31 bd 8f 37 93 bd
       0.015932245 0.05120444 -0.043332733 -0.07188331
0001c0 c5 96 88 3d fa 02 ec 3d 07 47 d4 bd a8 09 28 3e
       0.06669382 0.11524005 -0.1036511 0.16409934
0001d0 d2 22 e6 3b e9 e9 d8 bd b2 53 17 3e 09 47 01 bd
       0.007023194 -0.1059149 0.14778021 -0.031561885
0001e0 a6 af 8a bd 51 6c cc 3d e5 cf 85 3d a3 3d 28 3e
       -0.067717835 0.09981597 0.06533793 0.16429763
0001f0 78 3e 36 3b 09 85 1c bd 81 03 92 3d 59 2b 3e 3d
       0.002780823 -0.03821281 0.071295746 0.04642806
000200 1f 05 3b 3d b1 cb 32 3d 6f 3f b8 bb cc 0a 90 3d
       0.04565918 0.043651287 -0.0056227962 0.07033309
000210 80 c9 04 be 20 11 c3 bd 52 dd 63 3d 1f cf 19 bd
       -0.12967491 -0.09524751 0.05563099 -0.03755104
000220 d4 b8 93 bd 44 38 9d bc 2c 2f d3 bd a0 f8 71 3c
       -0.072129875 -0.019191869 -0.10311732 0.0147687495
000230 08 24 d3 bd 0d e3 69 3c fd 42 60 3d fb bb 18 bd
       -0.10309607 0.0142753245 0.054751385 -0.037288647
000240 7f 2f a9 bd da 8b d7 3d 39 bf 11 3d 25 33 cf 3c
       -0.08261012 0.105247214 0.035582755 0.025292942
000250 eb 05 95 3d c6 fa ba 3d 9c 85 1d be 6d ef 4d 3c
       0.072765194 0.091298625 -0.15382999 0.012569291
000260 2a 11 57 bd 35 c9 60 bb 9d 66 97 bc 08 04 9a 3c
       -0.052506603 -0.0034299616 -0.018481547 0.01880075
000270 e4 f4 a3 3d a7 08 69 3d 11 db d8 bc 23 d9 df 3c
       0.080056936 0.056893017 -0.026471647 0.027325219
000280 5d ba 5d bd 06 01 00 3e c5 ae 05 3d 2e 76 32 3b
       -0.054132808 0.1250039 0.032637376 0.0027231085
000290 64 41 c0 bc 7a 5a e2 3d 84 57 a4 bd ca ee 75 3d
       -0.02346868 0.11052413 -0.08024505 0.06004218
0002a0 a5 34 ca bd 7a d0 9e 3d 7d 87 7e bd 1b 18 b0 3d
       -0.098733224 0.077546075 -0.06214093 0.08598348
0002b0 2d 4a 42 3d 53 95 de bd 67 a8 88 ba e2 f4 5a bd
       0.04743402 -0.10868325 -0.0010426164 -0.053456195
0002c0 f8 84 da bd 05 43 f6 3c 21 1f 6f 3d 15 2f 9f bd
       -0.10669893 0.030061254 0.058379296 -0.07772652
0002d0 18 3e 65 bd 4f e5 c7 bd 1e 60 4f 3a 36 91 c3 bd
       -0.05596742 -0.09760534 0.0007910746 -0.09549181
0002e0 d6 d2 0a 3e 52 48 87 bd 6f bc 57 3d 23 97 2e 3e
       0.1355699 -0.06605591 0.05266994 0.17049842
0002f0 78 d4 17 bd 90 a3 fe 3a fd 4f c8 bc 94 ba 3a 3d
       -0.03706786 0.0019427408 -0.024452204 0.04558809
000300 f3 77 47 3d 39 76 48 3c ea 35 c0 3d b1 23 fa 3d
       0.048698377 0.012235218 0.09385283 0.12213839
000310 f3 15 96 bd 35 37 a3 3d 10 b8 1c bd f8 ad 69 bd
       -0.07328405 0.07969514 -0.038261473 -0.057050675
000320 93 cc 8d bd ef 47 0d bc a7 26 75 3d 14 43 fa 3d
       -0.06923785 -0.008623107 0.059851315 0.122198254
000330 e4 1f ae bc 99 77 12 3e e3 f7 8c 3c 78 c0 8d 3d
       -0.021255441 0.14303435 0.017208045 0.06921476
000340 7b ce 02 bd 3d 02 05 be 73 3b a9 bd da 3d 3a 3c
       -0.031935196 -0.12989135 -0.08263292 0.011367286
000350 15 19 ce 3d bc f2 06 3d a1 b7 7b bd 37 de b8 3d
       0.10063378 0.032946333 -0.06145442 0.09026759
000360 0a 4f 95 bd 58 fb 98 3d c3 fc 20 3e 0e 2a 1e 3e
       -0.07290466 0.07469815 0.15721421 0.1544573
000370 fc 49 3c bc 47 0b 6f 3d 0c 37 66 bc ee 3d 95 3d
       -0.011492249 0.058360364 -0.01405121 0.07287203
000380 97 d5 5f bc 95 75 a0 bd af a4 e2 bc 82 b4 a7 3d
       -0.013661764 -0.07834927 -0.027666418 0.08188726
000390 58 00 51 bd c8 74 1e 3e 07 96 04 be 81 1a 54 3d
       -0.05102572 0.15474236 -0.12947856 0.05178309
0003a0 30 c2 18 3e fd 80 a2 bd b1 6e 8b bd 32 8a ab 3c
       0.14917827 -0.07934759 -0.06808222 0.02093992
0003b0 6a bb 7f 3b 90 e7 11 3d 2e 8a 9e 3d 2f fd eb ba
       0.003902162 0.035621226 0.077411994 -0.0018004532
0003c0 3c d7 86 3d 0a 51 22 3e 1a 7d c5 3a f0 81 0f 3e
       0.065840214 0.15851226 0.001506719 0.14014411
0003d0 b4 55 4b 3c 5c d5 2c 3d 2c 2b 24 3d fc e8 0e 3e
       0.01241057 0.042195663 0.040080234 0.13956064
0003e0 46 57 6e 3d 9e fb 23 bc 83 4c 00 be ed 93 d7 bb
       0.0581887 -0.010008721 -0.12529187 -0.0065789134
0003f0 e9 03 b8 bd c4 b5 8e bd 1b 6f ef bc e1 1e 49 bc
       -0.08985121 -0.06968263 -0.029227784 -0.0122754285

lstm.bias_hh_l0 f4 [256]
000000 95 32 85 bd 20 04 16 3d 84 84 94 bd 69 1a ae bd
       -0.065037884 0.036625028 -0.07251838 -0.08501131
000010 5b 4c f9 bc 32 f6 73 bd fb 20 d8 3c 36 a6 33 3d
       -0.030431917 -0.059560962 0.026382914 0.043859683
000020 91 5e 73 3c 3c 33 0e be db c4 ff bd 91 22 bd 3d
       0.014854089 -0.13886732 -0.12488719 0.09235109
000030 51 84 af 3c 3f 18 1b 3e 0c be f1 bc c9 25 29 3d
       0.021425398 0.15145968 -0.029509567 0.0412958
000040 cb d7 af 3c 9b 02 86 bc dd 51 6d bd 18 b9 88 3b
       0.021465203 -0.016358664 -0.0579394 0.0041724555
000050 3d 84 37 3d 97 52 40 3d e3 ce 79 bd 82 93 02 3e
       0.044803847 0.046953764 -0.06098832 0.12751582
000060 24 1b b2 bc a4 64 a2 3d 53 d6 8d 3d de b7 a4 3d
       -0.021741457 0.07929352 0.06925645 0.080428824
000070 55 bd d9 bd 49 46 f7 bc 3f b0 94 3d 40 0a af bd
       -0.10631815 -0.030184882 0.07260179 -0.08546877
000080 e8 02 88 bd 59 0f 03 bd 1c a1 e4 3c 9c 11 c8 ba
       -0.06641179 -0.03199706 0.027908854 -0.0015264037
000090 01 cb 12 bd 4d 1a bd 3d b5 9c 3a 3d 55 ff 69 bd
       -0.03583813 0.09233532 0.045559604 -0.05712827
0000a0 77 7d a6 3d 8f e8 e7 bd d2 bf 57 3d b6 d7 1e bc
       0.08129399 -0.11323654 0.05267317 -0.009694984
0000b0 56 f9 94 3d f4 64 7d 3a 43 41 b1 bb 09 49 aa 3c
       0.072741196 0.0009666227 -0.005409391 0.020786779
0000c0 6d e6 11 bd 0a 74 a2 bd 4a 96 19 3d 27 85 1e 3e
       -0.03562014 -0.07932289 0.037496842 0.15480481
0000d0 20 c4 e5 3d e1 16 7b 3c 78 e3 7e bd c2 e2 f0 3c
       0.112190485 0.015325279 -0.06222865 0.029405002
0000e0 11 94 f8 3d 13 7c 33 3d 13 9c 09 b9 d4 f7 36 bd
       0.121376164 0.0438195 -0.0001312348 -0.04466994
0000f0 9e f4 03 3d 99 19 48 3c de 08 a2 3d ea 3d e9 3b
       0.032215707 0.012213134 0.079118475 0.0071179764
000100 7f b3 73 bb cb ec f4 3d fa b6 0f 3e fe 08 05 3e
       -0.0037185845 0.11959227 0.14034644 0.12991711
000110 3c 71 2d 3e bd 94 d3 3d 7e c5 24 3e 02 8e 9e 3d
       0.16937727 0.10331104 0.16090962 0.077419296
000120 94 ca 86 bc da 15 77 3e d7 2a 11 3d 97 7a 11 3d
       -0.016454019 0.2412943 0.035441246 0.0355173
000130 4c 53 66 3b 80 84 69 3d 04 ae 08 3e fb dd 00 3c
       0.0035144864 0.057011127 0.13347632 0.007865424
000140 49 09 91 bd 1c 56 b9 3d e5 4f a7 bc c5 18 61 3d
       -0.07081849 0.09049627 -0.020423839 0.054955263
000150 a1 31 28 3e 72 b6 6e 3b 94 ad 95 3d 3c 4b cf 3d
       0.16425182 0.0036424664 0.07308498 0.10121772
000160 76 2b a4 3d 6c df 40 bc f7 f3 fc 3a 93 08 1c bd
       0.08016102 -0.011772018 0.0019298781 -0.038094115
000170 13 8b 97 bc 3b ba c2 bd e1 1f b0 bd a7 b0 e3 3d
       -0.018498933 -0.09508177 -0.085998304 0.11117678
000180 1b 9d dc bc b4 8b b8 3d fd 2e 1b bc 53 13 0b 3d
       -0.026930382 0.09011021 -0.009471652 0.033953976
000190 7d 65 84 3d 59 52 d8 3d 65 54 26 3d 11 26 ad bd
       0.0646467 0.105625816 0.04060783 -0.08454526
0001a0 80 a7 87 3d 24 bc 35 3d 18 33 12 3e 44 83 cb bd
       0.06623745 0.044368878 0.14277303 -0.09937146
0001b0 16 a7 12 3d 85 63 a4 3d ac b9 0b 3e 25 a3 b9 bc
       0.035803877 0.08026794 0.13645047 -0.022660801
0001c0 9b 9f 93 bd ee bf 25 3e 9b a8 c1 3c fb 17 57 3e
       -0.07208177 0.16186497 0.023639968 0.21005242
0001d0 62 48 bf 3d e9 ad 06 be de e5 5f bd 4a 17 36 3e
       0.09339978 -0.13152279 -0.054662578 0.17782322
0001e0 a2 38 0d bd 7f 72 41 bd 34 99 38 bd 52 14 1d 3e
       -0.034477837 -0.047228333 -0.04506798 0.15339783
0001f0 71 c6 f2 3d 68 2e 94 3d 07 38 80 3d e1 09 57 bd
       0.11854256 0.07235414 0.06260686 -0.052499656
000200 13 8b 44 bd b3 ce b7 3d 46 4d e1 bc f4 a3 94 bd
       -0.047984194 0.089749716 -0.027502667 -0.07257834
000210 87 4d ab bc e1 ca 03 bc 19 96 7b bd 8c 29 10 3d
       -0.020910991 -0.008043976 -0.06142244 0.035195872
000220 f4 0a db 3d 00 bb a9 3d 50 55 e9 bc 7c e4 6f 3c
       0.106954485 0.082876205 -0.028483063 0.014641877
000230 26 55 9b bc af bd 10 be 37 0b 95 bd a5 15 63 bd
       -0.0189615 -0.14134859 -0.0727753 -0.055440564
000240 54 a9 e9 bd ed bb 8d bc 51 18 8e bd 9b fc 8d 3d
       -0.1140925 -0.017301524 -0.06938232 0.06932946
000250 c3 59 27 be 7f 1e cc bd 7f 4e 83 3d d9 80 18 3c
       -0.16342835 -0.09966754 0.06411456 0.009308063
000260 f7 64 b5 bd 19 8b 42 bd 41 f5 ec 3d e9 9f da 3d
       -0.08857148 -0.047495935 0.11570216 0.10675032
000270 46 d2 1a 3d 8c 67 14 bd d5 f9 b6 3c 2d 2e e5 bd
       0.03779819 -0.036231562 0.022335926 -0.11190448
000280 0b 84 07 3d e2 80 13 bd d7 c1 39 be 18 50 02 bc
       0.03308491 -0.036011584 -0.1814035 -0.007953666
000290 b6 0d 4c 3a 7d a1 8a 3d 74 91 fb bd 41 29 99 3c
       0.00077840255 0.06769083 -0.12283602 0.01869643
0002a0 4c 8d 9d 3c 23 e3 e2 3c 6c 78 07 bd 98 67 92 bd
       0.019232415 0.027696198 -0.033073828 -0.07148665
0002b0 a8 ae 1c bd 49 f8 20 be 1f d3 20 3d 0d 5a ce bd
       -0.038252503 -0.15719713 0.03926384 -0.100757696
0002c0 cb 51 ed bd 66 b5 ae bd 95 49 d1 bc 2a 5a c4 3c
       -0.115878664 -0.08530693 -0.025547782 0.023968775
0002d0 e4 de f7 3d 4a 94 06 be ed e3 3d 3d ea 06 f4 bd
       0.1210306 -0.13142505 0.046359945 -0.11915381
0002e0 a7 ce 1a bd 2b 21 94 bd 81 ee 6b bc e9 08 fc bb
       -0.037794735 -0.07232889 -0.0144001255 -0.007691492
0002f0 74 5f c0 3d 4a 12 08 bd 08 9f 5e 3d cd 9e 12 bd
       0.09393206 -0.033220567 0.054350883 -0.035795975
000300 b2 b6 49 bd 8a 41 ad bd 1b b5 d8 3d 09 d9 79 3d
       -0.049246497 -0.08459766 0.10581418 0.060997996
000310 6f a5 ac bd 61 c0 48 bd 20 cf ce 3d 36 01 bd 3b
       -0.084299915 -0.04901159 0.100981 0.0057679666
000320 22 19 e9 3d 4a 4b 5c bd 40 41 f7 bd 14 4e 09 3d
       0.11381747 -0.05378274 -0.12072992 0.033521727
000330 5f bf ff bd 09 07 73 bd e4 02 12 3e 24 08 d7 bd
       -0.12487673 -0.05933288 0.14258915 -0.104995996
000340 ac 68 5d bd 88 9a 4d 3c 63 80 9e 3d c6 69 ba bd
       -0.0540549 0.01254905 0.077393316 -0.09102206
000350 01 94 bc bc 8c 11 28 3e fb 57 9b bd f9 13 0b 3e
       -0.023019793 0.16412944 -0.0758514 0.13581838
000360 77 cd 52 bd 7d 99 ea 3d e4 5d d3 3d d9 25 6a bc
       -0.051465478 0.11455057 0.103206426 -0.01429125
000370 f2 46 c2 3d 81 32 d2 bd 34 78 6f bc 1c 0b 00 bc
       0.09486188 -0.10263539 -0.014616061 -0.007815149
000380 95 97 4f 3d 9f 88 a5 bd b8 bd 87 bd e9 e5 e6 bc
       0.05068167 -0.08082699 -0.06627983 -0.028185802
000390 d3 f3 83 bd 96 fd 93 bd 59 f3 0a 3d 13 d8 89 3d
       -0.0644299 -0.07226102 0.03392348 0.06730666
0003a0 e6 57 90 3d 81 75 f2 3c 16 31 70 bd 28 c8 19 3d
       0.07048015 0.029597046 -0.058640562 0.0375444
0003b0 3a 58 47 bd 43 43 ad 3d 70 9f d9 3d 6e 1f 14 bd
       -0.048668124 0.08460095 0.106261134 -0.036162786
0003c0 48 ec 43 3d 8e 3a 01 3e 9a 15 ad 3d 3e 7b 08 3e
       0.047832757 0.12619993 0.08451386 0.13328263
0003d0 17 18 71 3c 90 f7 cc 3c 4a 1d 94 bd 16 3c 9f bc
       0.014715216 0.02502039 -0.07232149 -0.01943783
0003e0 58 e3 a0 bd 87 11 dc bd 05 84 32 3d 45 00 8f bd
       -0.078558624 -0.107455306 0.043582935 -0.06982473
0003f0 3b 7a 05 be 13 cd e2 3c f1 1d 82 bb 1a 11 da bd
       -0.13034908 0.027685678 -0.0039708545 -0.10647793

lstm.weight_ih_l1 f4 [256, 64]
000000 86 01 e9 3d 8d 58 00 3d fa 4a 1e 3d a6 cd a4 bb
       0.11377244 0.03133445 0.038645722 -0.005029398
000010 ab 4b fd 3d 74 2d 18 bc ef 23 d6 bc 0d 65 03 bd
       0.12367948 -0.009288181 -0.026140181 -0.03207879
000020 e7 fc 9a bc 35 ca 53 be f3 55 9b bd 0d 48 fd bc
       -0.018919421 -0.20682605 -0.07584753 -0.030918146
000030 78 5c a0 bd 89 c6 a3 bd db 48 d5 3d eb ee d3 3d
       -0.07830137 -0.07996852 0.10414287 0.10348304
000040 83 4a 16 bd 0b 94 9a bd e1 49 b1 bd 5d 5a 14 3e
       -0.036692154 -0.07547768 -0.086566694 0.14487596
000050 90 79 ae 3d 4a 55 00 bc c0 ec 64 bd 56 84 0a be
       0.0851928 -0.0078328345 -0.055889845 -0.13527045
000060 33 be f7 3b aa 16 78 bd 4d 1b 86 bd d7 54 91 bd
       0.0075605153 -0.06056849 -0.06548176 -0.0709626
000070 6c 29 67 bc 81 bc db 3b 9b ce 91 3d c4 ae 20 3e
       -0.014108997 0.006705821 0.07119485 0.15691668
000080 6d 96 3c 3d 6b 70 4f 3d a1 70 a8 3d 38 bd a5 bd
       0.046041895 0.05064432 0.08224607 -0.08092731
000090 39 8d 98 3d 6b c8 b7 3c 58 4f d7 3d 61 b7 a0 bd
       0.07448811 0.022434434 0.105131805 -0.07847477
0000a0 c9 73 60 bd 83 ae 00 be b8 8f 70 3d fc 84 9c bd
       -0.05479792 -0.12566571 0.05873081 -0.07642552
0000b0 3d 1a 8b 3c ec b3 64 3d 0a 4b 03 bd f6 2b 25 3d
       0.016980285 0.05583565 -0.032053985 0.040325128
0000c0 ba 59 dc bd 4c 6a c2 bc 41 be ba bd 08 cb 3b 3c
       -0.107593015 -0.023732327 -0.09118319 0.011461981
0000d0 87 00 7b bc 7b 04 c4 3d 9f 57 2a 3d 48 91 9c 3d
       -0.01531995 0.09571167 0.04158747 0.07644898
0000e0 19 44 18 3d ac 8e 63 3c 77 c8 aa bd 61 6b d1 3d
       0.037174318 0.013888996 -0.08339017 0.10225559
0000f0 a0 39 3a bd 72 67 eb 3d 54 c4 83 bd 9a 62 bb bd
       -0.04546511 0.1149434 -0.06433931 -0.09149666
000100 5f c9 71 3e d1 7f 88 3a 27 47 10 3e 38 77 01 3b
       0.23611973 0.0010414069 0.14089642 0.0019754898
000110 15 1e 0a be 73 60 c7 3d eb 9f 7c b9 5e 88 73 39
       -0.13488038 0.09735193 -0.00024092167 0.00023225087
000120 b7 e8 23 3c 34 4d 82 3d 51 c0 d9 3d 95 02 b4 bd
       0.010004214 0.063623816 0.106323846 -0.08789555
000130 16 eb 98 3d d1 a2 01 3e eb d5 83 3d 2a 4a c1 3d
       0.07466714 0.12659766 0.06437286 0.09437974
000140 b9 ae df bd 00 a0 04 bd 16 f4 83 bc 1f 78 0d 3c
       -0.109219976 -0.03237915 -0.0161076 0.008634596
000150 28 25 28 be e1 7c 6d bc 38 c3 f5 3d 9d 38 c5 bd
       -0.16420424 -0.0144951055 0.12000126 -0.09629939
000160 63 21 80 3d 01 d1 ca bd 81 0d b8 bd 9c 9d c5 bd
       0.06256368 -0.099031456 -0.08986951 -0.09649202
000170 32 61 49 be 93 57 2a 3e 72 bf 28 be a4 0e 34 be
       -0.19665983 0.1663497 -0.1647928 -0.1758371
000180 2b b8 03 be 2a ee d5 3c 5a e7 0a 3e f9 a8 11 bc
       -0.12863223 0.026114542 0.13564816 -0.008890384
000190 35 a2 48 be ae 90 b6 bd 26 a4 d7 3d 11 05 0d bd
       -0.19593127 -0.08914314 0.10529356 -0.03442866
0001a0 ad d3 45 3e 28 6f 6d bd 07 1d de 3d c1 77 e7 3c
       0.19319029 -0.057967335 0.1084538 0.028255345
0001b0 7d 00 c5 bc cf 39 38 3e fd 15 fe bd 71 ca 04 3e
       -0.024048084 0.17990802 -0.12406538 0.1296785
0001c0 68 90 18 3e 8d e0 b4 3d 9e 19 98 3d 0d 87 9f bc
       0.14898837 0.08831892 0.07426761 -0.019473577
0001d0 50 2b 58 3e a0 d3 ea 3c ae 2e 86 3c 00 d8 99 3d
       0.21110272 0.028665364 0.01637968 0.07511902
0001e0 04 9e 4b bd 87 aa 3b bd c4 08 98 bd 7a 03 37 3d
       -0.049711242 -0.045816924 -0.07423547 0.04468105
0001f0 26 83 3e bd a6 ae 41 be 25 9c 08 3d a0 a1 2c 3d
       -0.04651179 -0.1891428 0.033352036 0.042146325
000200 3b c8 ed 3d 54 8e 33 be dc 2e 63 3e 16 25 cf 3d
       0.116104566 -0.17534763 0.22185844 0.101144955
000210 98 6a 7e 3d 7f ce a2 3d e1 59 6b 3c a3 6c ff 3c
       0.062113374 0.07949542 0.0143646905 0.031179732
000220 b4 8a 45 be 3e 02 cb 3d 1b 79 09 3e e5 df b6 bc
       -0.19291192 0.09912537 0.13425104 -0.022323558
000230 8a 07 02 3e c4 c5 57 3d db d4 9c 3d 16 21 98 bc
       0.12698188 0.05267884 0.076577865 -0.018570464
000240 19 d4 44 bd 60 35 2d bd 66 58 3d be 89 f6 5f be
       -0.048053835 -0.04228723 -0.18490753 -0.2187139
000250 19 ab b5 bd 14 b5 c1 bd 30 69 86 3c 5f e8 5c 3c
       -0.08870525 -0.09458366 0.01640758 0.013483136
000260 9f fe 23 3d de ef 39 bb 8a dc 14 bd 5d e3 2f be
       0.040037747 -0.0028371732 -0.036343135 -0.17176576
000270 e0 1b 04 be 4b bb ae bd 59 27 5e bd b5 63 9f bd
       -0.12901258 -0.08531817 -0.054236744 -0.077826895
000280 87 43 34 be c2 05 05 bd 44 45 a0 3d dd 9e ff 3d
       -0.17603885 -0.032476194 0.07825711 0.12481473
000290 32 bb e7 bd d4 af d9 ba 55 f1 ab bd a8 dc 98 3d
       -0.113150015 -0.0016608187 -0.0839564 0.07463962
0002a0 7e eb 36 3e 25 8c 34 3c ee bd 25 3c f6 c5 c9 3d
       0.1786327 0.011019741 0.010116084 0.09852211
0002b0 1a 80 5a 3d f2 64 a8 3d 24 92 a5 bd 34 00 68 bd
       0.053344823 0.08222379 -0.08084515 -0.05664082
0002c0 75 b2 89 3b 20 54 35 bd 88 a4 23 3d 2e 25 ec bd
       0.004202182 -0.04426968 0.03995183 -0.11530529
0002d0 38 35 cf 3d 60 d3 9e 3d 72 49 02 3e 41 1c 4b 3e
       0.101175725 0.0775516 0.1272333 0.19834997
0002e0 92 a8 cb bd d3 c0 14 bb 82 b4 5f 3d 00 31 d0 bd
       -0.099442616 -0.002269794 0.054615505 -0.10165596
0002f0 35 4a 34 3d 09 2e 02 3e 8a 8d fd bd 20 d8 31 be
       0.04401608 0.12712874 -0.12380512 -0.17367601
000300 5d b2 f5 3d ab 85 a4 3d fe 30 80 bb 69 41 a9 bd
       0.11996911 0.08033308 -0.0039120903 -0.08264429
000310 92 4c d5 3d f5 54 4c bc 2a bf 08 be 3f 61 5e 3d
       0.10414995 -0.012471427 -0.13354173 0.05429196
000320 01 ab 28 bd cc f5 23 ba 46 d6 ba 3a 48 c7 93 3c
       -0.041178707 -0.0006254583 0.0014254532 0.01803936
000330 62 88 27 3d 86 96 d7 bd 13 38 07 bd ea 88 06 3e
       0.04090155 -0.10526757 -0.03301246 0.13138166
000340 3d ad 98 bc 82 0a 49 3d bf 63 90 3d 66 a1 df bc
       -0.018637294 0.049082287 0.07050275 -0.02729864
000350 21 be c7 3c 12 3f 77 3d 15 d6 dd 3d 0c 75 c2 3d
       0.024382653 0.060362883 0.108318485 0.09494981
000360 ec d6 38 3d 3d 48 36 bd 7e c5 a9 bd 14 70 86 3d
       0.04512684 -0.044502486 -0.08289622 0.06564346
000370 10 12 77 3d a9 04 ba bd 6f 1a a3 bd bd b5 15 3d
       0.06031996 -0.0908292 -0.07964026 0.036550272
000380 3b 47 b7 bd 56 da 3d bd 8b 81 af 3c 17 b1 12 3d
       -0.08949133 -0.0463508 0.021424076 0.035813417
000390 5b 7b 62 3d 03 db 22 bc f5 24 1c bd fd 56 e7 3d
       0.055293422 -0.009939912 -0.038121182 0.112958886
0003a0 7e 3d 18 be 39 5f 16 bd 55 53 95 bc d4 d5 55 3d
       -0.14867207 -0.036711905 -0.018228212 0.052205876
0003b0 77 2e db bd 69 0f 94 bc 83 83 37 bc d6 4e 85 bd
       -0.10702222 -0.018073754 -0.011200788 -0.065091774
0003c0 ad 5e 13 be 65 d6 8c bd 5a 27 14 3a 45 4e 86 bd
       -0.14391585 -0.0687683 0.0005651616 -0.065578975
0003d0 c8 fc ee bb e5 2b 56 3d 97 3a 8c bd e4 76 a4 bd
       -0.0072933175 0.052287955 -0.068471126 -0.08030489
0003e0 34 77 8c 3d 51 bc 52 bd c7 78 cf bc 60 26 96 bd
       0.06858674 -0.051449124 -0.025326146 -0.07331538
0003f0 97 43 df bd 04 fd 8b bd 38 c9 f4 ba 41 30 c3 bd
       -0.109015636 -0.06835368 -0.001867569 -0.09530688

lstm.weight_hh_l1 f4 [256, 64]
000000 11 e8 c3 bd d7 0c ee 3b 36 42 20 bd 4a 6a 87 bd
       -0.095657475 0.007264714 -0.039125644 -0.0661207
000010 03 14 00 3d c1 1b b5 3d 06 c1 8c 3d c4 60 c2 bc
       0.031269085 0.08843184 0.06872754 -0.023727782
000020 9c 1b 1b bd d1 7f d4 3d 6b dd e7 bc 3a 5d 90 3b
       -0.037868127 0.103759415 -0.028303823 0.0044056447
000030 5e e8 8d 3d 48 6c e7 bc f3 1c a0 bd 70 6b da bd
       0.06929086 -0.028249875 -0.078180216 -0.10665023
000040 16 9d 89 bd 53 66 00 3e fa b9 0d bd 88 03 08 3e
       -0.06719415 0.12539034 -0.03460119 0.13282597
000050 ed 42 00 be ba 1d e8 bd 7f 29 84 3d 5c a1 8e bd
       -0.1252553 -0.11333795 0.06453227 -0.069643706
000060 cb 2f 6f 3d a4 80 bf 3b 95 de 41 3d 71 c7 e8 3d
       0.05839519 0.0058441926 0.04733141 0.113661654
000070 05 8f 23 bb ab 1a 2d 3d 44 2d e8 bc ca 9e a4 3d
       -0.0024957072 0.04226176 -0.028341897 0.08038099
000080 1d 96 63 3d 9c 62 8e bd 37 b5 e3 bd a0 c4 8b 3d
       0.05556308 -0.06952402 -0.11118548 0.068246126
000090 c0 2e b9 bd 73 77 cb 3d 51 3e eb bd 8f b9 93 bd
       -0.0904212 0.099348925 -0.11486495 -0.07213127
0000a0 6f 4e 63 bd 51 6c 2d bd 78 fa cc 3d 52 b7 68 bc
       -0.055494722 -0.042339627 0.100087106 -0.014203863
0000b0 21 d2 1a bb 71 3d 6b bd e5 82 ab bd 59 36 73 bd
       -0.0023623782 -0.057431642 -0.083745755 -0.059378
0000c0 70 56 7a 3d 8c a6 f9 bc 7d d8 d2 bc 82 5b d5 bd
       0.06111759 -0.030474924 -0.025737995 -0.10417844
0000d0 a3 52 c4 3d 28 41 19 3e fe b7 dd bd 1d 6f a9 bd
       0.09586074 0.14966261 -0.10826109 -0.08273146
0000e0 7a 93 90 bd c4 19 3b bd 2b 62 52 bd 71 1a 04 bd
       -0.07059379 -0.04567887 -0.05136315 -0.03225178
0000f0 14 3c 23 be 89 62 e8 b9 bd c1 a0 bd b9 41 4b 3d
       -0.15940887 -0.00044323903 -0.07849453 0.049623225
000100 41 fa b4 bd 89 46 28 bd 46 19 8f 3c 0d e3 1e 3e
       -0.08836795 -0.041082893 0.017468106 0.155163
000110 3e ae 15 3d f1 ca 19 bc 9d 3b 96 3d 98 35 a2 3d
       0.036543123 -0.009386764 0.07335589 0.079203784
000120 06 da 6a bd f2 dc a8 3c de 7f 26 bd f8 4a 8c 3e
       -0.05733683 0.020613167 -0.040649287 0.27400947
000130 84 69 2a be 90 8b 48 3d 60 1c 95 3d 15 2b 28 bd
       -0.16641814 0.048961222 0.07280803 -0.04105671
000140 cd 83 8e bd 40 96 9f 3d 1c e8 5d bc 66 1e 14 3e
       -0.06958733 0.0779233 -0.013544109 0.14464721
000150 d1 ff 30 3e 1e 73 ea bd 14 fb 1a be 3a 9e 56 bb
       0.17285086 -0.11447738 -0.15134841 -0.003274812
000160 c1 3b 58 bd 88 ee 2a 3e 08 06 2d 3e 59 7b 48 3d
       -0.05279136 0.16692555 0.16896832 0.04894576
000170 88 e1 0a bd 59 1c 13 be 2c 91 ec 3d 34 f4 46 bd
       -0.03390649 -0.14366283 0.11551127 -0.048572734
000180 85 eb 4a bd 86 e5 ba bc 30 87 0b 3b aa 58 81 bd
       -0.049541015 -0.022814523 0.0021290295 -0.063157395
000190 bf 72 3d 3b 18 df 43 3d 13 11 06 3e dc 8b 0d 3d
       0.0028907505 0.04782018 0.13092451 0.03455721
0001a0 db 78 85 3b ca 43 16 be b3 cf 1e 3e 59 99 35 3e
       0.004073245 -0.14674297 0.15508918 0.17734279
0001b0 b3 23 e4 bd 27 ff 65 bc f5 c5 1d 3d a8 1f 3a 3c
       -0.111396216 -0.014037884 0.038518865 0.0113600865
0001c0 52 ac 01 be fb 73 36 be 4d 14 d9 bc 1d 92 a2 3d
       -0.12663391 -0.1781768 -0.026498938 0.07938025
0001d0 70 02 06 3e 7b f5 0a be e5 56 72 bd 28 94 c0 3d
       0.13086867 -0.13570206 -0.0591649 0.094032586
0001e0 f1 00 9e bd b1 1e ae bd 4f 5c a4 3d df 7a ae 3d
       -0.07715023 -0.08501948 0.08025419 0.085195296
0001f0 cd 4f 98 3c 78 01 a2 3d e3 99 1a 3e af ff e0 3d
       0.01859274 0.079104364 0.15097766 0.10986268
000200 13 47 1b bd 74 08 43 3d 0c 8b 9a 3d 20 4c 4f 3e
       -0.03790958 0.047615483 0.07546052 0.20243883
000210 6d 51 cb 3d c0 34 71 3d eb 88 06 3e 8c 5c 8f 3d
       0.0992764 0.058888197 0.13138168 0.07000074
000220 75 65 44 3e a9 2c 2c 3e 28 7f 1d be 42 34 41 3e
       0.19179328 0.16813911 -0.15380538 0.18867591
000230 2a 69 08 be e3 96 b1 3d 2f 10 8f 3d 49 77 11 bd
       -0.13321367 0.086713575 0.06985509 -0.03551415
000240 e5 78 51 be 86 f7 87 bd 86 7f f6 bd 0a 76 a8 bb
       -0.20456274 -0.06639008 -0.12036042 -0.0051410245
000250 bc 12 e1 3d 30 80 91 bd 08 4d 46 3d e8 84 1d be
       0.109899014 -0.07104528 0.048413306 -0.15382731
000260 ce 59 42 3d 7e 27 94 3d 52 12 1c bd 51 fc 3c 3d
       0.047448926 0.07234095 -0.03810341 0.046139065
000270 74 e5 a4 3d 55 5e 35 be 68 10 8a 3d 1c b6 f3 3c
       0.08051577 -0.17711766 0.067414105 0.029749922
000280 c5 12 2d be d4 78 36 3d ee 40 0d bd 72 6d eb bc
       -0.16901691 0.044548824 -0.03448575 -0.028738711
000290 a3 bd a7 bd f2 21 65 bc c4 61 27 3e 7a 2d 20 b9
       -0.08190467 -0.013985144 0.16345888 -0.0001527573
0002a0 a4 3d 6d bb e9 a1 ca bc 33 cc 0d 3e 33 01 90 3d
       -0.003620007 -0.024735408 0.13847427 0.07031479
0002b0 8d 82 07 bd a0 10 4c 3b b3 4d 21 3d de 43 4f 3e
       -0.033083487 0.003113784 0.03938074 0.20240733
0002c0 13 88 11 be 92 6e 44 be f8 c2 f0 bd 0f 10 03 3e
       -0.14212064 -0.19182804 -0.11755937 0.12799095
0002d0 52 9b 66 3d 81 0a a6 bd e4 51 fe 3b 7f 46 11 3e
       0.05630047 -0.08107472 0.007761227 0.14187048
0002e0 5b 53 2f 3d fa 98 be bc da 24 04 3e 40 81 bb 3d
       0.042804103 -0.023266304 0.12904683 0.09155512
0002f0 7f 1d ad 3e ad 0c 59 3c 7a 79 9e 3d aa 87 d7 3d
       0.33811566 0.013247651 0.077380136 0.10523923
000300 09 34 00 3e 85 61 9e 3d 45 a8 79 bd 97 20 0d be
       0.1251985 0.07733444 -0.06095149 -0.13781963
000310 7e 9e 8e bd 45 7d 9c 3d c5 92 f4 bc 79 f1 12 be
       -0.06963824 0.07641081 -0.029855141 -0.14349927
000320 4b a6 85 3d 7b af 2f bd d2 df 22 3d 41 79 8c 3d
       0.065258585 -0.04289196 0.039764233 0.06859065
000330 b1 00 05 3e ab 8a aa 3b 77 12 8e 3d 70 f0 ab 3c
       0.12988545 0.005204519 0.06937116 0.020988673
000340 00 91 05 3d b6 5a db bd 12 de 16 bc 8a 51 cf 3d
       0.032608986 -0.10710661 -0.009208219 0.10122974
000350 11 71 5f 3d 7b 4a 61 3d a3 b8 ca 3d 00 da bf bd
       0.054551188 0.05500267 0.09898498 -0.09367752
000360 43 dd a9 3d 7a 9f a5 bb 8c 07 2e 3d c0 10 c7 bd
       0.082941554 -0.0050544115 0.042487666 -0.09719992
000370 48 09 d2 bd 64 99 8f 3d 2a e1 09 bd cd b1 9c bd
       -0.102556765 0.07011679 -0.033662 -0.076511
000380 57 94 bb bd ea 4a 58 bd 86 66 5b 3d 3b 3a 47 bb
       -0.09159153 -0.05280582 0.05356457 -0.0030399698
000390 92 f7 ce bd cc b2 c0 3d 4d 32 fe bd bf 1c 20 bd
       -0.10105814 0.09409103 -0.12411938 -0.039089914
0003a0 84 2c ae bd 01 33 c5 bd 90 7f 3f 3d c7 7f 58 bd
       -0.085045844 -0.09628869 0.046752512 -0.052856233
0003b0 76 c3 1e 3d a2 57 39 bd 61 b8 f6 bc 69 a5 5d bd
       0.038760625 -0.04524959 -0.030117216 -0.054112826
0003c0 03 b3 8e 3d c6 41 70 3d 90 88 78 3d 5f c3 77 bd
       0.069677375 0.058656476 0.06067711 -0.060489055
0003d0 09 ad c9 3d 69 1f 50 bb 43 06 e3 3d 97 82 a0 3d
       0.09847457 -0.0031757003 0.11085179 0.07837408
0003e0 fb 13 04 3d 12 bc 17 bd 56 54 15 bd 88 b7 14 bb
       0.032245617 -0.037044592 -0.036457382 -0.00226924
0003f0 e0 fa 34 be 77 82 12 3e b0 90 6a 3c 1f f6 91 3c
       -0.17673826 0.14307581 0.014316723 0.017817555

lstm.bias_ih_l1 f4 [256]
000000 a5 9d 6d bd 44 63 83 bd 2f 64 0c be e7 e8 16 bd
       -0.05801167 -0.06415418 -0.13710092 -0.036843207
000010 bf 8e 10 be f1 46 0d bc 79 64 9a bd 5a 0c 29 3d
       -0.14116953 -0.008622871 -0.07538695 0.041271545
000020 94 86 31 bd a0 73 01 bd 77 13 35 be 92 3b 04 be
       -0.043341234 -0.03160441 -0.17683206 -0.1291335
000030 73 0c 80 bc cc 0c d1 3c a3 7e ba bc af 14 88 bc
       -0.015630936 0.025518797 -0.022765463 -0.016611425
000040 25 50 18 3b ab b4 65 ba 90 53 dc bd bf 5c 1b bd
       0.002324113 -0.00087625784 -0.10758126 -0.037930246
000050 9d a8 20 bd 3c 11 cb bd 4a de b5 bd 80 10 bf 3c
       -0.039223302 -0.099153966 -0.08880289 0.023323298
000060 a9 84 d5 3c b1 bd e6 bd b6 ff 76 3d 77 39 ea 39
       0.026064234 -0.112666495 0.06030246 0.00044674773
000070 33 71 95 bd 1c 74 02 be 8e 4f 07 3d af 8a 9b 3c
       -0.07296982 -0.12739605 0.033034854 0.018987028
000080 62 57 ab 3c c3 d0 79 be 36 a2 6b 3d 83 27 7b bd
       0.02091569 -0.24396043 0.057527743 -0.06131698
000090 8d 35 21 be e8 fd 92 bb b3 fe 98 bd 48 13 57 3d
       -0.15743084 -0.0044858344 -0.07470455 0.052508622
0000a0 fe 58 12 3d 7e 4f 97 bd 44 c2 b3 bd e4 d4 2b bd
       0.0357294 -0.07388209 -0.087772876 -0.041951075
0000b0 05 ee 09 be 6d fe fa bd 49 6b e8 bd 90 e4 06 3d
       -0.13469703 -0.12255559 -0.11348588 0.032932818
0000c0 fc a7 8b bc 0a fd 73 3d 29 a9 6c 3d 45 cb a9 bd
       -0.017047875 0.05956749 0.05777851 -0.08290724
0000d0 d6 f9 73 bd b9 89 9a 3b da 0e 33 bd ba 07 9d bd
       -0.059564434 0.004716125 -0.043715335 -0.07667489
0000e0 3f b9 d6 bc b5 0e 06 be 1d 21 26 be 97 84 b5 3d
       -0.02621138 -0.13091548 -0.16223569 0.0886318
0000f0 23 49 95 3c 81 24 31 be 11 9f 22 3d 9b 8a c1 bd
       0.01822335 -0.17299081 0.03970248 -0.09450265
000100 44 a2 ea 3d 93 1a fe 3b 0e 21 a3 3d 32 dc 98 3d
       0.11456731 0.0077546327 0.07965289 0.07463874
000110 9d 70 b2 3c 9b 1d b1 3d 16 2f cf bd 95 4e da 3d
       0.021782214 0.08648225 -0.10116403 0.106595196
000120 3f 11 d8 3d ae 53 e7 3d 56 b1 52 3e 2d 01 31 bd
       0.105501644 0.112952575 0.20575461 -0.043214012
000130 bc 9b 48 3d 2b ab fc bc fc cb 02 3e 27 0d 0a 3e
       0.048976645 -0.030843338 0.12773126 0.1348158
000140 82 e0 14 3e a6 1a 06 3d 7a 88 2a 3d a2 71 6b bd
       0.14538768 0.032740258 0.04163406 -0.057481416
000150 ed 73 a4 bd 36 d5 ef bd 2f ad f4 3d af 7e 9f 3d
       -0.080299236 -0.11710589 0.11947095 0.07787835
000160 42 46 84 bc 47 0c e7 3c 27 ca 5c bd 92 93 6c bd
       -0.016146783 0.028204096 -0.053903725 -0.05775792
000170 32 a4 40 3d 36 bf 03 3e 5a fc 18 bd ef f4 10 3e
       0.04703159 0.1286591 -0.037350036 0.14155935
000180 9c 73 71 bd 9c ae 28 bc 1f f9 d0 3d e3 5b e8 3d
       -0.058948144 -0.010295536 0.10203766 0.11345651
000190 db 83 85 3d 4d cc 88 3d b9 d2 e5 3d 71 07 c5 3d
       0.0651929 0.06679592 0.11221833 0.0962056
0001a0 5e 91 d7 3d 8b 26 6f 3d 8b 27 02 3e d7 ad f4 3d
       0.105257735 0.058386367 0.12710397 0.1194722
0001b0 bc c6 89 bd 9d a1 50 bd 46 25 4d 3d 81 78 2a 3e
       -0.06727359 -0.050935376 0.050084375 0.16647531
0001c0 04 d1 ba 3d 51 19 c7 bc 29 02 85 bd d8 df df 3d
       0.09121898 -0.024304064 -0.06494553 0.10931367
0001d0 b1 88 93 3c 26 fc 3e 3d 08 17 3c bd 62 af a2 3c
       0.018009515 0.046627186 -0.0459204 0.01985902
0001e0 9a d0 4d 3d b2 1e cb 3d d1 bf 4e 3d 37 ab 7d 3d
       0.050247766 0.09917964 0.0504759 0.06193086
0001f0 05 6c 3a 3e 3e 50 cf 3c e0 fe 84 3d 28 7e 15 3e
       0.18205269 0.025306817 0.06493926 0.14598906
000200 54 b8 c2 bd fb 15 0b bc cb 0a ab bd de da 4a bd
       -0.09507814 -0.008489127 -0.08351668 -0.049525134
000210 e5 7c 1f bd dc 1c a0 bd b8 a1 44 3d 11 88 94 bd
       -0.038937468 -0.078180045 0.04800579 -0.07252515
000220 e9 bd 87 bd e4 18 51 bc 6d c6 74 bd b5 88 c5 bd
       -0.06628019 -0.012762282 -0.059759546 -0.096452154
000230 d9 12 77 bd 6f 31 86 bd 5b 5d c4 3c a0 1b 1d 3d
       -0.06032071 -0.065523975 0.023970297 0.038356423
000240 27 52 81 3d f3 19 8d 3d 88 e6 f5 bc 86 75 52 3d
       0.063144974 0.06889715 -0.030017152 0.05138161
000250 66 48 a8 bd 72 2f 70 bd bf f7 e7 bb 75 94 31 3d
       -0.08216934 -0.058638997 -0.007079094 0.04335447
000260 5e a8 e7 3b d5 f9 e0 bd 6d 6c 24 bd 2f 93 84 bd
       0.0070696315 -0.10985152 -0.040142465 -0.064733855
000270 31 92 de bd e1 9b 76 bd 3b 75 1b be f1 15 1c be
       -0.108677275 -0.06020725 -0.15181439 -0.15242745
000280 6e 7a ae 3d fd 1d ed bd 6d ea fd 3d a9 d6 72 bd
       0.08519445 -0.115779854 0.12398229 -0.059286747
000290 03 2d 3e bd 9c 81 a8 bc 86 87 8e bd 0d 74 4c 3c
       -0.046429645 -0.020569615 -0.06959443 0.012478841
0002a0 e8 b7 c2 bd e8 32 85 3d d5 98 53 3d d5 0f bf 3d
       -0.095077336 0.0650385 0.051659424 0.093291916
0002b0 01 7d 9b bc a2 6b 82 3d e3 9f 29 bd 95 08 77 3c
       -0.018980505 0.063681856 -0.041412245 0.01507773
0002c0 4c 38 7d bc 28 1a 5c bd 32 99 c6 bd f3 d9 77 bd
       -0.015455317 -0.053735882 -0.096971884 -0.060510587
0002d0 d6 0b 0d be 62 4a b1 bd 3d de 83 bc f3 e9 81 3d
       -0.13774046 -0.086567655 -0.016097182 0.063434504
0002e0 99 73 a4 bd 47 bb b0 3d 9e d2 9e bd 90 9b c3 bd
       -0.08029861 0.0862947 -0.07755016 -0.095511556
0002f0 d5 49 6b bd 50 32 68 3d e0 03 92 3c ff 8a 95 bc
       -0.05744346 0.056688607 0.017824113 -0.018254755
000300 88 b9 49 ba 55 5b bf 3d df b2 fc bd 43 37 e8 3d
       -0.0007695188 0.09343592 -0.123388045 0.11338665
000310 24 f9 2a 3d 8c 1d 9c 3d 8f a7 8f bc ee f4 23 3d
       0.041741505 0.07622823 -0.017535953 0.040028505
000320 44 6e 6b 3b 58 a4 72 3d f9 9d f0 3d 66 9c 5f 3d
       0.0035923878 0.05923876 0.11748881 0.054592513
000330 c3 4b 0f 3e 8a 81 bc bc 22 33 3c 3d 5e 2c cd bd
       0.13993745 -0.023010988 0.0459472 -0.10018228
000340 c8 c1 b0 3c 66 43 4f 3d 7f 37 8d 3a a4 84 73 bd
       0.021576777 0.050601386 0.0010773985 -0.059452668
000350 84 c2 25 bd ff 35 62 bc c4 83 8d 3d 17 55 92 bd
       -0.040468708 -0.013806819 0.06909898 -0.07145136
000360 75 90 ed bd 2b 9f 89 bc 1e a7 36 bc 69 fd 03 3d
       -0.115998186 -0.01679953 -0.011148242 0.032224093
000370 37 6b f4 3d 04 e7 d8 3d 18 92 01 3e 43 ff 00 bd
       0.11934512 0.10590938 0.12653387 -0.031493437
000380 b5 74 ac 3c 6d 9f 97 3d 4b 9a 87 3d ed d8 49 bd
       0.021051744 0.07403455 0.06621226 -0.049279142
000390 66 e9 c2 bd 1f a3 44 bd e9 42 c8 3d f2 d4 e0 bd
       -0.095171735 -0.048007127 0.09778387 -0.10978116
0003a0 12 02 89 3a 97 50 03 3e 1a 2b 42 3d ae c2 80 bd
       0.0010452888 0.12823711 0.047404386 -0.06287132
0003b0 29 4a 09 be 73 84 f3 3c 4e 05 dd 3b 97 07 97 bd
       -0.13407196 0.029726243 0.006745017 -0.073744945
0003c0 1a 88 fe 3b 68 ed f1 3d a7 eb 91 3d 4c 29 e4 3d
       0.0077676894 0.1181286 0.07125025 0.11140689
0003d0 92 a0 d6 bc 27 a0 9e 3d a4 76 2f 3c c6 ea 1c be
       -0.026199613 0.077453904 0.0107094385 -0.15323934
0003e0 03 4f 52 3c 57 61 08 bd 1b db d7 bc bd b2 38 3d
       0.012836221 -0.033295956 -0.026349595 0.045092333
0003f0 3d 5b ba 3d 2e 83 02 bd cc ee 69 3d 48 a4 e0 bd
       0.090994336 -0.031863384 0.0571125 -0.10968834
