LSTM_model/best_model7.pt_epoch2.pt (torch, 703249 bytes, 33 tensors)

lstm.weight_ih_l0 f4 [256, 20]
00000000: 6554 313e fb07 173e 1b9c ff3d 3367 213d
00000010: ae2c 783c ade7 23bd a12d c2bd 7c12 26bd
00000020: 5e79 c3bd 633a 17be d01f 31bd 6699 753c
00000030: 7724 2a3d c963 c8bc 42c2 f13d 7954 ec3d
00000040: da9e 943d eda6 413e 274d 09be bc67 25bc
00000050: 8c8a 773e 0078 283d 8c41 bebd d16e aa3d
00000060: f146 99bc ee00 283d 8256 443d 448c 5cbd
00000070: d01b 44be c555 1abc e3b5 383d 0760 1e3e
00000080: 2c19 523d e0cd 1a3e b4f4 3bbd d5ee 2ebd
00000090: b11f d0bc 4f7d d63d 4210 913d a7c9 523d
000000a0: 9f01 473e 9ffe 2ebc 6f82 8a3d 38be f4bd
000000b0: 6da0 f3bd b0fe 8ebd d49f 073d ada5 cc3d
000000c0: 6bb9 dc3c 1e39 cb3c b6d7 ba3d ef29 29bd
000000d0: 6f38 e43d de86 043d b188 e33d 5724 f63d
000000e0: b1df 0fbd c8ae 6bbc 912f 743d a41f 073e
000000f0: 2f9b 373d 3652 fb3c a49a 56bd 0fe0 263d
00000100: 0b61 e3bd 6bd2 f8bd 200a 89bd 53e9 d43d
00000110: d56b 9bbd 3d7d e6bc 4c66 373b edd5 163c
00000120: 56e4 31bd b6ed 3e3d bc23 1c3e b73f e83d
00000130: bc51 4a3d 1ff8 c93c 4473 933d 3e27 89ba
00000140: f427 92bd b2f9 023d ef44 593d f013 abbd
00000150: cf2c 0bbd 44d0 edbd 3cd3 d9bd d948 0c3e
00000160: 251a 83bd e871 22bd 7e04 433d c4a7 893d
00000170: 378c c53d 9dee 5e3c a07a ddbc 315a a03d
00000180: cd61 e33d 23a8 353d 899f d2bc 77c6 abbd
00000190: 0308 93be 9fed 373d 0c3d 8bbd ce79 58bc
000001a0: ef96 f8bd 23e1 3bbe e760 1d3d 787c 6ebd
000001b0: 1f54 8abd 128e b33c 8de1 bb3d 6fe1 c73d
000001c0: 0877 283c 4604 e7bc c810 a93d 6ed1 333e
000001d0: 7dee ab3d 47d5 873c e9ec e9bd f719 f73c
000001e0: 2d8e 75bd 7001 dd3c 6498 01bc 7eec 57bd
000001f0: f312 833d 420f 02bd 6882 143e 3a73 cabd
00000200: 879f 0a3d 8b2b 47bd 5c11 213e 3675 54bc
00000210: 40ef 1fbd e10f 5d3d 4b5f ee3d 5613 e93c
00000220: 3cf0 573d 73f2 653e ff8a 903c 164d a23d
00000230: 2bf4 5c3e cd95 cabd a8a3 1abe 66ba 523b
00000240: c89a 68be 95a7 46be 9e9d 04bc e099 adbd
00000250: 2282 aa3d c094 b7bd 1e34 c23d d947 043e
00000260: e403 84bd d635 9e3c 7996 8ebd e4ec a13d
00000270: cf83 2a3d dc9e ce3d fb23 51be e829 83bd
00000280: a84f c93c 80c8 93bd e1a6 073e 24a2 b9bd
00000290: 18c1 af3c 92b5 bb3d 4ce0 c23c 5fd8 593d
000002a0: 9770 34bc e10c d8bc 1a0a d13a 9b1c 4d3d
000002b0: 6b38 3a3e 931c 6bbd 2d38 a5ba 09b2 d83d
000002c0: 613d f63d 1a3d 76bd 7d69 163e 8880 46bc
000002d0: b028 b33d 93db ebbb 38fe fbbd 2147 2dbd
000002e0: 9362 48be 79da 30be acd3 00bd 072f b9bd
000002f0: f261 9f3d 6088 21be a64f 0d3e 2bac 3a3e
00000300: 1728 9fbd 783e bb3e 8d76 5c3d 03cb 353d
00000310: 45d9 b6bc 2962 913e 6706 a83d 693b 2d3e
00000320: 40df b0bd 3eac 553e 4b72 083e 0332 0f3d
00000330: 297e 163e dc8e c73d cfaa a83d 24cf 80bb
00000340: 4f79 b9bd 5045 c13d cd76 ea3d e655 cdbd
00000350: c5eb 3d3e d64a 40bd d524 30bd 4dd2 1bbd
00000360: a16c 9c3d e154 a2bd 6f18 c6bd 4394 05bd
00000370: ebca 233e f478 5f3d bb9d d7bd fd1c e53d
00000380: 4a9c d7bd 5a16 033d b460 dfbd 774f c6bb
00000390: b045 d0bb d6b3 35bd accd 9dbc c692 ba3c
000003a0: 8630 5e3d 151f 2f3e 2712 40bd d1ba 5cbd
000003b0: 85af 64bd 3817 963d a3c8 b7bd c219 28bd
000003c0: e04d e6bc bb46 113d ea4c 81bd 4d63 1d3e
000003d0: 26d1 2a3e da6a ffbc 5a2d 873d 690f 8a3d
000003e0: 41f8 7cbd df8f dc3c 7eea 8e3d 2899 8fbd
000003f0: b25c 58bd 9220 85be 7de2 393c 89fe 4abb
0.1731735 0.14749138 0.12480947 0.03940506 0.015147371 -0.040015865 -0.09481359 -0.04054497
-0.09544633 -0.14768367 -0.04324323 0.014990186 0.04153868 -0.024461644 0.1180463 0.115395494
0.07256861 0.18911333 -0.13408338 -0.010095533 0.24173945 0.041130066 -0.09289846 0.08321918
-0.018710585 0.04101651 0.047934063 -0.053844705 -0.19151235 -0.009419863 0.045095336 0.15466319
0.051293537 0.15117598 -0.045887664 -0.042708237 -0.025405737 0.104731195 0.07083179 0.051461842
0.19434212 -0.010680824 0.067631595 -0.11950344 -0.11895833 -0.069821715 0.03311141 0.09992538
0.026943883 0.024807509 0.09123175 -0.041299757 0.11143576 0.032355182 0.11110056 0.1201865
-0.035125438 -0.014384933 0.059615675 0.13195664 0.04482573 0.03067885 -0.05239357 0.040741023
-0.11102494 -0.12149509 -0.06691384 0.103960656 -0.07588927 -0.02813589 0.0027984558 0.009206277
-0.04343065 0.046613418 0.15248007 0.11340278 0.049394354 0.024654446 0.071997195 -0.0010463966
-0.07136527 0.03197641 0.053044256 -0.08353412 -0.03397828 -0.11611989 -0.10635993 0.13699664
-0.06401471 -0.03965941 0.047611706 0.06721452 0.096458845 0.0136066945 -0.027036011 0.07829703
0.111026384 0.0443498 -0.025710838 -0.083874635 -0.2871705 0.044904348 -0.06798753 -0.013212634
-0.12138163 -0.18347602 0.03842249 -0.05822417 -0.06754326 0.02191833 0.0917388 0.09759795
0.0102822855 -0.02820028 0.08255154 0.1756036 0.083950974 0.01658119 -0.1142214 0.030163748
-0.059950043 0.026978225 -0.007909868 -0.05271577 0.06400099 -0.031752832 0.14502871 -0.09885259
0.033843543 -0.04862551 0.15729278 -0.012967398 -0.039046526 0.05397022 0.116392694 0.028451603
0.05271934 0.22455768 0.017644404 0.07924859 0.21577518 -0.098918535 -0.15101492 0.003215456
-0.22715294 -0.19399865 -0.0080942195 -0.08476615 0.08325602 -0.08963919 0.09482597 0.12918033
-0.064460546 0.01931278 -0.06962294 0.079065114 0.04162961 0.10088894 -0.20423882 -0.06404477
0.024574116 -0.07215977 0.13247253 -0.09064129 0.021454379 0.09165491 0.023788594 0.053184863
-0.011013172 -0.026373329 0.0015948445 0.05007611 0.18185584 -0.057400297 -0.0012605243 0.105808325
0.12023426 -0.060116865 0.14688678 -0.012115605 0.08747995 -0.007197806 -0.12304348 -0.042304162
-0.19568853 -0.1727084 -0.031451866 -0.09042173 0.077823535 -0.15774679 0.13799915 0.1822974
-0.077713184 0.36571097 0.053823996 0.04438306 -0.022320399 0.28395203 0.08204346 0.16917194
-0.086363316 0.20866486 0.1332485 0.034959804 0.14696564 0.09744045 0.08235704 -0.003930943
-0.09056341 0.094370484 0.11448441 -0.100261495 0.1854697 -0.04694637 -0.043003876 -0.038042355
0.07637907 -0.079263456 -0.09672629 -0.032612097 0.15995376 0.05455871 -0.105281316 0.1118717
-0.10527857 0.032003738 -0.109071165 -0.0060519534 -0.0063559636 -0.044360958 -0.019263111 0.022775065
0.054245494 0.171017 -0.04689231 -0.0538891 -0.05583145 0.073286474 -0.08973815 -0.04104019
-0.028113306 0.035467844 -0.06313498 0.15369911 0.16681346 -0.03117888 0.06600447 0.067412205
-0.06176019 0.026924072 0.069783196 -0.07011634 -0.052822776 -0.26001412 0.011345503 -0.0030974469

lstm.weight_hh_l0 f4 [256, 64]
00000000: aa0a 0fbe cdc0 f0bd e529 b83c a6e1 ab3b
00000010: 00be 933c a4ae 113e 974c f7bd c318 d3bc
00000020: 497e 3dbe 8889 4bbd bb48 85bd 8e2a e1bb
00000030: 91ab 09be 0a55 a83c 8520 083d d7f3 b4bd
00000040: 201c 52be b80f 093d bcd4 05be 451a 1bbd
00000050: b39c 17be 3631 25bc a1e2 07be d6fe 063d
00000060: fcdb 453d c032 b0bd dcb6 853d b063 ee3c
00000070: 20f8 8d3c c5d6 0b3d 90ca a23d e893 2bbd
00000080: 0ab1 69bd 829d 5d3d b59a 8b3d 815d a23c
00000090: 032c 963d a745 993d df12 aa3c b643 7a3d
000000a0: 2233 c3bd 380a bebc cfb1 3dbb 6c4d 7c3d
000000b0: f19b 213d 55d1 c93b ff92 4e3d 57a6 19be
000000c0: c65d 04bd b850 29bc 6996 ddbb 8caa 323d
000000d0: d108 3b3d 0a8f 4fbd 02a4 8bbd 1f4c 17be
000000e0: 47e6 dd3d 276e 5abd aa9a 7cbd c082 4e3d
000000f0: d4fc 75bd 74a9 bbbd 4991 c3bb ca52 423d
00000100: 4057 e93c d4e3 bc3d d414 b4bc 08ab 7e3d
00000110: b85d bb3d 86f7 f4bc 3d87 9dbd 4fef bd3c
00000120: 6faa 2cbe f5f8 2cbd 2226 de3d 0093 b13c
00000130: ce4b f9bd a6ee 42bd 8d82 da3d 6947 27bd
00000140: eb27 97bd 5e79 e1bd 7098 babd 0341 b33c
00000150: f2ff e63d 4485 90bc 1415 15bd 272b e93d
00000160: 6f5f 803e 3c53 663c 9aad 28bd fbc1 863d
00000170: a95d 24be cb4c b63d 29dd 8e3d 2eb5 793d
00000180: 5e94 91bc c710 bebb dacf 0cbd a042 5d3d
00000190: 0d47 c23d 4def 4a3d ce22 10be 78db ae3d
000001a0: f4f3 73bd d1b7 40bd f351 0ebe 243f 8f3d
000001b0: 20e2 c13d 2411 b2bd bbae ae3d 27ac 8c3c
000001c0: 1a62 d13c ac46 a2bc 9c51 c73c 4583 61bd
000001d0: 714b 1bbd 0795 03be 16c4 4fbd 3c78 df3d
000001e0: e368 983c 15c5 a7bc 8bc3 ad3c 6bb9 493c
000001f0: 8f01 8fbd fa9d 053e f12c 6dbd f5a8 83bd
00000200: 2a56 a6bc a1d7 a0bd 9f88 073e 22de ecbc
00000210: 0369 633d f9f6 ab3c 8059 bf3d bae2 313e
00000220: 3faa 833d 9966 b33c b332 e6bd 2d28 a13d
00000230: 1651 f23d bfbb 003e d563 e73b e74b f23c
00000240: d5f4 22bd 9767 063d 3d65 683d fbdb aebd
00000250: 7b13 05be 3051 bcbc 4f57 7ebe f8b0 16be
00000260: 41a4 e53d b657 85bd fbed 503d 5993 283d
00000270: b859 fabd 5252 023d 0a8d d83d 03de 70bd
00000280: ed30 ed3d adfb ae3d c379 d43c 6205 ee3d
00000290: f7b9 6f3d c7fa aabd 3ea7 053e 1d99 e4bc
000002a0: ad0d c7bd 8745 c9bc 8e87 e1bc f728 39bb
000002b0: c2f2 c93c 4312 0ebd b328 b3bd e307 79bd
000002c0: 8aa1 493d 4df4 a5bd 9cf6 d33c 1620 7a3d
000002d0: 4a9b 12bd 1825 4c3d 739d 293c 4fd2 95bd
000002e0: 03a1 63bd d409 aebd 6b8f a73d 8698 a03d
000002f0: fea3 99bd 1f04 51bd 83d4 0f3e 8534 753d
00000300: 7f9a a4bd 3690 89bd 9a8b 293c da9a c8bd
00000310: 3992 2a3e c54f b63d dea8 75bb a539 6c3c
00000320: 40ff 48bc fecd df3d 52ca 80bb 6713 383d
00000330: db87 e2bd 5a2d 1d3e 68f7 133e 821d 4dbd
00000340: 9e57 b7bd c814 763c 1cc4 03be 0cb9 e43d
00000350: eb16 bc3d 8ff6 17bd 346b c8bd e5d2 3e3c
00000360: f79b a23d 1976 babd 251f 223e a9bc 41bc
00000370: 6adc adbd d335 04bb feaf 3c3e 4ead 783d
00000380: 72e4 2c3e 97c8 98bd 8a4d 343d 34f0 103e
00000390: 47f6 8f3d bbe0 133d 4787 25bd c2c6 e3bd
000003a0: 6e7f e2bd 769a 073d 88e5 163d 579f c73d
000003b0: 8cef 80bd 0d59 e73d 99d1 83bd 5f43 983d
000003c0: 49f7 a73d faa8 55bd e192 093c 35df 4fbd
000003d0: 941b 9e3d a0a8 86bd dc72 1cbd 0ac6 09bd
000003e0: f20c 22be 708c 0abd 2432 1bbe 5c89 553b
000003f0: 6f13 1bbd 722d 3a3d c93c cd3d 92d7 22bc
-0.13968912 -0.11755524 0.022480914 0.0052454052 0.018034935 0.14226776 -0.12075155 -0.025768643
-0.18505205 -0.049691707 -0.06508013 -0.006871528 -0.13444354 0.020548362 0.033234138 -0.08835571
-0.20518541 0.033462256 -0.13069433 -0.03786685 -0.1480587 -0.010082534 -0.13270046 0.032957874
0.048305497 -0.0860343 0.06529018 0.02910027 0.01733023 0.034140367 0.07948792 -0.0418891
-0.057053603 0.05410529 0.068166174 0.019819977 0.07332613 0.07483988 0.020760952 0.06109973
-0.09531237 -0.023198232 -0.0028945094 0.061597273 0.039455358 0.0061589875 0.050433155 -0.1500486
-0.03231599 -0.010334186 -0.006762315 0.043619677 0.045662705 -0.050673522 -0.068183914 -0.14775132
0.108349375 -0.053327706 -0.061670937 0.05041766 -0.06005557 -0.0916318 -0.005968247 0.047442235
0.028483987 0.09223142 -0.021982588 0.062174827 0.09148735 -0.029903185 -0.0769181 0.0231854
-0.1686189 -0.04222961 0.10847117 0.02167654 -0.12172662 -0.047590874 0.10669432 -0.040839586
-0.073806606 -0.11009477 -0.091111064 0.021881586 0.112792864 -0.017641671 -0.036397055 0.11385184
0.2507281 0.014057931 -0.041181184 0.065799676 -0.16051354 0.08901366 0.06975777 0.060963802
-0.017770942 -0.00580034 -0.03437791 0.054018617 0.09486208 0.04954462 -0.14075777 0.08537954
-0.059558824 -0.0470503 -0.13898449 0.06994465 0.09466958 -0.086946756 0.08529421 0.017171932
0.025559474 -0.01980909 0.024330907 -0.05505683 -0.037913743 -0.12849818 -0.05072411 0.10911605
0.018604701 -0.020479718 0.021211406 0.0123122735 -0.06982719 0.13048545 -0.057904188 -0.0642871
-0.020304758 -0.07853628 0.1323571 -0.028914515 0.05552007 0.02099179 0.09343243 0.17371646
0.06428956 0.021899508 -0.11240139 0.07868991 0.11831872 0.1257162 0.0070614615 0.029577209
-0.03978427 0.032813635 0.056737173 -0.08538052 -0.12995712 -0.022987932 -0.24837993 -0.14715946
0.112129696 -0.0651087 0.051008206 0.041156147 -0.12224144 0.031816788 0.10573776 -0.058805477
0.115815975 0.08544097 0.025936967 0.116221204 0.05852696 -0.08348613 0.13052079 -0.027905041
-0.09719405 -0.024569286 -0.027530458 -0.0028253177 0.024651889 -0.034685384 -0.08747997 -0.060798537
0.04922632 -0.08103237 0.025874428 0.061065756 -0.035792626 0.049840063 0.01035248 -0.07315504
-0.055573475 -0.08497968 0.08181652 0.078415915 -0.07501982 -0.05102932 0.1404591 0.05986454
-0.0803728 -0.06716959 0.010348225 -0.097951606 0.16657342 0.089019336 -0.0037484686 0.01441804
-0.012267888 0.10927962 -0.0039303685 0.04494038 -0.110610686 0.15349331 0.14449847 -0.05007697
-0.089522585 0.015019603 -0.12867779 0.111681074 0.09184059 -0.03710037 -0.097860724 0.011646961
0.07939904 -0.091045566 0.15832193 -0.011824765 -0.08489306 -0.0020173683 0.1842651 0.06071215
0.1688402 -0.074601345 0.04401926 0.1415413 0.070293956 0.03610299 -0.040412214 -0.111218944
-0.110594615 0.03310629 0.03683999 0.097471885 -0.0629569 0.11296282 -0.06436462 0.07434725
0.08201463 -0.0521631 0.008396835 -0.050749976 0.07720104 -0.065751314 -0.038195476 -0.03363613
-0.1582525 -0.033825338 -0.15155846 0.0032583093 -0.03786033 0.045453496 0.100213595 -0.009939091

lstm.bias_ih_l0 f4 [256]
00000000: f0e4 1cbd 1312 68bd 9f9a d3bc 218f efbd
00000010: 6a1a 8dbd 8136 443e 662a 583d 9607 01be
00000020: d616 a2bd 1ec9 f73d 83fa 233c 5392 aebd
00000030: a949 f03d caad 2d3e 9c61 ed3d 3f13 f23c
00000040: 39cb 19be e10a b3bd e6a4 a73d 4d99 b23d
00000050: e537 5ebc 1cdb 1f3e e970 0abd 0202 173e
00000060: 4932 f1bd 0c3f 14bd 8cbe 52bd 9e20 c4bd
00000070: f59f 1fbe 253b 67bd 7416 98bd c2cc e93b
00000080: 225c bcbd a59b 1abe b7d8 bf3d b95a cd3b
00000090: 5551 ad3c 45b8 45bd 10f1 26ba d10a debd
000000a0: 130d e43d e9c5 cfbd 6756 13be 7c63 b1bd
000000b0: aab3 8abd 4f1d 983d 6684 8ebd 8dc3 c43d
000000c0: 9d7d 513d 4f12 fe3d 5c6b f3bd 7f51 90bd
000000d0: 06a0 133d 0c03 43be 8251 bcbd 00c7 f73d
000000e0: 2aa8 653c e0d3 fdbd 8ac9 873d 4bc4 273e
000000f0: 32e6 21be 6e13 273c f21a 68bd 2a2e 013d
00000100: f12f f8bc b52b a23d b62a a839 8f63 203e
00000110: c94c 523e faac 223e cd3c 0bbd 4251 c5bd
00000120: 320e eb3d 0b81 8a3e 9835 dd3d e636 e93d
00000130: 1ede 75bc 138f da3d d3c7 c43d da4a 3e3e
00000140: f0fd 99bd 9649 99bc 7a1a 57bd e11f 963d
00000150: 6043 de3c e430 533d 112e 263e 0aec 63bc
00000160: fc15 cc3d 375a e53c a126 ea3d 3c4a 083e
00000170: 9a28 2c3e ccce b3bd b11c 11bd 091c 9b3d
00000180: e1d7 ae3d 19c2 59bd b77e d43d 149a 923d
00000190: 90e7 3b3d 9abc 213e 1e9a f7bd 51be 063d
000001a0: 8ad9 573e e4f3 143e 8d4e 64bc 377e 10bd
000001b0: eaa3 103c 85d9 5f3d 81e9 7a3c 9d9f 66bc
000001c0: ab9a b03d eebd 063e f37d cebd 6716 253e
000001d0: 568d 7b3c 6a15 aabd a77d 353e 1d3f 063d
000001e0: 030b 7fbd 89ed b43d 3d46 bd3d 7af8 1d3e
000001f0: 4cee 033c 7ee6 f4bc 842a 143e b911 7b3d
00000200: cb34 803d f6b9 363d 254b c5bb 5586 973d
00000210: ef6d 03be 31de c4bd 60be 4b3d 4e76 1ebd
00000220: b9c0 92bd 780e 55bc cd71 abbd a7ef 873c
00000230: 5c76 abbd 4e15 c73c b956 513d f6ad fdbc
00000240: e973 a8bd 923f d93d ae76 fb3c 9dc8 bb3c
00000250: 68f7 8d3d 7e52 c83d 14d7 1dbe 0b7e c33b
00000260: 9520 6fbd 13e5 cc3a cab3 ebbc 8139 6c3c
00000270: 2fc0 a23d c01f 723d 54d8 e8bc da74 e03c
00000280: 7698 64bd 074d 013e a271 103d 8820 92bb
00000290: 62fd 37bd 7101 d83d 0be2 afbd 51c2 613d
000002a0: 66ef b6bd 6936 833d 91ba 84bd 42cb b33d
000002b0: cdc3 3b3d 5bab d7bd aa6f 663c 7221 6dbd
000002c0: 3256 cbbd 2549 f43c beb8 733d b2d3 a1bd
000002d0: 664b 63bd 9823 bdbd 87f3 b43b a4f2 bebd
000002e0: 823e 0e3e 3f1e b2bd a874 5d3d 4c7c 4d3e
000002f0: 0bec f2bc 5d06 f138 f0ca 28bc 668f 353d
00000300: f2dc 943d 24ec 963c 51cb c33d 1bb3 f63d
00000310: fc7d 99bd 6715 013e 27fd 31bd c104 56bd
00000320: a4b1 aabd 5139 9c3a a7f8 193e 2104 023e
00000330: 7ea8 a43a 9323 203e 05f1 a83c e093 9a3d
00000340: 53ca ddbc e116 e1bd 828a a7bc 219c 913c
00000350: f092 cf3d 8923 4b3d 6be6 e1bc 349a e63d
00000360: 04b2 61bd 9de1 c03d 214c 223e fe7b 173e
00000370: a579 ed3b 7750 a03d 582f 8bbc 4e13 ab3d
00000380: 92fc 1bbc e5ca 75bd 2450 0dbd 992c ba3d
00000390: 24f8 e3bc 252e 1e3e 6915 febd d7bf 653d
000003a0: 2c5c 303e f141 7fbd 5b0f 93bd 0153 f03d
000003b0: 916c bcbb e3d8 263d 4f59 d53d 3531 533d
000003c0: 2702 b03d 8c1b 263e abf3 dd3a 280f 113e
000003d0: 6c2a 8f3c c501 823d 8ae6 5a3d 9004 2a3e
000003e0: 9c11 743d 7b50 513c 5084 dabd 8c69 8f3b
000003f0: 5d15 afbd bb1d 5dbd 40a3 e83c 7975 b6bb
-0.03830427 -0.056657862 -0.025830565 -0.116972215 -0.06889804 0.19161417 0.05277481 -0.1260055
-0.07914512 0.12098907 0.010008457 -0.08524003 0.117327996 0.16960827 0.11590883 0.029550193
-0.1501893 -0.08742309 0.08185749 0.08720646 -0.013563131 0.15610927 -0.033799086 0.1474686
-0.11777169 -0.03619294 -0.05145125 -0.09576534 -0.15588363 -0.05645289 -0.074261576 0.0071350047
-0.091972604 -0.15098436 0.09367507 0.0062669185 0.021156946 -0.048271436 -0.00063683186 -0.10841907
0.11135306 -0.1014517 -0.14388429 -0.08661553 -0.067725495 0.07427465 -0.06958847 0.09607611
0.051145185 0.12405836 -0.118857116 -0.07046794 0.036041282 -0.19044131 -0.09195234 0.12098503
0.014017144 -0.123939276 0.066302374 0.16383474 -0.15810469 0.0101975035 -0.056666322 0.031538166
-0.030296298 0.07918493 0.0003207528 0.15662979 0.20537104 0.15886298 -0.03399353 -0.09634639
0.11477317 0.27051577 0.10801238 0.11387424 -0.01500657 0.106718205 0.09608426 0.18583241
-0.07519138 -0.018711846 -0.052515484 0.07330299 0.027131736 0.051560298 0.1622851 -0.013911257
0.09965131 0.02799712 0.11433149 0.13309568 0.16812363 -0.08779678 -0.035427753 0.07573707
0.085372694 -0.05316362 0.103757314 0.07158294 0.045875132 0.15794602 -0.120899424 0.032896344
0.21079078 0.14546162 -0.013934744 -0.035276618 0.008828143 0.054650802 0.015314461 -0.014076141
0.086232506 0.1315839 -0.10082617 0.16121827 0.015353521 -0.08304866 0.17723714 0.032775033
-0.06226636 0.08834369 0.092419125 0.15426818 0.00805242 -0.029895063 0.14469343 0.0612962
0.062600695 0.04461094 -0.006020921 0.07398669 -0.12834905 -0.09612692 0.049742103 -0.038687043
-0.07165665 -0.013003938 -0.08371315 0.016593767 -0.08372185 0.024302151 0.051108096 -0.03096674
-0.08225233 0.10607828 0.03069624 0.022922808 0.069319546 0.09781359 -0.15414077 0.005965953
-0.058380682 0.0015632234 -0.028772254 0.014418007 0.07946812 0.05911231 -0.028423466 0.02739947
-0.05580946 0.1262704 0.03526462 -0.0044594444 -0.04491938 0.1054715 -0.08588036 0.055116955
-0.089323804 0.06406862 -0.06480897 0.08779003 0.045841027 -0.1053073 0.014064709 -0.057893224
-0.0992855 0.029820034 0.059502356 -0.07901706 -0.055491827 -0.092353046 0.005522195 -0.09323624
0.13891032 -0.08697175 0.05406633 0.20066947 -0.02965357 0.00011492961 -0.01030229 0.04432621
0.072687045 0.018423147 0.09560264 0.120458804 -0.07494733 0.1260582 -0.043454316 -0.052250627
-0.083346635 0.0011918937 0.1503626 0.12696888 0.0012562422 0.1563857 0.02062274 0.07547736
-0.027074015 -0.10990692 -0.020451788 0.017774643 0.10135448 0.049594436 -0.027575692 0.11259881
-0.05510141 0.09418032 0.15849353 0.14793393 0.007247167 0.078278475 -0.016990349 0.083532915
-0.009520667 -0.06000795 -0.034500256 0.090905376 -0.027828284 0.1544729 -0.124064274 0.056091156
0.17222661 -0.062318746 -0.07180663 0.11734582 -0.005750247 0.040734183 0.10417425 0.0515606
0.085941605 0.16221446 0.0016933581 0.14165938 0.017476283 0.06347994 0.053442515 0.16603303
0.059587106 0.012775536 -0.10669768 0.004376596 -0.085489966 -0.05398343 0.028398156 -0.005568203

lstm.bias_hh_l0 f4 [256]
00000000: 5d6f 18bd 8fa7 103d bb69 9ebd 5080 b5bd
00000010: ee41 1cbd 474e cbbc 1797 f53c aae5 183d
00000020: ee22 bfbc 8029 f0bd f598 7bbd 6727 c53d
00000030: c7b5 053d e7a9 183e 3f9d 4ebd 4015 7a3d
00000040: 731e e43c 8c07 93bb 93b4 b1bb 499a 9d3c
00000050: 29b7 003d 8b40 f23c bec2 84bd f27d 073e
00000060: 2df6 fabb e6b0 b03d 5021 743d 21ac 913d
00000070: 7ca0 01be 4270 bdba 2424 963d 501e 74bd
00000080: ac7f 6bbd 33da 39bd 8f82 d53c ffde a5bb
00000090: b76e bb3b d2ce b53d bc0a 323d 8187 53bd
000000a0: 28c9 973d ed8d bbbd 986d 453d 99d0 183d
000000b0: 15ec 7b3d f5b8 23ba a0a7 973c 7e4c 893d
000000c0: 50d6 d6bc 4c2d 9cbd 7b8e 193d 7838 183e
000000d0: 288c f43d c309 983a 3d24 4dbd 88e4 353d
000000e0: 60da 013e 1dae 2bbc 0047 3c3c e7f5 62bd
000000f0: c40b 153d 2fb0 b63c 06fe f23d d57c 333c
00000100: 3bd3 073d ad9a ff3d e65f 1b3e 05a8 043e
00000110: e2cb 2c3e c933 2b3e 5bb6 353e 5d62 a03d
00000120: c00a 2dbd b0f8 8b3e f5d6 0d3e c869 293d
00000130: b6cf 003d 9132 813d 6bc7 0b3e 7a64 263d
00000140: f6f6 88bd 2c2a db3d 4757 823c 01cb 953d
00000150: 86cf 283e 48db 46bc bebb ea3d ea29 ff3d
00000160: c2bf e93d 5a83 6b3c 92b3 653c a9fe 24bd
00000170: 9f48 5bbb 279a 89bd af6f 93bd f9ac 083e
00000180: 1483 00bc 0ca9 ce3d d471 edbb f249 723d
00000190: d718 fc3d b414 e53d 8a9d 723d d600 a6bd
000001a0: 9f85 b13d a216 a03d 8b34 083e a122 68bd
000001b0: 09f5 ea3c 655e ab3d 7258 473e 74f4 0e3d
000001c0: 8602 56bd 7176 363e e8e1 d73c f91d 543e
000001d0: 2f38 d03d cc28 debd 2df2 cbbc 5b93 773e
000001e0: dd34 eebc 2ea5 6ebd c015 91bc 26d5 123e
000001f0: bb66 fd3d 35c3 a43d a54c 0b3e be85 19bd
00000200: 6ffe fdbc 7ac0 b93d 8f8d e4bc 5622 8dbd
00000210: 5483 a0bc b669 12bc cdd6 89bd f780 0b3d
00000220: 3afa db3d 4965 b63d 2a35 15bc 99e5 863c
00000230: 665f cd39 d671 06be 467b 9cbd 332e 49bd
00000240: c2e9 e8bd a2c9 86bc 5afd 97bd 901f 893d
00000250: 95dd 2abe 7dbb bebd 3e9f 823d f747 313b
00000260: 9469 c1bd 580f 2ebd 61d2 d73d 9aa3 d13d
00000270: be70 183d 782b 0bbd 87f2 a63c 7ee9 e4bd
00000280: 809e 003d 0545 0ebd f20c 37be 4ef8 77bc
00000290: c371 a9bc e549 803d 498b 03be 41d2 613c
000002a0: 0d74 ea3c 9e1b 693c 5769 12bd 2fa8 8ebd
000002b0: b92f 23bd 737f 1dbe a4a7 5e3d 9967 d7bd
000002c0: eb21 debd 7e31 afbd d8f7 c7bc 98bb b93c
000002d0: 77cc f83d 4030 01be cc40 513d 0266 efbd
000002e0: 1901 0dbd 66f6 bebd 33ac 54bc 1796 b83c
000002f0: 8c7e cf3d 138a 0fbd e63c 8c3d 7bbe 17bd
00000300: 0474 ccbc c155 a0bd 8947 dc3d de44 733d
00000310: 6709 b0bd 84c2 17bb 24dd c33d 0d1c 2c3c
00000320: 776a cb3d 89f7 33bd 0d36 f0bc ef1a 1d3d
00000330: 2e52 d1bd 1aca 3bbd 8b70 153e a401 cabd
00000340: 2e5e 49bd 3467 043d 4804 0e3e ce1f adbd
00000350: 598e b5bc 8dee 383e 9bd0 2bbd e4db 213e
00000360: 9311 0abd b534 093e a016 d63d 7aa8 a9bc
00000370: 8228 e83d daf3 a8bd fdcd 8fbc ab25 3f3b
00000380: 8314 603d 70ec 7fbd 1bab 95bd 60a7 9bbc
00000390: dac2 28bd 2f56 94bd bca0 1f3d fea4 923d
000003a0: c2d3 bf3d 9104 3e3d 0c7f 7fbd 0816 093e
000003b0: 94a5 6ebd 64a1 b73d 4828 083e f232 8e3c
000003c0: d934 8b3d 2209 053e b94f ad3d 7a09 0a3e
000003d0: f808 a23c ed34 3e3d 3ab3 70bd 2bad ed3b
000003e0: 60ab 9dbd 5e98 acbd eea4 7d3d 01ee 70bd
000003f0: 2ffd 00be 34b8 303d fb59 5b3d 76fe cbbd
-0.03721558 0.035316046 -0.0773501 -0.08862364 -0.038148813 -0.024817599 0.029979272 0.0373284
-0.023332085 -0.117266655 -0.061425168 0.09626656 0.03264406 0.14908563 -0.05044293 0.06105542
0.02784655 -0.0044869836 -0.0054231375 0.019238608 0.031424675 0.029571792 -0.064824566 0.13231638
-0.007658741 0.08627491 0.05960208 0.07112909 -0.12658876 -0.0014453011 0.07331112 -0.05959922
-0.057494804 -0.045374107 0.026063232 -0.0050619836 0.0057199853 0.088773385 0.04346727 -0.0516429
0.074114144 -0.091579296 0.04820022 0.03730831 0.061504442 -0.0006245517 0.018512547 0.06704043
-0.026225239 -0.07625827 0.037489396 0.14865291 0.11940795 0.0011599589 -0.050083388 0.044407398
0.1268096 -0.010478524 0.011491537 -0.055410292 0.036388174 0.022300808 0.118648574 0.010955055
0.03316043 0.12480674 0.15173301 0.1295472 0.1687465 0.16718973 0.17745344 0.07831261
-0.04224658 0.2733817 0.13851531 0.041360646 0.03144809 0.06308473 0.1365029 0.040623166
-0.06687729 0.10701403 0.015910758 0.073141105 0.16485414 -0.012137242 0.1146159 0.12459166
0.11413528 0.014374578 0.014019864 -0.040281925 -0.0033460034 -0.06718855 -0.07199036 0.13347234
-0.007843751 0.10090837 -0.0072462354 0.05915255 0.12309425 0.111855894 0.059232272 -0.08105628
0.08668064 0.07816817 0.13301294 -0.05667365 0.028681295 0.08367614 0.19467333 0.034901097
-0.0522485 0.1781862 0.026352838 0.20714559 0.10166966 -0.10847625 -0.024895752 0.24177305
-0.029077942 -0.058262996 -0.017710567 0.14339122 0.1237311 0.08045045 0.13603456 -0.037481062
-0.031005112 0.09069915 -0.027899532 -0.06891315 -0.019593872 -0.008936336 -0.06730423 0.034058537
0.10741086 0.08906037 -0.009106914 0.016466903 0.00039171724 -0.13129362 -0.076407 -0.049116325
-0.11372711 -0.016453568 -0.0742137 0.06695473 -0.1668609 -0.09313104 0.06378029 0.002705095
-0.094439656 -0.0424951 0.105381735 0.10236283 0.037216894 -0.033977002 0.020379318 -0.111773476
0.031401157 -0.03473379 -0.17876032 -0.015134884 -0.020684129 0.06264094 -0.12846102 0.013783039
0.02861979 0.014227776 -0.03574499 -0.06965672 -0.039840434 -0.1538065 0.054359093 -0.105178066
-0.10846313 -0.08554362 -0.024410173 0.02267246 0.121483736 -0.12616062 0.051087186 -0.11689378
-0.034424875 -0.093243405 -0.012980509 0.022532506 0.10131559 -0.035043787 0.06847553 -0.03704689
-0.024957664 -0.07828856 0.10755832 0.05939185 -0.08595543 -0.0023156712 0.095636636 0.010504735
0.09932416 -0.04393724 -0.029322648 0.038355764 -0.10220753 -0.045847036 0.14593713 -0.09863594
-0.049162082 0.032324985 0.1386882 -0.08453332 -0.022162603 0.1805975 -0.04194699 0.15806538
-0.033708166 0.13399012 0.10453534 -0.020710219 0.11335851 -0.08249636 -0.017554278 0.002916674
0.05470706 -0.062481344 -0.073080264 -0.019000709 -0.04120145 -0.07243001 0.038971648 0.07160376
0.093665615 0.046391074 -0.06237702 0.1338731 -0.058263376 0.0896633 0.13296616 0.017358277
0.06797189 0.12991765 0.084624715 0.13480178 0.019779667 0.046437193 -0.058764674 0.0072533092
-0.07698703 -0.08427499 0.061924867 -0.05882073 -0.12596582 0.04314442 0.05355261 -0.09960644

lstm.weight_ih_l1 f4 [256, 64]
00000000: 9213 143e eac2 e83b 6cd1 403d 3f8c fd3c
00000010: 68f0 f63d 51a3 0bbc 846f 2fbd 61d2 44bd
00000020: baf5 af3c 25e3 62be 8167 b0bd 60da 50bd
00000030: 5b67 bfbd d5be 75bd 860b d73d 3009 b73d
00000040: dd6f abbc bed6 aebc cfe9 82bd 3510 e43d
00000050: 95e9 803d f530 f33c 8da1 96bd 8f32 2abe
00000060: e75d 9abb b562 15bd 3380 8bbd cb0e 5abd
00000070: 6f6f ffbc a32e 123d fefa ac3d b526 f13d
00000080: b14a ae3c 5122 043e e661 b03d f9ee afbd
00000090: 26f4 7c3d 013f dd3c fb8d bd3d 946a 67bd
000000a0: 1eaa 3bbd 453c f5bd e073 6f3d f884 92bd
000000b0: e4dd 293c 7fb0 653d 0e28 86bd 06d8 4f3d
000000c0: c26a e2bd 8e9c 50bc 9af8 9bbd 7278 e6bc
000000d0: 34e1 a1ba 0da1 023e 0cfe 2e3d edaa 9f3d
000000e0: 1834 543d 1d14 b1bc a3af 9dbd 7c3f ab3d
000000f0: 8be0 9fbc 042f 363e 29cc 6ebd 3974 afbd
00000100: 956e 733e 35ad 373b c1d6 d23d 5adf ff3a
00000110: 6db2 c6bd 4767 4b3d 7c2e 313c 5e87 44bc
00000120: 1250 f93c bf21 1a3d b210 273e e2aa a3bd
00000130: 8b6b 183e 68d9 853d b332 723d 3164 2b3e
00000140: a5c4 d4bd a434 62bd c3c0 863c cc33 09bb
00000150: 0bed 0ebe 8ee3 35bd 14ed f73d f358 1ebd
00000160: 00a5 b33d 7f1f e3bd 79c1 28be 328a e4bd
00000170: 17a3 7fbe e806 273e e2a4 13be 7d3b 0ebe
00000180: 17f0 29be b673 fe3c 485e 0d3e df0c 773c
00000190: fd1f 2bbe d9ce f3bd f2ed d13d 6b67 d5bc
000001a0: e018 933e 58bc 11bc 41e0 113e beae 533d
000001b0: 1492 56bd b2fa 423e 55b9 a1bd 7e66 f83d
000001c0: b256 d63d b8c5 c73d f01e 4a3d d004 c53b
000001d0: 5d13 253e fc50 523c c35a b03b 8f5a f13c
000001e0: c992 78bd 18fd 343b 9625 f0bd bd10 3eba
000001f0: 3659 b8bc 703e 58be 4da9 0e3d db21 823d
00000200: 3b8c 3c3e 9353 36be 2e89 5a3e 13a5 113e
00000210: ec66 e63d 7b8a 983e 4aea 6a3d 0d04 553d
00000220: b213 44be e6f9 873d 1dcc 4c3e a37a ffbc
00000230: c6fe 823e ce24 a33c 8d06 f73c 79b3 843d
00000240: ef37 14bd c7f8 923b d3da c1bd cbae 90be
00000250: cad9 dabd d439 4bbe 4851 f6bd b45c 4e3d
00000260: 5f50 9b3d eafd d3bc ebbe b3bd b2b7 19be
00000270: 16a6 52be c7ad e2bc ac33 91bd a78c 07be
00000280: fa71 85be 854a 01bd df98 043d c1e7 813e
00000290: 6f79 b9bd e28b b3bc c6ff c1bd ac46 d83d
000002a0: b42d 733e e1b6 8c3c e32d 9a3d 79e2 243e
000002b0: 390f 8a3d 37d6 a93d 4fac acbc d5e3 073d
000002c0: cd27 f6bc 8205 64bd bcf3 593d e7e3 dfbd
000002d0: db22 c03d b6b3 b33d fba0 3e3e 5d3e 653e
000002e0: 5c68 66bd ac67 bb3c 9d85 303d ed8a 17be
000002f0: eef1 b03d 2d10 d93d 6557 06bd 953d efbd
00000300: 823c c13d 9929 893d d811 03bd 7d82 84bd
00000310: 7210 ec3d bf84 1a3d dd77 20be 8523 803b
00000320: 719a 92bd 8539 ee3c 0b33 46bd 7ee9 503d
00000330: 186c ee3c 03a0 dfbd b5ba a5bc 1c13 223e
00000340: cbcb a2bc 264c 543d 570d 4f3d 0d26 1dbd
00000350: 8763 143d 5dab 1e3d 0e22 f03d 0e36 d33d
00000360: f5f1 bc3d 948c 2f3b 9d29 efbd b5b8 833d
00000370: 84be 923d 10b2 e2bd 5bf0 44bd 108a 67bb
00000380: e0b7 d9bd a061 12bd 2d79 d93b 9efc 543d
00000390: 1dab ab3c 17ea a5bc a50e 36bc 18d4 fd3d
000003a0: a2b4 1bbe a148 63bd 5fa8 62bd 950a 363d
000003b0: 75d1 f0bd 4ae1 0abc 4037 cbbb 32e6 ddbd
000003c0: 45ef d9bd 9906 9abd 4c58 38bd 5d94 81bd
000003d0: 5b6b fd3c ef1a b23d 0189 a4bd f193 0bbe
000003e0: 38af d43d 75db 8abd d4dc 26bd a49a 17bd
000003f0: 0c08 cbbd e0bb 91bd 5bbc bdbc 2363 94bd
0.1446059 0.0071033137 0.04707472 0.030950664 0.120575726 -0.008522824 -0.04283096 -0.048052195
0.021479476 -0.22156961 -0.08613492 -0.05098951 -0.09345885 -0.059996445 0.10500245 0.08937299
-0.020927364 -0.021342631 -0.06392252 0.11135904 0.06294552 0.02968643 -0.07355032 -0.16620849
-0.004710901 -0.036471087 -0.068115614 -0.053236764 -0.031181065 0.035689007 0.084463105 0.11774961
0.02127585 0.12903716 0.08612423 -0.08590502 0.061756276 0.027007582 0.09255596 -0.056498125
-0.045816533 -0.11974386 0.058460116 -0.07154268 0.010367844 0.056076523 -0.065506086 0.050743125
-0.11055519 -0.012732638 -0.07615776 -0.028133605 -0.0012350441 0.12756748 0.042722747 0.077962734
0.051807493 -0.021616036 -0.07699516 0.08361718 -0.01951625 0.17791373 -0.05830017 -0.085670896
0.23772652 0.0028026823 0.10294867 0.001952152 -0.09702001 0.04965904 0.010814305 -0.011995165
0.030433688 0.03762984 0.16314963 -0.07991578 0.14884774 0.065356076 0.05913038 0.16737439
-0.103890695 -0.055225983 0.016449338 -0.0020935414 -0.13957612 -0.044406466 0.12105766 -0.038659047
0.087717056 -0.11089992 -0.16480054 -0.11159171 -0.24964558 0.16311228 -0.14418367 -0.1388988
-0.16595493 0.031061035 0.13805497 0.015078752 -0.16711421 -0.119046874 0.102504626 -0.02605029
0.28729916 -0.008895002 0.14245702 0.05168032 -0.052385405 0.19040945 -0.078966774 0.12128924
0.104657546 0.09754509 0.04934591 0.0060125366 0.16120668 0.012836691 0.0053819134 0.029462127
-0.06068686 0.0027616676 -0.11725919 -0.0007250419 -0.022503477 -0.21117568 0.034829427 0.06354114
0.18412869 -0.17805319 0.21341392 0.14223127 0.112500995 0.29793152 0.05735234 0.052005816
-0.19148138 0.06639461 0.19999738 -0.031186407 0.25585002 0.01991501 0.03015449 0.06479544
-0.036186155 0.004485223 -0.094655655 -0.28258356 -0.10686071 -0.19846278 -0.12027222 0.050381377
0.07583689 -0.025877912 -0.08776649 -0.1501148 -0.2057117 -0.027670754 -0.07089934 -0.13237248
-0.2606352 -0.031565208 0.03237235 0.25372127 -0.09056365 -0.021917287 -0.09472613 0.105603546
0.23747903 0.017177047 0.075282834 0.16102017 0.06741185 0.08292811 -0.021078257 0.033176262
-0.030048275 -0.055669315 0.05321096 -0.10932141 0.09381648 0.087745115 0.18616097 0.22387071
-0.05625187 0.022876583 0.043096174 -0.1479909 0.086398944 0.105987884 -0.03279819 -0.11681668
0.09435369 0.06697387 -0.03199944 -0.06470201 0.11526574 0.037724253 -0.15670724 0.0039104843
-0.071583636 0.029080162 -0.048388522 0.051003926 0.029104277 -0.10919192 -0.02023063 0.15827602
-0.019872567 0.051830433 0.05054983 -0.038366366 0.03622773 0.038737644 0.117252454 0.103130445
0.09225837 0.0026786672 -0.11677859 0.064317144 0.07165244 -0.11069119 -0.048080783 -0.0035330094
-0.106307745 -0.035737634 0.0066367597 0.051998727 0.020955617 -0.020253224 -0.01111189 0.12393969
-0.15205625 -0.055489186 -0.055336352 0.044443686 -0.11758701 -0.008476565 -0.0062016547 -0.10834922
-0.1064134 -0.0752079 -0.04500608 -0.06327126 0.03093498 0.086965434 -0.08033944 -0.13630654
0.10384983 -0.06780139 -0.04073794 -0.03701271 -0.09913644 -0.071159124 -0.023161104 -0.07245471

lstm.weight_hh_l1 f4 [256, 64]
00000000: 4e70 cabd 6637 e63a 8f14 83bd f6fd 7abd
00000010: f332 2e39 3237 db3d 8953 ce3d 9300 b6bc
00000020: 34e1 0dbd c0a4 e13d d7d7 d2bc e36c 5f39
00000030: 74a2 863d e99e 66bc aa1b 9abd f2f7 e5bd
00000040: 2e15 83bd 6f28 173e 8e8f 11bc 1d9b e83d
00000050: 9fa0 03be 75a4 f4bd 1065 903d bbce 9dbd
00000060: a0e7 853d eade 2c3c 0b47 443d 8352 df3d
00000070: 96b4 5e3b 73fa 1d3d 1125 d4bc c102 af3d
00000080: 24f5 443d 03d8 c3bd c98d ecbd 453f 803d
00000090: 31ec 99bd 8914 ca3d 05e6 dfbd 0bf7 98bd
000000a0: 57c6 6dbd 325a 39bd 0093 d63d 8b60 95bb
000000b0: fc58 a93c 815f acbd b88e cabc af78 66bd
000000c0: a5c7 653d 8139 b8bc 06dd c5bc eb9c c4bd
000000d0: 3ec6 c63d c93e 153e fa1b bebd 0d95 07be
000000e0: b56a 97bd ccad 56bd df10 b2bd 172f d4bc
000000f0: 4d10 21be 75d0 aa3a 10e7 94bd b4a9 aebc
00000100: 22c3 cebd baf9 40bd 1581 a13d cf37 263e
00000110: c141 d7b7 e2c5 963b 857a a63d 756b ae3d
00000120: e58d 29bd 6948 e23c ff5c 24bd 2d6c a43e
00000130: d622 31be c11d 723d 9b81 a53d 1216 4abd
00000140: 734a 9fbd 932b 213e 325b 323d 080a 2a3e
00000150: 65e8 2f3e 5ff7 f1bd 3f6a 30be 1b1e 91bc
00000160: e784 63bd 4f22 333e a241 363e f169 823d
00000170: f05f c7bc d217 1cbe 84a4 ff3d da72 11bd
00000180: 1a26 68bd 3f41 be3b a4f9 0cbc b9a0 8dbd
00000190: cfa4 94bc c108 e23a e7d3 0f3e 4ec8 553d
000001a0: 21f2 13bb 0844 1abe d015 223e 72be 373e
000001b0: 2ec3 eebd 7209 e4bc e3cf a23d 7575 bf3c
000001c0: 23cf 05be 0804 31be 1a84 1abd 7701 ac3d
000001d0: 22de 0c3e 8b26 0fbe 3103 1dbd 10fc 973d
000001e0: b692 68bd f39c b9bd c171 b63d 9af7 c23d
000001f0: 2b01 8f3c 912f c23d d1a4 1c3e fc7c 443e
00000200: 1769 37bd 11ec 5a3d 75eb 5e3d cb2e 613e
00000210: 8b5c 9d3e dba7 bf3d ed68 423e 9d09 943d
00000220: a579 473e 0756 373e bedd 13be 3e81 6b3e
00000230: 840e 11be b8f0 b03d e5bb 9b3d 39fb 3bbd
00000240: 42bf 65be 985e b23b 983c babd 8767 983d
00000250: e64c 063e 126b cfbd a432 ffbd b9cc 4fbe
00000260: 2aa9 c73d 9d96 ab3d c641 85bc 18e2 9f3c
00000270: 1ee4 cb3d 1b9c 33be af99 b23d 7a18 3d3d
00000280: 15aa 3bbe d1e5 893d 5573 4fbd 3bd0 2bbd
00000290: c4a3 bbbd 347c cfbd 1037 313e 8099 343d
000002a0: a84a 20bc 2c54 1cbd 3c8c 1b3e 8f72 0d3d
000002b0: 5362 803d 25c7 09bd f830 ba3d 9ad4 5d3e
000002c0: c729 20be 6daa 4ebe 90f3 f0bd 62fc 103e
000002d0: 0088 8b3d 7777 99bd e490 9e3d e9b1 ce3d
000002e0: 5673 f83c d7f1 05bd 7cf4 f33d 8980 d23d
000002f0: 854e a13e 68a1 2e3c 89fc b03d 8e61 6e3d
00000300: 9832 f83d e7a7 de3d 5da0 29bd a43f 0fbe
00000310: d1f6 acbd 1bb6 943d 408d dcbc 1235 1cbe
00000320: b453 7e3d eddb 54bd b6d4 953d 12df 913d
00000330: ad91 083e 6c3c 5c3c fcca 953d 8531 b63c
00000340: db95 d83c 0c36 a6bd c6a5 a0bc 6707 783d
00000350: ad08 4b3d ae49 8b3d b770 253e f1aa b0bd
00000360: b662 863d fce2 1fbb ce6f ec3c 7962 8ebd
00000370: 1676 d2bd ae20 993d 372c 11bd 33f6 8abd
00000380: f716 babd 1bea 91bd 154c 543d 74a0 92bb
00000390: 9fc1 d0bd 0117 1d3e c0e7 f6bd bb51 02bd
000003a0: da27 a2bd 02a5 cbbd 7378 0d3d 1d1d 3cbd
000003b0: 74ba 7a3c 957c 4fbd e33d 49bd 342c 8abd
000003c0: d203 963d 457e 7e3d 3073 823d 1aaf 8ebd
000003d0: d186 cf3d 9514 a03b 2561 933d db69 bc3d
000003e0: 8a04 423d d21d 23bd a28a 85bd d8da fdbb
000003f0: dca7 34be 5ca9 2b3e 61fd 553c cc6a 523d
-0.09884702 0.0017564117 -0.064004056 -0.061277352 0.00016612913 0.10703887 0.10074527 -0.02221707
-0.0346386 0.11017752 -0.025737686 0.000213075 0.06573954 -0.014075973 -0.07524808 -0.112289324
-0.06400524 0.14761518 -0.008884324 0.113577105 -0.12854241 -0.1194543 0.07050526 -0.07705446
0.065383196 0.010551194 0.047919314 0.1090441 0.003398215 0.038568925 -0.02589658 0.08545447
0.048085347 -0.09562685 -0.11550481 0.06262068 -0.07515753 0.09867198 -0.109325446 -0.07468995
-0.05805048 -0.045252033 0.10477257 -0.004558628 0.020672314 -0.084166534 -0.024726257 -0.056267437
0.0560986 -0.022488357 -0.024153244 -0.09600242 0.097057804 0.14574732 -0.0928268 -0.13240452
-0.073933996 -0.05241184 -0.08694624 -0.02590136 -0.15728875 0.0013032096 -0.07270634 -0.021321155
-0.100958124 -0.047113158 0.078859486 0.16232227 -2.5660616e-05 0.004601226 0.081288375 0.085165896
-0.041395087 0.027622418 -0.04012775 0.32113782 -0.17298445 0.059110407 0.08081361 -0.049337454
-0.07777872 0.15739278 0.043544002 0.16605389 0.17178495 -0.118147604 -0.1722803 -0.01771455
-0.055546667 0.17493556 0.17798474 0.06367863 -0.024337739 -0.15243462 0.12482551 -0.03550992
-0.05667696 0.005806118 -0.008604441 -0.06915421 -0.018144993 0.001724504 0.14045678 0.05219298
-0.002257474 -0.15065014 0.15828633 0.17943743 -0.11658321 -0.027836535 0.079498075 0.023371438
-0.13067298 -0.17286694 -0.037723638 0.08398717 0.13756612 -0.13979547 -0.03833312 0.07421124
-0.05678054 -0.09063139 0.089084156 0.095198825 0.017456612 0.09481729 0.15297247 0.19188303
-0.044777956 0.053447787 0.054423768 0.21990506 0.30734667 0.09358188 0.18985339 0.07228396
0.19479997 0.1790391 -0.14440057 0.2299852 -0.14165694 0.086396635 0.076041974 -0.04589388
-0.2243624 0.0054434054 -0.090935886 0.07441621 0.13115272 -0.10127844 -0.12460831 -0.20292939
0.09749062 0.083783366 -0.016266715 0.01951699 0.09955619 -0.17540018 0.08720719 0.04616592
-0.183266 0.06733287 -0.0506471 -0.04194663 -0.09162095 -0.10131112 0.17306161 0.0440917
-0.009783424 -0.03816621 0.15190214 0.03453308 0.06268754 -0.033637185 0.09091371 0.21663132
-0.15640937 -0.201822 -0.11765206 0.14158776 0.06813049 -0.07493489 0.077424794 0.100925274
0.030328434 -0.03270134 0.11911866 0.102784224 0.31505218 0.010658599 0.08641917 0.058198504
0.12119025 0.108718686 -0.0414127 -0.1398912 -0.08445514 0.07261296 -0.026922822 -0.1525462
0.062091544 -0.05196755 0.07315962 0.071226254 0.13336821 0.01344214 0.07314107 0.02224041
0.026438644 -0.081157774 -0.019610297 0.060553934 0.04956882 0.06801163 0.16156279 -0.086263545
0.06561796 -0.0024396768 0.028861906 -0.06952376 -0.10276429 0.07476936 -0.035442557 -0.0678524
-0.090864114 -0.0712473 0.05183037 -0.004474694 -0.1019318 0.15340807 -0.120559216 -0.031816225
-0.07917757 -0.09943582 0.034538697 -0.045926202 0.015303243 -0.05065592 -0.049131285 -0.06746712
0.073249474 0.06213214 0.063696265 -0.06966992 0.10133136 0.004885266 0.07196263 0.09199878
0.04736761 -0.03982336 -0.06520583 -0.0077470355 -0.17642158 0.16763824 0.0130608985 0.05137138

lstm.bias_ih_l1 f4 [256]
00000000: 5bd0 66bd 618d 9cbd 089e 22be 9005 21bd
00000010: 27ae 3abe db07 84bc a621 9bbd 87d6 213d
00000020: 94f4 38bd 3b73 eebc aea9 3abe 591d 2abe
00000030: 4654 a1bb 6053 9a3c ec50 ecbc bed6 ccbc
00000040: aece d33b 770c ccbc 8976 f5bd 82aa 7abd
00000050: 8e20 70bd 4e3b 0bbe 2f46 02be b36c fa3b
00000060: 4c6d af3a 1e91 e8bd 47a7 4f3d ebbe fabc
00000070: 925d d7bd d0fd f3bd 4678 ee3c d0c8 6c3b
00000080: c50a 603c b944 88be 3904 3c3d 0568 85bd
00000090: 9fb5 30be c3f5 cdbc 1cc5 a7bd c62c 273d
000000a0: 7593 053d 71f8 acbd 0a8f abbd 8782 41bd
000000b0: c166 26be 3606 03be af96 18be 0274 be3c
000000c0: d144 083b d331 8c3d 35f7 843d c2bc b6bd
000000d0: 3ef2 86bd f12d eb3b 7241 54bd 13da a5bd
000000e0: 9de6 45bd e04c 10be feee 4bbe bddc a33d
000000f0: 43be 1ebb 514a 40be 4346 153d e5c9 e3bd
00000100: c2ff f23d a04c af3c 5ebb d83d d563 9b3d
00000110: fe48 e83c 79f8 ac3d 27f8 8dbd 502c ea3d
00000120: 8c9f f63d 06fa eb3d 510f 793e 14b5 cfbc
00000130: f51a 963d 7cba 88bc c059 0e3e 4bb1 083e
00000140: c8f9 313e 4b60 f23c 05e6 813d 5557 8cbd
00000150: 3b80 91bd 70c3 04be 23b4 393e 4d88 b23d
00000160: 6df5 0ebc 69dd 1a3d 1361 25bd 64ec 80bd
00000170: 147b ad3c 6e42 193e 8b9d 1ebd 0a4d 0a3e
00000180: 30d3 74bd b9ca 2e3d 58cb cd3d 445e f33d
00000190: 55da 6d3d c8d6 a13d 3b48 e33d 491d cc3d
000001a0: 77c1 df3d 6515 4e3d 4ae9 133e 060a 043e
000001b0: f43b bcbd e592 4bbd 9471 8d3d ddc3 373e
000001c0: 6899 d33d 4009 28bc 419a 56bd 7c77 e33d
000001d0: cd8c aa3c eec5 853d c014 cbbc 2dae 223e
000001e0: fbb3 713d 77fa b83d 1f65 183d aebc 823d
000001f0: 60f6 443e 3ad3 453d dbfc 903d 4868 333e
00000200: c3dc bebd e350 81bc bac1 c1bd 1a6b 59bd
00000210: ca8d 10bd e34f 9cbd d227 583d f39b 8abd
00000220: 9677 84bd 5898 cdbc 4a13 76bd 9ea0 d5bd
00000230: 7d64 3fbd 5088 78bd 429e c33c c797 2a3d
00000240: b040 773d bff3 8d3d d065 e7bc d9be 9b3d
00000250: 51d5 abbd a8eb 39bd c048 66bc eff8 103d
00000260: fc72 383c ba1e e9bd 8bee 40bd d2c7 a5bd
00000270: 4788 d4bd d2b5 71bd 0a69 23be 78bb 23be
00000280: 54c9 a63d 709a 00be 6bff 013e a873 6fbd
00000290: 49b8 8abd be80 99bc 9d98 a1bd a9c3 d83c
000002a0: c702 b9bd 016f 713d 082a 3d3d ecea b73d
000002b0: c676 18bc 55cf 843d bb74 12bd c687 2a3c
000002c0: b2e7 2f3c 0ffe 25bd 7102 b1bd ddf4 83bd
000002d0: 875c 02be cbcf a3bd ed94 b4bc 621f 8a3d
000002e0: d991 b3bd 06a8 9f3d 3b28 b2bd 2de2 d2bd
000002f0: f448 8bbd 2142 633d 9a74 903c 8468 76bc
00000300: 2621 69ba 0451 9d3d 33d0 44be 9e46 d93d
00000310: d72f 313d 1ef3 8d3d 48b1 6cbc 990f 2c3d
00000320: ac59 c03b 75ca 503d 193b 073e d32b 2c3d
00000330: 4757 123e 687e d0bc 5ec7 293d 3257 dabd
00000340: 6141 0c3d 004d 283d 73ba 083c cd6c bdbd
00000350: 6771 72bd 1b59 66bd ea74 8b3d 669c adbd
00000360: 7a17 09be a4a4 65bc 8a36 f8bc 4223 0abc
00000370: 542c ab3d ca57 e03d db2d f93d 4de9 3dbd
00000380: 9c0e 843c 7d59 953d 0a2d 743d 9878 49bd
00000390: 3803 e4bd e6cb 41bd dd39 ba3d fd58 debd
000003a0: d8d4 55ba be53 ec3d 6fde 493d a130 89bd
000003b0: a4f8 24be da5f 473c adba b93b a4f8 8ebd
000003c0: 2638 8c3c c750 023e c57d a43d b578 cf3d
000003d0: 08c9 06bd 2702 af3d 68d0 87bb ac7e 12be
000003e0: e7a1 8b3b d3fa 2cbd 1c21 9dbd 290d 143d
000003f0: eda6 ba3d 8f59 e0bc c037 533d 9406 c3bd
-0.056351047 -0.076441534 -0.15880597 -0.039311945 -0.18230496 -0.016117027 -0.07574777 0.03951123
-0.045155123 -0.02910768 -0.1822879 -0.16612758 -0.0049233763 0.018838584 -0.02884718 -0.02500474
0.006463847 -0.024908287 -0.119854994 -0.061197765 -0.058624797 -0.13596842 -0.12722085 0.0076423525
0.0013384013 -0.11355804 0.050696637 -0.030608615 -0.10515894 -0.11913645 0.029110085 0.0036130436
0.013674443 -0.2661493 0.045902465 -0.06513981 -0.17256783 -0.025141602 -0.081918925 0.040814184
0.03261133 -0.08445824 -0.08376892 -0.04724362 -0.16250135 -0.12795338 -0.14901231 0.023248676
0.002079297 0.06845441 0.064924635 -0.089227214 -0.06589173 0.0071771075 -0.051820226 -0.08098235
-0.048315633 -0.14091825 -0.19915387 0.08001087 -0.0024222292 -0.1877835 0.03644396 -0.11122493
0.11865188 0.021398842 0.105826125 0.07587401 0.028355118 0.0844583 -0.06932097 0.11434233
0.1204215 0.115222976 0.24322249 -0.0253549 0.073293604 -0.016690485 0.13901424 0.13348882
0.1738044 0.029586932 0.06342701 -0.06852595 -0.07104536 -0.12965178 0.18135123 0.087174036
-0.008725506 0.03780881 -0.04037578 -0.06295088 0.021176852 0.14966747 -0.038724463 0.1350595
-0.059771717 0.0426738 0.1004855 0.11883214 0.058069546 0.079022944 0.11097761 0.09966523
0.10925572 0.050313372 0.14444461 0.12894449 -0.09191123 -0.049700636 0.06906429 0.1794581
0.10331994 -0.010256112 -0.0523932 0.11106774 0.020819092 0.06531893 -0.024790168 0.15886755
0.059009533 0.090321474 0.03720581 0.06383644 0.1923461 0.048297144 0.07079478 0.17520249
-0.09319451 -0.01578564 -0.094607785 -0.053080656 -0.03529147 -0.07632425 0.05277235 -0.06768026
-0.06468122 -0.025097057 -0.06007699 -0.10431026 -0.046726692 -0.060676873 0.023879174 0.041648652
0.060364425 0.069312565 -0.02824679 0.07604761 -0.08390296 -0.045390755 -0.014055431 0.03539365
0.011257883 -0.11382814 -0.047102492 -0.08094753 -0.10377555 -0.059011288 -0.15958038 -0.15989482
0.08143869 -0.12558913 0.1269509 -0.058459908 -0.06773431 -0.018738147 -0.07890437 0.026460486
-0.09033733 0.058943752 0.046182662 0.08980355 -0.009305662 0.06484858 -0.035755854 0.0104083475
0.010736393 -0.040525492 -0.08643044 -0.06443188 -0.12730609 -0.07998618 -0.02204367 0.06744267
-0.087680526 0.0779572 -0.086990796 -0.10297046 -0.06801024 0.055482987 0.017633725 -0.015039567
-0.0008893184 0.07681468 -0.19220047 0.10609172 0.043258514 0.069311365 -0.014446564 0.042007063
0.0058700647 0.050974328 0.13206138 0.04203398 0.14291106 -0.0254509 0.041449897 -0.106611624
0.034242038 0.041089058 0.008345234 -0.09249268 -0.05919018 -0.05623732 0.06809409 -0.08477096
-0.13387862 -0.014016304 -0.030299444 -0.008431258 0.08358064 0.109542444 0.12166949 -0.04636507
0.016120248 0.07292459 0.059613265 -0.049187273 -0.111334264 -0.047313593 0.09093068 -0.10856817
-0.00081570214 0.1153941 0.049284395 -0.06698728 -0.16110474 0.012168849 0.0056680054 -0.06981018
0.017116617 0.12726127 0.08031801 0.10130445 -0.032906562 0.085453324 -0.004144717 -0.14306134
0.0042612436 -0.042231392 -0.07672331 0.036145363 0.0911387 -0.027386455 0.05156684 -0.09522739

lstm.bias_hh_l1 f4 [256]
00000000: aa41 36bd e708 b2bd 8cc9 27be b6b7 413d
00000010: b8f4 e3bd fd62 bfbd 2e27 823c 9371 76bd
00000020: 544f a6bd fbb5 b6bc d560 dbbd 3bef 27bc
00000030: 438c 8e3d d6ca a0bc e67a febd 6057 4a3d
00000040: 2aa3 85bd 87ca 9fbd 20c9 33bd 23a7 39be
00000050: 1a25 7ebd 9a49 28bc 806d 86bc 6f9e 753a
00000060: a858 2fbe c085 f63c 32f6 babd 5d35 edbd
00000070: df15 d7bc 0d74 8b3d 38fb 373c 8e9b a33d
00000080: 9082 e0bc f42d 63be e617 ebbc 3cec 1e3d
00000090: f230 543c 678a 363d df31 c03d a92b d2bd
000000a0: f2ad 0d3c 5166 a33c d60b bbbd c31d 54bc
000000b0: 6afb 1b3d 3f8e 57bc 8cbd 6ebe 513b d7bd
000000c0: 0ccb 8dbd a519 debd 2d8d da3b 2b20 da3d
000000d0: ffe1 ff3d 140e 94bd 6aec 84bd 708d 5ebe
000000e0: 7e1a 97bd 7124 adbc 0829 67be 4a48 d0bd
000000f0: f819 b0bc 729c 68be afe4 4b3c 8e0e c8bd
00000100: 4111 b5bd 4b6a 7d3d 30aa d23d 5374 633d
00000110: 161c 0e3e 45e6 b53d 292e bebd 5e58 643d
00000120: 6ef7 e03d 58be 6b3d ec49 683e fcaa a93c
00000130: f812 d93d b6e3 993d 32fb 0d3e f593 3f3d
00000140: c5fc 283e 2873 033e c57f bfbc 0f60 633c
00000150: 3af0 0d3c 5baf 063d 4ccf 2b3e b11e a0bc
00000160: 6590 f83d 12a4 9a3d 5b5d 24bd 3894 823d
00000170: f5b9 c1bd 15bf 943c e57e 06bd 2f6f 82bd
00000180: 12d4 783d e2f6 263e a145 983d 3111 113e
00000190: f392 e73d 26c7 50bb fc0a 013e 1d8c 9a3c
000001a0: 0579 7abd f15f 9abd 8b34 3e3d 1893 853b
000001b0: 5d68 b7bd 7a07 583d 7eb3 423d ce92 bc3d
000001c0: 7920 213d 9673 14bd 721f c4bb 67ad 94bb
000001d0: 980e 1cbc 6a09 ca3a def9 f0bc d3f8 4e3e
000001e0: 589f 61bd cb9f 7fbd 4687 b03d 5c9a bb3d
000001f0: ffba 033e edde 253e ed4a fa3d 6a3a 07bb
00000200: ce6e ed3d 5d8d 113d b555 023d b6d3 10be
00000210: 60e7 83bd e4fd b9bd e7d4 49bb 2a56 28bc
00000220: 7f41 c2bd b052 cdbc f1bb 3cbd 1998 98bd
00000230: fb8e 283d 3dd3 833c aaee 7dbd 6465 52bd
00000240: 9b55 993c 7751 7abd e849 a3bc 2c59 03bd
00000250: 6421 9b3d 63bc d4bc 753f a93c eacd 153e
00000260: e7bc 69bd b0bc 423d 521d 803d 46c3 bf3d
00000270: 4e6f bbbc f9ec b43d ccdb 583d 92b4 333d
00000280: 2487 b43d 9abd aebc 67be f13c e8e6 a33d
00000290: 30b0 dc3c f984 c23d 5852 c7bc 94fb c0bd
000002a0: f2e0 7c3c b6fc 533d aace 743d 6932 1ebd
000002b0: d79d 0a3d 2f7d f9bc 9f3b 323c ee1e 8abd
000002c0: 0efb adbc 53a1 963d b157 cc3d eb11 2a3c
000002d0: d8bf bebd 35bd 903d 47aa 1c3d 66fa cebd
000002e0: a8a2 9f3d c29c eb3d b68c 5fbb 32f7 2a3c
000002f0: 1d34 05bd 7543 01be 3242 60bd d6ec 203c
00000300: 0c54 94bd 2669 453d 76e0 35bd 823d d33c
00000310: 6c79 c93a f9df 8ebd a555 ccbb db47 97bd
00000320: 231e e13d e9c5 96bd 2e3d 093d 7b1e b2bd
00000330: 8b91 5a3d 7eb2 eb3d ccc8 dd3d ac4b 12bd
00000340: fbbe 5ebd 8b11 f23d 04c7 27bd 3f2e 29bd
00000350: dc04 b7bd 6ef0 6c3c b930 e83d 5e08 a9bd
00000360: 95cd b7bd e5c9 b73d 42d3 76bd 21b4 453d
00000370: 4a8d c93d e92e b33d 6052 59bd e94d b83d
00000380: d0e5 2ebd b6e9 6b3d 6c42 7fbd d2c9 aebd
00000390: 2adb 0abe d3b4 03be d2b3 efbb 1fda 953d
000003a0: 9958 76bc 1174 433d 67dd 523d a7fc 8fbd
000003b0: 031e f6bd 9878 213c f8a0 d3bd 13a7 0c3e
000003c0: f9f0 babc 6f49 6ebd 9189 2639 52dc 9c3d
000003d0: 73d3 993c 4e32 a2bd 4341 0cbe 4e87 f2bd
000003e0: 8daa 7bbd 85cb 0f3d 8a23 07bd 9900 c5bd
000003f0: 7fc8 8a3d 3299 d03d 2274 d6bd 6a8c 52bb
-0.044496216 -0.08693104 -0.16385478 0.04729434 -0.11130661 -0.093450524 0.015887823 -0.060166907
-0.081205994 -0.022303572 -0.107118286 -0.010249908 0.069603465 -0.01962797 -0.12425785 0.049399734
-0.06525262 -0.07802301 -0.04389298 -0.18130164 -0.0620471 -0.010271454 -0.016409636 0.0009369617
-0.17123663 0.030093074 -0.09128989 -0.11582444 -0.026255546 0.06809244 0.011229329 0.07988654
-0.027406007 -0.22185498 -0.02869792 0.03879951 0.012951123 0.044565585 0.09384512 -0.10262234
0.008647429 0.01994625 -0.09133117 -0.012946549 0.038081564 -0.013156473 -0.23314494 -0.105093606
-0.06923494 -0.10844735 0.0066696615 0.10650667 0.12494277 -0.07229248 -0.06490405 -0.21733642
-0.073781 -0.02113554 -0.22574246 -0.10170038 -0.021496758 -0.22715929 0.012444659 -0.09768401
-0.088411815 0.061868947 0.10286367 0.055530857 0.13877901 0.08881811 -0.09286148 0.055748336
0.109846935 0.057554573 0.22684449 0.020711415 0.10599321 0.075141355 0.13865355 0.046771962
0.16502674 0.12836897 -0.023376355 0.013877883 0.0086632315 0.032882076 0.16778296 -0.019545885
0.12136916 0.07550825 -0.040128093 0.06375927 -0.094592966 0.018157521 -0.03283586 -0.06368863
0.06074912 0.16305116 0.07435156 0.14166714 0.11307325 -0.0031856983 0.12601846 0.01886564
-0.06115057 -0.075378306 0.046436828 0.004076373 -0.089554526 0.052741505 0.04753446 0.09207688
0.03933761 -0.036243044 -0.005985194 -0.0045372727 -0.009524964 0.0015414183 -0.029416021 0.20212106
-0.055083603 -0.06240825 0.08619551 0.09160301 0.12864302 0.1619832 0.12221322 -0.0020634183
0.115934 0.035535205 0.031820018 -0.14143261 -0.06440616 -0.09081629 -0.0030797066 -0.010274449
-0.09485149 -0.025063843 -0.046077672 -0.07450885 0.04115198 0.016091937 -0.061995186 -0.051366225
0.018717578 -0.061112847 -0.019932702 -0.032067463 0.07574728 -0.025968736 0.020660141 0.14629331
-0.057064917 0.047543228 0.062555924 0.09363417 -0.022880223 0.088342614 0.05294399 0.043873377
0.088148385 -0.021330643 0.029509736 0.08003026 0.026939481 0.09498019 -0.024331257 -0.09422985
0.0154344905 0.051754676 0.059767403 -0.038622294 0.033841934 -0.0304552 0.010878473 -0.067441806
-0.021237876 0.07354989 0.09977663 0.010380249 -0.09313935 0.070673384 0.038248327 -0.101063535
0.07794696 0.115045086 -0.003411097 0.0104349125 -0.032520402 -0.12623389 -0.05475063 0.009822091
-0.07242593 0.04819598 -0.044403516 0.025786165 0.001537127 -0.06976313 -0.0062357956 -0.07386752
0.10992076 -0.07361967 0.03350561 -0.0869722 0.053361457 0.11508654 0.108293146 -0.035716698
-0.054381352 0.11819752 -0.04096128 -0.04130387 -0.08936474 0.01446162 0.11337418 -0.08253549
-0.089747585 0.08974055 -0.060260065 0.048267487 0.09841402 0.08749182 -0.053057075 0.08999235
-0.042699635 0.05759593 -0.062319204 -0.08534588 -0.13560167 -0.12861948 -0.0073151374 0.07316994
-0.015035772 0.04771811 0.051480677 -0.070306115 -0.12017443 0.009855412 -0.10333437 0.13735609
-0.022819983 -0.0581755 0.00015882241 0.0765921 0.018777585 -0.07919751 -0.1369677 -0.118422136
-0.061441947 0.0351062 -0.032992877 -0.096192546 0.06776523 0.1018547 -0.10471369 -0.003212715
