LSTM_model/best_model7.pt_epoch4.pt (torch, 703249 bytes, 33 tensors)

lstm.weight_ih_l0 f4 [256, 20]
00000000: 8de1 0a3e 962f c13d 6f2c 5d3e 6eae a13b
00000010: 40cf 783d a7c4 c73b 9f86 e9bd 9084 80bd
00000020: 9b31 b5bd f122 3ebe b999 b8bd 833e d5bc
00000030: 7c4a 2b3e 0062 06be 5be5 123e cd38 0c3e
00000040: 8b1d 0c3e 7b93 333e 0b12 2ebe 5aa4 323c
00000050: 85c8 8a3e 9e3b 7d3c 62eb acbd 0b89 c03d
00000060: d59f 0ebd 0f5f d43c 76a3 c43c 9910 5ebc
00000070: 8f9a 93be 8378 4ebb 6880 c63d 2187 3e3e
00000080: 286b 023e aa0e 1c3e 47b6 7dbd 625e 6dbd
00000090: 2023 2a3d efa5 003d b945 d93c b83d 663d
000000a0: 8126 463e 9c21 fdbb 1b9f 933d d0ec acbd
000000b0: 1964 06be 4aab a4bd 2a28 a63d 5e12 ee3d
000000c0: a27d 173e 3cc6 703d 3946 cc3d 7e1f 39bd
000000d0: 18d4 bc3d 70be 343d 5e5e d13d 8b40 bb3d
000000e0: b517 5bbd 0a62 25bd 354d ad3d 609b d43d
000000f0: 50a0 483e b35a a53c eb1f 12bd 6759 ca3c
00000100: 94fc f9bd 0088 06be d866 b6bd 7154 c83d
00000110: f072 04be dc9b 5fbd 04f6 7b3d edef a93d
00000120: d543 24bd c78f 103e 0c11 563e 4552 3b3e
00000130: 2b00 b13d c34f 473d 897b e23c f984 413d
00000140: 4a4d 903c 3471 0e3d 1259 3a3d 9a3f a0bd
00000150: 1257 3ebd fe15 04be 851d cabd 9903 0f3e
00000160: cda0 4dbd 60f5 0bbd 4609 2f3d 080f 7a3d
00000170: 26f7 b83d 78a6 183c 7490 ca39 c424 013e
00000180: 1a1a 053e c78f be3d 6553 2dbd 70ec 86bd
00000190: dcb4 38bf 517c 2a3e 179d b4bd b953 743d
000001a0: 6ff8 1abe 6b69 57be 7155 c13d c570 9b3c
000001b0: bc21 bfbd ba4e ca3d 1d5c 383e 9428 ca3d
000001c0: bda8 333d a872 2ebd 3ed3 293e 1dde 413e
000001d0: 4188 e63d 88e7 3a3c 4ca0 6fbe c3d6 c2bc
000001e0: 82ac 1bbe c2f1 293d 2b07 e7ba 9536 98bc
000001f0: ae92 433d 8e85 3ebd 7d19 293e b038 7dbd
00000200: 65a9 973b 1a45 ecbc fdd3 273e fa1b a33c
00000210: 73d2 49bc 73a1 b63d 4af0 143e 2387 843d
00000220: 741e aa3d 2537 703e 2059 253d 1d3b ac3d
00000230: 71a2 873e 20c4 8dbd 12ea 6ebe b31c 98bc
00000240: a13b a1be bcb2 8fbe dd9f 14bd 4faa d6bd
00000250: f1fa 173d 9c6f e9bd a9aa ed3d ce07 113e
00000260: a7cf 42bc 7838 b43c de90 3bbd 077b d43d
00000270: 93ad bf3d dcdd e03d dddc 48be 8894 07be
00000280: 8122 af3c 5f16 d9bd 49a3 323e 9e9e f7bd
00000290: 0456 503d 732d f73d 5844 b2bb eb5f 213d
000002a0: 9ed0 2abd 0366 30bd 2f95 313d abad 873d
000002b0: 11cd 413e 856d 50bd 8ef3 e3bb ffd7 e73d
000002c0: 02c9 9c3d 3001 863c 3614 113e 5ebb f8bc
000002d0: 5e0d ad3d 9d81 3abd be4e 1abe 83e6 21bd
000002e0: 625a 50be 1c9c 39be 73d4 b2bc 15e0 adbd
000002f0: 3ba8 b23d 47b9 2abe 00b1 fb3d b370 2e3e
00000300: e781 dabd 9e4d be3e cba6 0d3d 3628 4d3d
00000310: 1a4f b3bc 50f1 983e 61f7 c73d b0da 123e
00000320: 6c1d 3abe 7bb2 813e 2dc6 233e 59ed 28bd
00000330: c8e3 0d3e 83d2 b53d 4f74 13bc 56ad e2bc
00000340: 2f09 79be c1b4 d53c 4a38 8b3d 37de 3bbe
00000350: c588 4a3e f488 e9bd d08b e8bd e77b 03be
00000360: 58db 613d ea00 dbbd 56f9 dabb 66d7 72bd
00000370: 77d6 083e 3c3b 133d cf2a f8bd 3596 df3d
00000380: d8dc ecbd 0f7b ac3c 6164 e4bd 4177 31bc
00000390: 0def 34ba 3adc 15bd 0fdc c4bc fc81 883c
000003a0: 5ab3 353b aea7 4e3e 6ffc b2bd 60fb a5bd
000003b0: 8b96 d9bd 7a7c a73d 1f69 c5bd 9817 a6bd
000003c0: a9aa 0fbe 8633 6e3c ab9a 39bd 11e0 283e
000003d0: a6b7 083e 7088 77bd 253e a03d fda6 bc3d
000003e0: 5c40 b1bd 12e6 e23c b2c0 023b dead 25be
000003f0: e708 33bd 7185 d8be c2ee b0bd 590f e4bd
0.13562603 0.094329044 0.21598981 0.0049341237 0.060744524 0.006096441 -0.1140263 -0.06275284
-0.08847352 -0.18568017 -0.09013695 -0.026030784 0.16727632 -0.13123322 0.14345305 0.13693543
0.13683145 0.17536728 -0.1699907 0.010903442 0.2710611 0.015456108 -0.08443333 0.09401139
-0.034820396 0.025924234 0.024003725 -0.013553762 -0.28828856 -0.0031504936 0.0969246 0.18606235
0.1273619 0.15239969 -0.06194141 -0.05795134 0.041537404 0.031408247 0.026522504 0.056211203
0.19350626 -0.007724954 0.07208081 -0.08443606 -0.13124122 -0.08040483 0.081131294 0.11624597
0.14794019 0.0587828 0.099743314 -0.04519605 0.09220141 0.044126928 0.10223077 0.0914317
-0.053489406 -0.0403767 0.08461992 0.10381198 0.19592404 0.02018485 -0.03567497 0.024700833
-0.122063786 -0.13137817 -0.08906335 0.09781731 -0.1293447 -0.054592 0.061513916 0.08297715
-0.040103752 0.14117347 0.2090494 0.18293102 0.0864261 0.04866005 0.027646797 0.047245953
0.01761498 0.034775928 0.0454951 -0.07824631 -0.046469755 -0.12899014 -0.09868912 0.13966216
-0.05020218 -0.034169555 0.042733453 0.06104949 0.09031515 0.009317033 0.00038636068 0.12611681
0.12998238 0.09304767 -0.04231586 -0.065880656 -0.7215097 0.16648985 -0.08819025 0.059650157
-0.15133832 -0.21036308 0.09440125 0.018974671 -0.09332606 0.09878297 0.18003888 0.09871021
0.043862093 -0.042589813 0.16584489 0.18932386 0.11256457 0.01140774 -0.23400992 -0.023784047
-0.15202525 0.041490324 -0.0017626038 -0.018580714 0.047747307 -0.046514086 0.1651363 -0.06182164
0.0046283477 -0.028841544 0.16389461 0.019910801 -0.012318241 0.08917513 0.14544788 0.06471088
0.0830659 0.23458536 0.0403682 0.084097125 0.2649112 -0.069221735 -0.23331478 -0.018568372
-0.31490806 -0.2806605 -0.03628527 -0.104817025 0.03710455 -0.11398241 0.116048165 0.14163134
-0.0118903285 0.021999583 -0.045792453 0.10375028 0.093592785 0.10979816 -0.19615503 -0.13240254
0.021378757 -0.1059997 0.17445101 -0.12090801 0.05086328 0.120692156 -0.005440276 0.039398115
-0.04170286 -0.043066036 0.043355163 0.066249214 0.18925883 -0.050885696 -0.006956524 0.11320495
0.07655527 0.016357988 0.14167866 -0.030362781 0.08449815 -0.045533765 -0.150691 -0.039526474
-0.20346978 -0.18125957 -0.02182982 -0.08490006 0.08723494 -0.1667224 0.122896194 0.17035179
-0.10669308 0.37168592 0.034582894 0.050087176 -0.021888305 0.29871607 0.09763981 0.14341235
-0.18175286 0.25331482 0.15993567 -0.041241977 0.13856423 0.088780425 -0.008999898 -0.027670544
-0.2431991 0.026087167 0.06797846 -0.18346487 0.19778736 -0.11403075 -0.11354792 -0.12840234
0.055140823 -0.10693534 -0.006682555 -0.05928745 0.13363062 0.035945162 -0.1211754 0.109173216
-0.1156556 0.021054773 -0.11151958 -0.010831655 -0.00069020764 -0.036586978 -0.024030713 0.016663544
0.002772531 0.20181152 -0.08739554 -0.081045866 -0.10624417 0.08178039 -0.09639191 -0.08109969
-0.14029945 0.014538651 -0.04531352 0.16491725 0.13351306 -0.06043285 0.07824353 0.09211538
-0.08654854 0.027697597 0.001995128 -0.16179606 -0.04370966 -0.42289308 -0.086392894 -0.1113574

lstm.weight_hh_l0 f4 [256, 64]
00000000: 6fb6 e3bd 29cb 57be 183b b0bc 509c 113b
00000010: aa2d d83b dfdb a93d a9d8 4ebe dda4 08bd
00000020: ab49 60be dab8 87be 6242 ac3c 79a9 e2bd
00000030: e6a9 66bd 4c2e 2d3c d40c c73d 2b61 8fbc
00000040: 82dd 8cbe 7e8d ce3d 311b 38be b3aa 37be
00000050: 57f9 10be 5b0a 353a 4063 6cbe 528e 3f3e
00000060: e86f f1bc 43e8 79be 9c7b ef3d 4aa2 9e3d
00000070: a732 54bd 6160 3d3d 52e7 713d 90dd 943d
00000080: 9734 00be fab2 f6bd 093b f53b f70a dc3c
00000090: 8e6e dc3d 68a0 9f3d 4153 9bbd 02a6 953c
000000a0: 2999 18bd 8826 713c 5fc2 6d3c 09c4 07bd
000000b0: 2f11 f53d d873 ecbc 2444 613d c065 40be
000000c0: 1a17 c3bd a8f7 37bd 3971 ffbd 40ff 433d
000000d0: 75d7 423d 8207 6bbe e8bc 36bd 1430 bcbd
000000e0: d786 453e d574 7abe 0a3b f1bd 0c88 043e
000000f0: 2199 91bd d864 8bbe 57af 5a3d 7c07 2d3e
00000100: f80c b13c 2852 083e 0c2a 0dbd 77f6 aa3c
00000110: f90a 003e ec28 ae3c 64b2 24be cdb1 dbbc
00000120: 6a4a 8fbe 4538 00be a4fd 523e 0c50 c93c
00000130: bc76 19be 8c0c f8bd 28f0 2c3e 15ba c0bc
00000140: 034b a4bd f896 14be a8a5 48be b1db d03c
00000150: aff0 3a3e b4a3 51bd b70f dfbd 0196 473e
00000160: 06c6 9f3e c3b9 a93c 0a51 0cbd 2c1b 6bbc
00000170: 8769 39be 4774 183e d16a 7e3d 060f 463d
00000180: 2b02 ecbd de51 67bd 5af0 efbd af1d 233d
00000190: 2498 e73d 7b8c d53c fc7a 84be e73d b03d
000001a0: e18f 67bc f0d0 aabc 8c2d 00be 1fb5 82bb
000001b0: 6fc1 a23d 7283 0cbe 9684 de3d 8a5c bfbd
000001c0: fcf2 06bd 23b4 93bb 8008 3bbd 1119 33bd
000001d0: 9ed7 74bd 89ce 8fbd 0b9d 19bd 0b29 ce3d
000001e0: 902c f1bb 0bb7 22bc 9fa9 4f3c ff1b ab3d
000001f0: b696 afbd e24d dcbd 20d8 fc3c 20b4 33bd
00000200: 470f fc3c bebc 80bd 5819 b33d 2ef3 cfbd
00000210: 6aa2 993d ba90 3d3c ede8 083e b603 2f3e
00000220: 7ffd 433d 61b2 10bd 5955 aabd 6d11 813d
00000230: 69c4 f73d a296 2f3e 714e aabc c088 993d
00000240: 621f a3bc 4c7c d03c 8b8f c03d 97fa 91bd
00000250: 73b2 dabd 435d babd d684 1cbe 7b48 61be
00000260: d4df ad3d f587 32bd d7c5 413d 38ea 083d
00000270: b7a3 9cbd a770 a8bc 4cdb 003d bc08 f1bc
00000280: 65cc 0e3e a8a5 973d f201 133c c4bb f13d
00000290: a514 963d bdd9 25bd d832 483e 5ad8 79bc
000002a0: 566b 94be 6097 4cbd 65dd c5bc 29d8 26bc
000002b0: a720 c33d d0b7 78bd 3e1d f1bd de77 853d
000002c0: 5c34 973b eb81 43bd e3af 543d 29be b43d
000002d0: 9b09 c7bc 3c00 dabc cd23 353d 9051 5dbd
000002e0: e7c3 17bd 96b5 eabd 9478 393c f525 eb3d
000002f0: 4c2a 81bd a49f 5b3d 5206 003e b6c8 213e
00000300: cb4f 0abd 0e12 e2bc a85f 79bd c18a c3bd
00000310: 24d4 663e db80 643d 84d6 c9ba 2dc3 263c
00000320: 110a 0fbe a625 d23d 9d90 59bd ec28 043e
00000330: 7e50 8bbd 8845 0a3e e6c8 083e 462f 203d
00000340: be74 0fbe 9687 67bb c53b eebd ad4f e03d
00000350: 5792 7a3d 6844 00be fbd9 00be 059c ba3d
00000360: c013 da3c 7a55 f8bd a008 0f3e 1a09 adbd
00000370: bd4c b0bd d5dc 9b3c d07f 263e e644 c33d
00000380: b8b9 243e 375b 09be 6d45 243d 4a45 bd3d
00000390: 3d75 a03d a84b 083d cb20 e53c bf7c 1dbe
000003a0: 4215 03be 2eb0 033e 89e9 d23c 2a6d 5f3d
000003b0: 8804 3dbd b146 123e 9aab 24bd 7586 1c3e
000003c0: 369d d93d 2c25 05bd 62ff 42bd be2a a03b
000003d0: 25c5 9e3d 0e3e 4fbe a418 2cbd c715 bcbc
000003e0: 64d7 42bd 0611 0bbc 57f3 3abe 3352 3f3d
000003f0: a5f1 84bd d42a 89bc 8313 373d 8d62 c83d
-0.11118781 -0.21073593 -0.021512553 0.0022218414 0.0065972405 0.0829389 -0.20199837 -0.03336035
-0.21903102 -0.26508218 0.021027748 -0.110674806 -0.05631437 0.01057012 0.09719244 -0.017502388
-0.27512747 0.10085581 -0.17979123 -0.1793621 -0.14157616 0.0006906145 -0.23084736 0.18706635
-0.029472306 -0.24405007 0.116934985 0.07745798 -0.05180612 0.046234492 0.059058495 0.07268822
-0.12520061 -0.12045856 0.007483844 0.026860697 0.10763274 0.07794267 -0.07584239 0.018267635
-0.03725544 0.014718659 0.014511674 -0.033145938 0.11966168 -0.028863832 0.054996625 -0.18788815
-0.09525891 -0.044913918 -0.124727674 0.047850847 0.047568757 -0.22952083 -0.04461375 -0.09188858
0.19289719 -0.2445863 -0.11778839 0.12942523 -0.07109285 -0.27225375 0.053389873 0.16897386
0.02161263 0.1331259 -0.034463927 0.020869477 0.12504186 0.021259747 -0.16083676 -0.02681818
-0.2798646 -0.12521465 0.20604569 0.024574302 -0.149867 -0.12111768 0.16888487 -0.02352623
-0.0802212 -0.14510715 -0.19594443 0.025495382 0.18255876 -0.05118151 -0.10891669 0.19490816
0.31205767 0.02071846 -0.034256972 -0.01434974 -0.18106662 0.14888106 0.062113587 0.04835417
-0.11523851 -0.05647456 -0.11715765 0.03982323 0.113083154 0.026067963 -0.2587508 0.08605557
-0.0141334245 -0.020851582 -0.12517375 -0.0039888765 0.07947051 -0.13722017 0.108651325 -0.09343822
-0.03294657 -0.004507558 -0.045662403 -0.043725077 -0.05977594 -0.07021815 -0.037503283 0.10066422
-0.0073600486 -0.009931336 0.012674718 0.08354949 -0.08573668 -0.107570425 0.030864775 -0.043872952
0.030769004 -0.06286 0.08745068 -0.10153805 0.07501681 0.01157015 0.13370104 0.1709126
0.047849175 -0.035326365 -0.0831706 0.06302152 0.12098009 0.17147306 -0.020789357 0.07496786
-0.019912425 0.025449894 0.09402379 -0.07127874 -0.10678568 -0.090998195 -0.15285048 -0.22000305
0.084899575 -0.04358669 0.047307815 0.033426493 -0.07648414 -0.02056153 0.031459138 -0.02942311
0.13945158 0.07404643 0.008972632 0.118033916 0.073281564 -0.040490855 0.19550645 -0.015249336
-0.2898814 -0.04994905 -0.02415342 -0.010183373 0.09527712 -0.060722172 -0.11773156 0.065170035
0.004614396 -0.04773132 0.05192555 0.08825333 -0.024296572 -0.02661144 0.044223595 -0.054032862
-0.03705206 -0.11460416 0.011320252 0.11481849 -0.063068956 0.053619042 0.12502411 0.15799221
-0.033767503 -0.0275965 -0.06088224 -0.095479496 0.22541863 0.05578695 -0.0015399014 0.0101783695
-0.13968684 0.10261087 -0.05311643 0.12906235 -0.06802462 0.13503087 0.13357887 0.039107583
-0.14009377 -0.0035328618 -0.11632494 0.10952697 0.061174717 -0.12526095 -0.12583153 0.091117896
0.026620746 -0.12125678 0.13968134 -0.084490016 -0.08608387 0.0190262 0.16259694 0.09534626
0.16086471 -0.13413702 0.040105272 0.092417315 0.078348614 0.033275276 0.027969738 -0.15379618
-0.12801078 0.12860176 0.025746124 0.054547466 -0.0461469 0.14284779 -0.040202715 0.15285666
0.10625689 -0.032506153 -0.047606833 0.0048879078 0.07752446 -0.20238516 -0.042015687 -0.022959603
-0.047568694 -0.008487945 -0.1825689 0.04670925 -0.064914025 -0.016744055 0.044696342 0.09784422

lstm.bias_ih_l0 f4 [256]
00000000: 6909 5fbd e794 a2bd 8053 5fbd 59aa 0ebe
00000010: 78ba b3bd 3945 123e 39b0 4a3d 4540 0fbe
00000020: b94a 04be 4727 223e 6169 323d bc3b bdbd
00000030: ade9 ed3d be18 3b3e a6eb c63d 6663 753d
00000040: 8610 d6bd 5906 37bd 283f 9f3d e64b d63d
00000050: 4331 2dbd 37f2 2f3e 76c8 8bbc 8e83 0c3e
00000060: ee89 10be 3a98 88bd 3cbe d8bd a238 c4bd
00000070: ca54 4dbe 4d1b 78bc 9e21 88bd 8e5f a23d
00000080: 8bb8 d2bd 6112 2fbe e198 e53d f9b3 d1bc
00000090: 21e9 a839 3ac0 4cbd 93d8 f5bb 31f0 a3bd
000000a0: a480 ef3d faad e0bd a7f4 11be cb35 c73c
000000b0: a1ab 5cbd 80b1 693d 1338 c1bd 2f27 973d
000000c0: 2133 843d 1189 e73d 280f f6bd ad21 9ebd
000000d0: 2bb9 dc3c c63b 66be 2b7f a1bd 1bc1 0b3e
000000e0: fddf 5f3c b05e 12be 8bf1 ab3d 29af 223e
000000f0: 139e 0fbe 5371 883d b96b 19bd 0a1a 113d
00000100: 230b 2d3d 94d5 d33d 8f47 8abc 67aa 263e
00000110: c691 4b3e 3e1d 363e be98 823a f1c7 d4bd
00000120: 0dad bb3d bf66 8b3e 198d 2b3e 1f18 f33d
00000130: e484 ff3b 8b68 013e 03dd e73d 5c57 803e
00000140: 2b27 e1bc 969c 3c3d 4d0c 7bbc 618f c33d
00000150: f12f 003b 7913 313d 2afc 413e d86a dcbb
00000160: 2744 c33d ae2a b63c 0b25 083e fd01 0d3e
00000170: 3427 0e3e bfec 90bd 6a88 a4ba 0345 1b3e
00000180: 3091 bf3d ceb9 e1bc 1ea2 1f3e 0d10 d83d
00000190: 0ba6 bb3d fcda 443e 1213 16be aa06 663d
000001a0: 83a9 613e d8c1 223e 665f e83c 9ad4 413d
000001b0: 33d3 ce3c 8f8f 163d 6a5b 273d b483 393d
000001c0: b311 d63d d6af 0b3e c79a abbd a756 2a3e
000001d0: bece c43c 15f0 78bd 4450 523e 23e3 423c
000001e0: d8de 15bd 592b a53d 0f88 c73d c293 233e
000001f0: 4ecc 603d e6ef 8dbc f1d8 963e e287 713d
00000200: 95ae ba3d f93f 0a3d 1313 67bc daf3 9c3d
00000210: 784c 04be a59b a8bd 1115 7c3d e1df 1dbd
00000220: 3139 88bd c7d0 cdbb 48d3 84bd 4dcb 7d3c
00000230: 5590 7dbd 4273 c63c aea9 583d b62f 9abc
00000240: 5ded 89bd 858f c73d d156 3c3b 3a21 963c
00000250: 894a 723d 6512 c03d c115 28be 49c6 123b
00000260: 4cc5 99bd 2c64 8b3b cd2c 0fbd 778e 293c
00000270: 59c9 943d dab6 753d f2e4 c3bc b530 a53c
00000280: 4a5d 99bd 166b 003e 47c5 253d 6478 92bc
00000290: 5b07 7dbd 3dba c53d 9a10 c0bd ba16 4b3d
000002a0: b1a2 adbd 787f 953d cae6 84bd e6f6 bf3d
000002b0: 1af9 423d f3a8 d8bd 7b8b bd3c 1f0f 0dbd
000002c0: ff26 b8bd bb95 f83c 1943 1b3d a39e b1bd
000002d0: 9cd3 09bd d0fe d8bd f603 aa3c 95e3 cdbd
000002e0: 1b27 1d3e 837d c7bd a271 823d 3164 543e
000002f0: abc5 c4bc a3d9 9abb b337 b23b e617 413d
00000300: d6f9 cf3d b79c 943d c48b d53d 2dc5 013e
00000310: 71a8 aebd 5583 313e a972 9cbc 4bf7 1ebd
00000320: cc00 c3bd 95e5 cd3c 5a5c 9b3e cdb7 003e
00000330: 4ed4 893c a3bb 2f3e 0b9c 393d 8d68 b83d
00000340: 967e 473c 7386 49bd 2338 ce3c bc47 df3c
00000350: 52d1 fb3d efba 8e3d e41f d53c 3004 0f3e
00000360: 96bd 33bd 7225 d03d 99f4 2a3e 2f09 193e
00000370: 6553 a33c c072 fa3d 34d4 103c 56ce 163e
00000380: e2ed 1b3c 3c98 26bd 9279 38bc fbe1 dc3d
00000390: 7818 67bc 933e 213e f15e ccbd 4d13 973d
000003a0: e6fc 573e 0a6d 76bd c2a0 d8bc e27e 463e
000003b0: 74fa 8abb 444d 503d ccf0 0e3e 868c d03d
000003c0: 73fd 283e cfea 243e ac04 293c 3065 0d3e
000003d0: 410e a23c 15ba 053e 82ac b83d bd6e 483e
000003e0: 5a25 6f3d bc08 ac3c ee98 8abd 3a2c bc3c
000003f0: 6840 6dbd 79bd f43b 25a2 e93d 52fd 92bb
-0.054452334 -0.07938557 -0.05452299 -0.1393217 -0.087758005 0.14284219 0.049484465 -0.1398936
-0.1291913 0.15835296 0.04355753 -0.09239909 0.11616836 0.18271157 0.09712915 0.059909247
-0.1045237 -0.044683788 0.07775718 0.10463695 -0.042283308 0.17182241 -0.01706336 0.13722059
-0.14115116 -0.0666966 -0.10583159 -0.09581114 -0.20051876 -0.015143228 -0.06647037 0.07928382
-0.10289105 -0.17096855 0.112108 -0.025598513 0.00032217152 -0.04998801 -0.0075026243 -0.08004797
0.11694458 -0.109706834 -0.14253484 0.024317643 -0.053874616 0.057054043 -0.094345234 0.073805206
0.064550646 0.1130544 -0.120146096 -0.07721267 0.026943764 -0.2248374 -0.078855835 0.13647883
0.013664243 -0.14293933 0.0839568 0.15887131 -0.14025144 0.0666224 -0.037456248 0.035425223
0.04224695 0.10343471 -0.016879825 0.16275941 0.19879827 0.17784593 0.0009963734 -0.10389698
0.09163866 0.27226827 0.16753043 0.11869835 0.007797824 0.12637536 0.113214515 0.2506665
-0.027484497 0.04604777 -0.015322757 0.09548832 0.0019559825 0.04323146 0.18943849 -0.006726604
0.095344834 0.022237148 0.13295381 0.1377029 0.13882142 -0.07076406 -0.0012552862 0.15163045
0.09353864 -0.027554419 0.15589187 0.105499364 0.091625296 0.19224161 -0.14655712 0.0561587
0.2203732 0.15894258 0.028365802 0.047321893 0.025247192 0.036758002 0.040858664 0.045291618
0.104525946 0.13641295 -0.08379131 0.16634618 0.024024364 -0.060775835 0.20538431 0.011894974
-0.036589473 0.080649085 0.09742748 0.15974334 0.05488234 -0.017326307 0.29462388 0.05896748
0.0911533 0.033752415 -0.014103669 0.076636985 -0.12919796 -0.08232812 0.061543528 -0.038543586
-0.066515334 -0.0062809917 -0.06485611 0.015490365 -0.061905224 0.024224881 0.052896194 -0.018821578
-0.067347266 0.09744171 0.002873827 0.01832639 0.059153114 0.093785085 -0.16414548 0.002239602
-0.075083345 0.004253885 -0.034954835 0.010348908 0.072649665 0.059988834 -0.02391288 0.020164827
-0.074884966 0.1254085 0.04047134 -0.017879672 -0.061774593 0.09654663 -0.093781665 0.04958222
-0.084782965 0.07299703 -0.06489332 0.09373264 0.047600843 -0.105790995 0.023137799 -0.03443825
-0.08991813 0.030344835 0.037905786 -0.08672836 -0.033649072 -0.105954766 0.020753842 -0.100531735
0.15346949 -0.09740736 0.0636933 0.20741345 -0.024020037 -0.0047256513 0.005438769 0.047141932
0.10155074 0.072564535 0.10427049 0.12672873 -0.085282214 0.17335255 -0.019097643 -0.038810056
-0.09521636 0.025133887 0.30343896 0.12570114 0.016824868 0.17161421 0.04531483 0.090043165
0.0121761765 -0.049200486 0.025173252 0.027255885 0.12295784 0.069692485 0.026016183 0.13966441
-0.043881975 0.10163392 0.16694869 0.1494491 0.019937227 0.12228918 0.008839656 0.14727148
0.009517165 -0.040672526 -0.011259453 0.1078529 -0.014104955 0.15746526 -0.09979046 0.07376728
0.21092567 -0.06016258 -0.026443843 0.1938434 -0.004241282 0.050854936 0.13959044 0.10183053
0.16502933 0.16105197 0.010316055 0.13808131 0.019782187 0.13059266 0.09017278 0.19573493
0.05838523 0.021000259 -0.0676745 0.022970308 -0.05792275 0.007468876 0.1140788 -0.0044857645

lstm.bias_hh_l0 f4 [256]
00000000: 6e9c 5abd 4a02 433c 16f7 d8bd ef85 e3bd
00000010: ecd3 69bd 8154 94bd 9660 db3c 7e71 ba3c
00000020: 81a9 96bd 0ac2 a2bd cde5 debc 7a71 b53d
00000030: 7da7 033d a221 263e 3e9a 8cbd 4100 bb3d
00000040: a49c 943d 00fb 1a3d b45d 10bc 6087 173d
00000050: 14d7 213b a17e 3b3d 6248 44bd 5429 fa3d
00000060: 972f 01bd 696e 623d a9e4 973b e2e7 903d
00000070: e976 2fbe 7db4 213d 7dc9 a33d 7962 563c
00000080: 595c 8cbd 72a2 86bd ac54 373d c30b 17bd
00000090: 5975 75bc d0c0 b13d 7b30 143d 6a33 c1bc
000000a0: 04b7 a33d 8596 ccbd 12a9 463d 97ed 163e
000000b0: 713d 993d 83f4 8fbc 080a e4bb ab9e 383d
000000c0: 87c0 47bc a8c9 b1bd 3258 103d 0cea 103e
000000d0: 0307 e13d fc9d 0fbd 41a8 18bd 8e66 763d
000000e0: 3305 013e d65e f8bc 5058 f33c b21a 72bd
000000f0: cea3 5a3d d60f a13d b4c1 0b3e fc20 753c
00000100: c89d d73d 7361 183e b387 093e 4906 0b3e
00000110: 1425 263e 059c 3e3e b4fb 583e 7c65 903d
00000120: e013 85bd d5dd 8c3e 208d 4a3e 76cb 3d3d
00000130: c342 5d3d bda8 a93d b43b 1d3e deb9 d83d
00000140: 6c67 9dbc 0249 2f3e 4850 573d c83a c33d
00000150: b5ab 0e3e 8c5e a6bc ee53 113e 1b70 063e
00000160: 3dd1 e03d 05c0 0d3c d7d9 063d 673c 11bd
00000170: 07fc 02bd fbf7 4dbd 3805 1abd 8c0c 563e
00000180: 0eb0 213a 6e1c 013e 474c 393d 57b0 be3d
00000190: 197a 2c3e 2db9 153e 2c5f 043d 1d83 6abd
000001a0: e4f4 c53d c870 bc3d 7fd7 323e d73f d53c
000001b0: 2470 383d a089 863d ddb4 603e 0d58 c03d
000001c0: 9dde 07bd 0d53 3b3e 8038 2f3d fc4b 593e
000001d0: b776 e13d d128 b0bd 7b43 893b 7066 613e
000001e0: 2ac4 67bb 2ca3 85bd dae7 44bc ba7a 183e
000001f0: b22c 2e3e f13e bd3d 056f 923e cf40 21bd
00000200: 77be 1cbb 0f77 a33d bd5e 13bd aca4 87bd
00000210: 40b3 a7bc 4e7f 9e3b 6345 63bd 690f 0c3d
00000220: 0d70 e63d 7225 c43d 0b1f 1f3c 50b7 7b3c
00000230: 2795 b53c 0d75 06be 4ac2 98bd 4269 17bd
00000240: 7253 cabd 53f7 ccbc 37bd d0bd a760 7f3d
00000250: 933d 35be 96e6 c6bd 600c 5c3d 23bf 85ba
00000260: 7999 e3bd cbfa 22bd 900d cb3d d446 c93d
00000270: 7527 f93c 3955 07bd 03bd cb3c 277c f3bd
00000280: 028b 493c d0aa 11bd 37a3 31be 51e5 e9bc
00000290: 9ed1 19bd 770f 5c3d 8e9c 0bbe 77eb 073c
000002a0: 8ca5 073d 81e0 bd3c c6cc 12bd 595c 82bd
000002b0: 97e3 1bbd 31f4 1dbe 9ee0 813d 7f4d a7bd
000002c0: fef0 cabd 4c18 aebd 5332 3cbd a0c9 743c
000002d0: ddb3 123e 6118 0fbe 8bca 873d 5853 febd
000002e0: aa2f a2bc bf54 d4bd f64c 59bb a384 f03c
000002f0: 3cdc da3d 9053 23bd 156a ac3d a108 0cbd
00000300: 5743 973b 5e34 c2bc 01fd ed3d 7d25 873d
00000310: b127 c5bd 3825 3a3d 88f4 f43d 98b4 c23c
00000320: 706f b13d 410f a3bc 657c 003e 6be8 183d
00000330: da4d b0bd 2143 f7bc 8787 2e3e d19f abbd
00000340: 35b0 1fbc 3b12 bd3d 4738 3b3e 8c09 99bd
00000350: 99e3 47b9 7720 4d3e d9c0 3f3c 2367 3d3e
00000360: cbe1 b8bc c7af 103e f9ac e73d c826 9bbc
00000370: 3d88 003e f57b 1abd 29a8 073c 442c 893d
00000380: f24e 963d e2ae 30bd 60b1 4bbd 095f d7ba
00000390: d58f e0bc b0a8 8dbd 824e 7e3d c8b6 b63d
000003a0: bcdd 073e 6b1c 443d 23d1 8bbc 2649 573e
000003b0: 329c 67bd 6a1f cc3d d950 2c3e da05 8b3d
000003c0: 1db8 163e 99e9 033e 8f20 be3d 0862 063e
000003d0: c1e2 b43c 8202 e93d 800e b0bc c991 193d
000003e0: 9d47 9fbd 344d 9abd c3b3 cd3d b458 24bd
000003f0: 6343 c9bd 27ed d43d e568 0e3e e7cb c8bd
-0.05337184 0.011902401 -0.10594003 -0.1110953 -0.05708687 -0.0724268 0.026779454 0.022759195
-0.07356549 -0.07947166 -0.027209187 0.088595346 0.03214215 0.16223767 -0.06865357 0.09130908
0.07256439 0.03783703 -0.008811403 0.036994338 0.0024694847 0.04577506 -0.047920592 0.12214914
-0.031539526 0.055281077 0.0046354127 0.07075478 -0.17135204 0.039478768 0.07997415 0.013085001
-0.068535514 -0.06573953 0.044758484 -0.03687645 -0.014981591 0.08679354 0.036179047 -0.023584086
0.07993892 -0.09989647 0.04850108 0.14739071 0.07482422 -0.017572647 -0.0069592036 0.045073193
-0.012191898 -0.08681041 0.03524036 0.14151782 0.109876655 -0.035062775 -0.037269834 0.060156398
0.1259964 -0.030318659 0.029705197 -0.05910749 0.053378873 0.078643486 0.1364811 0.014961477
0.10528141 0.14880924 0.13430671 0.13576616 0.16225082 0.18614204 0.21189767 0.070506066
-0.064979315 0.27512994 0.19780397 0.046336614 0.054018747 0.082841374 0.15354806 0.10582326
-0.019214354 0.17117694 0.052566797 0.09532696 0.13932689 -0.020308755 0.14192173 0.13128702
0.10977409 0.008651738 0.032922592 -0.035457995 -0.031978633 -0.05028532 -0.037602633 0.20903224
0.0006167897 0.12608501 0.04523876 0.09310978 0.16843452 0.1462142 0.032317325 -0.057253946
0.0966585 0.09201199 0.17465018 0.026031418 0.04502882 0.06569219 0.21943994 0.09391794
-0.033171285 0.182934 0.042778492 0.21220392 0.11008971 -0.08601535 0.0041889525 0.22011733
-0.0035364726 -0.06525263 -0.012018168 0.14890566 0.17009237 0.09240521 0.28600326 -0.039368447
-0.0023917237 0.07981693 -0.03597902 -0.066232055 -0.020471215 0.0048369532 -0.055486094 0.034194384
0.11251841 0.095774546 0.009711991 0.015363529 0.022165848 -0.13130589 -0.07458933 -0.036965616
-0.09879197 -0.025020277 -0.1019234 0.062348034 -0.1769927 -0.097119495 0.05372274 -0.0010204058
-0.11113257 -0.039789956 0.09914696 0.098279625 0.030414322 -0.03304026 0.024870401 -0.118889146
0.012301208 -0.03556329 -0.17347418 -0.02855173 -0.037553422 0.053725686 -0.1363394 0.008295885
0.033116862 0.02317834 -0.03583982 -0.0636527 -0.038058843 -0.15425183 0.063416705 -0.08169078
-0.09909247 -0.08500728 -0.04594643 0.014940649 0.14326425 -0.13974144 0.06630429 -0.1241824
-0.019798119 -0.103677265 -0.0033157445 0.029360121 0.106865376 -0.039874613 0.08418671 -0.034187917
0.004616182 -0.023706611 0.11620522 0.06598947 -0.09626711 0.04544565 0.11960703 0.023767754
0.08663833 -0.019904735 0.12547453 0.037331026 -0.08608599 -0.030183377 0.17043887 -0.08380092
-0.009746601 0.09231993 0.18283187 -0.07472524 -0.00019062906 0.20031916 0.011703693 0.18496375
-0.022568604 0.14129554 0.11312289 -0.01893939 0.12551971 -0.03771587 0.008279839 0.06697896
0.073392764 -0.04313553 -0.049729705 -0.0016431521 -0.027412334 -0.0691694 0.06208659 0.089215815
0.13268179 0.047878664 -0.017067498 0.21023998 -0.056545444 0.09966929 0.16827716 0.067882255
0.14718671 0.12882079 0.09283554 0.13123333 0.022080781 0.113774315 -0.02149129 0.037492547
-0.07777331 -0.075342566 0.100440525 -0.040123656 -0.09827306 0.10396796 0.13907202 -0.09804516

lstm.weight_ih_l1 f4 [256, 64]
00000000: a0e5 233e 5825 2a3d 4208 813c af5b 353d
00000010: 0fda 163e 7c49 923c 6a35 d0bc 92fb afbc
00000020: 3215 d7ba 8ec1 91be 8c50 03be 69ef 71bd
00000030: 7347 7bbd a2f5 393c 0651 f83d 1ef9 ec3d
00000040: fa80 b6bd 883e fa3c 5d92 fcbd 46a0 0a3d
00000050: 84cc 6c3d 9e06 d8ba 57c8 69bd 91fe f6bd
00000060: 7aba e93c a410 b83c b885 83bd 23ab 50bd
00000070: 928f 4cbd 4e71 eebc 1b6c 683e 82fe 2f3d
00000080: 3006 733d 9486 5c3e 27b4 0a3e f2e4 fbbd
00000090: 4a08 60bb c7b9 7bbc bf69 3f3e 8162 033d
000000a0: 73c6 96bd e415 15be de5a 313d ef5e dbbd
000000b0: 344b 12bb 8579 8d3d 25b7 b6bd b11b 683c
000000c0: 932c 0bbe 6ed6 dbbc b2bc acbd 6afb 10bb
000000d0: d795 013d 9da0 023e 9c75 ab3c 9df6 f13d
000000e0: 61ac 0a3e 0259 8fbd dd06 8dbd 2cab a03d
000000f0: 0b57 5a3d ca21 473e f5b6 91bc a568 ccbd
00000100: 9679 1e3e fd10 22bc ef18 afbb 914e 7cbd
00000110: 814a 25bd a10f b73d a574 103d 07b0 0cbd
00000120: 5a9f 063d 3fa1 093d 3c3e 713e 3fc4 cabd
00000130: dbe9 433e 3c91 d43d 42a5 2e3d 9fb0 733e
00000140: 999f a5bd dd30 38be 1a77 bbbd de77 46bd
00000150: bc04 04be 2d30 66bd 7c5f 543e 5ec0 acbd
00000160: 7fb5 d33d 78db dfbd 8ed1 6abe d7d3 18be
00000170: 4935 94be 991e 1a3e 2777 27bd 0dc4 4fbd
00000180: b165 3ebe e0cd 3e3d 7b65 c83d 2d39 d73d
00000190: f9ce 33be 4d41 07be 6f8f 983d 4522 2bbd
000001a0: 4b8e 993e 4a31 373c ba0f 0a3e 66b9 9d3b
000001b0: fe17 69bc 3133 893d cb8c 99bd 1936 133e
000001c0: 8c7a 663d dfe7 ef3d de6a 863d 8e1e a13d
000001d0: 60ec 183e 37b4 003e 0b4b 253c 40d2 c03a
000001e0: 0b39 20be a589 a2ba 2b37 22be 750c 14bd
000001f0: 9ac0 713d 5571 1cbe 8573 ce3d dfa8 a8bc
00000200: 19d6 863e 41c0 f9bd 72a2 e43d 3886 183d
00000210: 30dc 603d 5666 c83e 1c41 9a3d e60b 2e3d
00000220: ed82 3abe eadf 8d3d 3290 993e 9a03 5abd
00000230: 8fca a53e 8b93 2e3d 2c93 b0bd 9fe8 003e
00000240: 1b49 c2bd 8d57 f53c 79b9 f3bd d1df 6ebe
00000250: a555 15be f852 8ebe 8dde 31be 40f4 f63c
00000260: 3504 e73d c5c0 efbd 3986 d5bd 8b5c 6bbe
00000270: 0485 47be 2f58 463d 11d5 3cbe 567a 18be
00000280: e005 3dbe d766 17be 7dbe 813c 7c70 7f3e
00000290: e455 a2bd 789e 1a3d 950d f2bd aca5 0c3e
000002a0: fe96 633e 8077 ec3c fcbf e53d ac1e 443e
000002b0: e553 003e a487 983d 3f62 41bd 5f12 513e
000002c0: e347 74bc 8f43 b1bd a192 523d 0b40 f9bd
000002d0: eb63 b13d 9514 313c d313 a13e 1143 4f3e
000002e0: 6bc1 69bc eed6 ea3b 9504 d73d 1f5f 35be
000002f0: 2dc9 803d 8b2f 0b3e 13f7 553e c797 723b
00000300: 5aac 1ebd 07b3 a13c 300d ffbc 0cc0 3cbe
00000310: 9c96 073e 23b6 d73d cc04 3abe 3d40 e2bc
00000320: bca6 9abd b654 febc 9a00 5f3c f70d 993c
00000330: e980 9b3d dc4b 1ebe 8fa0 7a3a 9b25 1f3e
00000340: 5833 0f3e ca12 243d 00fc e03c ef71 07be
00000350: 33bf 7c3d 46e4 4e3d a81f cb3d 9961 793d
00000360: 025c 003e ca4d 1dbd a20a e8bd 8444 a13d
00000370: 8a5d 193d d9c3 47bd aea6 2bbd b392 c8bd
00000380: e5eb bebd 3a3b c0bc adb8 8c3c 5675 cf3d
00000390: 908b 223c 5c76 47bd c241 b4bc 61cf ec3d
000003a0: 8de4 d7bd 930a 7dbd b24e ccbd 517d 193e
000003b0: afdf 12be 8d65 ba3c d9b4 c53c 0e90 5abe
000003c0: 8987 62bd c93b a2bd 8740 24bd fd37 a6bd
000003d0: e328 f13c 1903 213e 41b9 cbbd ff38 ecbd
000003e0: 07cc 083e 0531 93bd 77e4 5fbd 69bb 55bd
000003f0: e724 a1bd cf2e c8bd 3612 10bd 7832 81bd
0.16005564 0.04153952 0.015751008 0.04427689 0.1473162 0.017857306 -0.025416095 -0.021482263
-0.0016409515 -0.28467983 -0.12823695 -0.05906621 -0.061347436 0.011350067 0.12124829 0.11570953
-0.08911319 0.030547395 -0.12332604 0.033844255 0.05781223 -0.0016481464 -0.057075825 -0.120602734
0.028531302 0.022468872 -0.06421989 -0.05094446 -0.049941607 -0.029106762 0.22697489 0.042967327
0.059332073 0.21535712 0.13545285 -0.12299527 -0.0034184628 -0.015364117 0.18692683 0.032076363
-0.0736207 -0.14559132 0.04329955 -0.107114665 -0.0022322657 0.06907944 -0.08921651 0.014166758
-0.13591222 -0.026835646 -0.08434428 -0.002212251 0.03163704 0.12756582 0.020930104 0.11814616
0.1354232 -0.06999399 -0.06886075 0.078451484 0.053305667 0.19446483 -0.017787436 -0.09980897
0.15476069 -0.009891746 -0.0053435485 -0.061598364 -0.040354256 0.08938528 0.03526749 -0.03434756
0.032866813 0.033601042 0.23558897 -0.09900712 0.19132178 0.10379264 0.04263807 0.23797844
-0.080870815 -0.1798739 -0.09153576 -0.048454158 -0.12892431 -0.056198288 0.2073955 -0.08435129
0.10337352 -0.10930532 -0.22931501 -0.1492456 -0.28946903 0.15050735 -0.040885117 -0.050724078
-0.1859348 0.046583056 0.09784981 0.10508952 -0.17559423 -0.13208504 0.07449233 -0.04178073
0.29991373 0.011181185 0.13482562 0.004813361 -0.014226912 0.06699217 -0.07497557 0.14376105
0.056269214 0.11714148 0.06563352 0.07867156 0.1493392 0.12568747 0.010088692 0.0014711097
-0.1564676 -0.001240064 -0.15841357 -0.036144692 0.05902157 -0.15277608 0.10080627 -0.020588337
0.2633522 -0.12194873 0.111637965 0.037237376 0.054897487 0.39140576 0.0753195 0.042491816
-0.18214007 0.06927474 0.29992825 -0.05322609 0.32381102 0.042621177 -0.08621821 0.12588738
-0.094866 0.029948974 -0.119006105 -0.23327567 -0.14583452 -0.27797675 -0.17370053 0.030145764
0.11280099 -0.1170669 -0.104259916 -0.22984521 -0.19484335 0.048423942 -0.18440653 -0.14890417
-0.18459272 -0.14785324 0.015837902 0.24945253 -0.079265386 0.037748784 -0.11818997 0.13735074
0.22225568 0.028865576 0.11218259 0.19152325 0.12532003 0.074477464 -0.047212835 0.20417164
-0.014909717 -0.08655464 0.051409367 -0.12170418 0.08661636 0.01080813 0.31460437 0.20240428
-0.014267306 0.007166735 0.10498921 -0.17712067 0.06288371 0.13592355 0.20895033 0.0037016736
-0.038738586 0.019738687 -0.031134218 -0.18432635 0.13241047 0.10532787 -0.18165892 -0.027618522
-0.07551333 -0.031046253 0.013610983 0.018683417 0.07592947 -0.15458626 0.0009560668 0.15541689
0.1398443 0.04005698 0.027463913 -0.13227056 0.06170578 0.050510667 0.09918147 0.060884092
0.12535098 -0.038404264 -0.11330153 0.078743964 0.03744272 -0.04877076 -0.041907005 -0.09793606
-0.09322337 -0.023465741 0.017177904 0.10129802 0.00992097 -0.04869686 -0.022004012 0.11562992
-0.105416395 -0.061777662 -0.099759474 0.1498921 -0.14343141 0.022753501 0.024134086 -0.21344015
-0.055305038 -0.07921559 -0.0401006 -0.08116148 0.029438442 0.15723838 -0.09947444 -0.11534309
0.1335908 -0.07187084 -0.05466124 -0.05218068 -0.07868367 -0.09774553 -0.035173617 -0.06308454

lstm.weight_hh_l1 f4 [256, 64]
00000000: cff7 a6bd d82c 223d 9024 223b 3ad1 75bd
00000010: 3272 06bd a3d2 8f3d c3d7 893d cff1 a0bc
00000020: e8b2 22bd 2f00 dc3d f77b e2bc 5358 ff3b
00000030: 0ff9 7b3d a4d2 20bd 5896 8bbd 0865 efbd
00000040: 3397 57bd fca9 4d3e 4e04 a23c 2563 4c3d
00000050: 5f78 e8bd 7577 d3bd bb0e f63d 4640 5fbd
00000060: ef34 0d3d 1879 413c e68e 993c 170f 863d
00000070: 2b31 a739 8daf d53c f1ba 35bd 6a71 bf3d
00000080: af09 1a3d f2ad 51bd afbf f2bd 6e28 6b3d
00000090: 0a8c 89bc 1345 133e 8ff4 dabd 7c01 d4bd
000000a0: 9402 74bd 82d0 33bd fbd1 d53d b0ad db3c
000000b0: 6e64 1a3d 7b6e 7abd bc1a d13c f932 62bd
000000c0: 3ebc 533d 7cff 21bc 3ae5 18bd 7173 9fbd
000000d0: 72a7 d03d 86d1 0f3e 164f 1fbe b552 d6bd
000000e0: 4fd8 80bd a47e 63bd 1a6f c3bd bfff 9ebc
000000f0: 0aa8 09be 79ce 4f3d 0b2b 91bd 9246 adbd
00000100: bbfd e6bd 231f 78bd 7e82 a53d 4fa5 423e
00000110: 58b7 193e 8c62 d43c 878d b53d e0cb c23d
00000120: 74ec c1bc 3ae9 453d 6fe7 61bd 71ed 953e
00000130: b1bb 40be 037f b23d 0240 d33d 61ec 85bd
00000140: 3dc5 bfbd 1262 6c3e 5631 aa3d f24c 4a3e
00000150: 4cc4 343e 5927 e4bd f96a 47be a04d 01bd
00000160: 0c9f 58bd 5818 3e3e 62b1 2c3e c2cb b53d
00000170: edde 25bc 4141 2cbe 2e78 1b3e 389a 87bc
00000180: 2a25 98bd f315 c73c 8d84 efbc 4ef0 adbd
00000190: 6d3e cabd 0984 42bd 6226 213e 3ffb 7e3d
000001a0: 8491 7abc e984 31be cc0b 363e 0c98 453e
000001b0: 7d84 dfbd 3050 d9bc 4be1 053e 7c00 433d
000001c0: 187b 19be edcc 3cbe 18cc 54bd 6e67 cf3d
000001d0: 7599 163e 2112 28be d54d aabc 2516 b73d
000001e0: b9c9 52bd 7b4d ecbd f05e 7f3d 1a5c ee3d
000001f0: feae 2f3d 1034 c73d a808 263e b869 533e
00000200: 2e7d 2fbd 12c6 413d 86b2 cf3c df86 683e
00000210: e7db e43e 900d ad3d ab6f 253e 6fc5 893d
00000220: b8d9 483e b5b6 373e d077 10be 382f 843e
00000230: 0f18 16be 8148 dd3d 381b 993d 1bc1 3dbd
00000240: 3427 75be 3a7a d33d 5e13 16be e0e8 043e
00000250: 4fc2 053e 6dd8 dbbd e29f a1bd 0fc4 52be
00000260: cfa8 b83d 1edb af3d ecb9 79bb f4d8 4b3d
00000270: 1a83 e23d b447 33be ce66 e93d 11d1 173d
00000280: 0dff 43be a868 9d3d e2bf 80bd 5f57 80bd
00000290: 0166 73bd 675c d4bc b1d8 353e ba8d c53d
000002a0: 5687 23bc 46ae 6fbd 0687 203e 7b24 c13c
000002b0: 0cda 223c afe4 3dbd b04d 8c3d 5689 6e3e
000002c0: 0374 21be 1b2d 7ebe e1c4 0ebe 2cb5 1b3e
000002d0: 55b4 973d 76a7 8dbd 6bf3 af3d 6937 e23d
000002e0: befb 8f3d e120 0dbd 6f9e 5c3e 1979 ca3d
000002f0: 9205 ae3e 19d6 d13c 8cf7 cd3d 3e93 ce3d
00000300: b83a 093e 691a 3e3e da53 8abd 38c0 1fbe
00000310: f99a 89bd 3279 343d 9aa9 443d dc15 36be
00000320: 2ccf 253d 52e4 90bd e953 0b3e 7d04 bd3d
00000330: 5862 0c3e 5bde b93c b6f2 313d 966e 1d3d
00000340: 0cbf d63c c457 60bd 573e 71bd 6fc1 0cbd
00000350: b346 513d 364a b33d 8e8c 793e 3b41 96bc
00000360: 9b4e 133d 77be 79bb abc8 ca3c 4f0c 2f3d
00000370: f459 e1bd 434b a53d de47 0fbd 1d08 98bd
00000380: 1600 9bbd 5d1c 96bd cc7c 593d 8f49 643c
00000390: 206b 14bd b85e 8c3e 181e 06be 02bb 42bd
000003a0: acbe 5cbd 83b2 88bd 4d28 9e3c b313 29bd
000003b0: 0442 0bbd 60fb 87bd df22 8bbd 070c c2bd
000003c0: 6be0 a83d fb2c 803d 8f3d 6f3d 6230 bfbd
000003d0: 8f0b c03d c801 a23c a18f 643d 4a78 1a3e
000003e0: 7a00 cb3d 7abf ebbc 8957 86bd b33d 0cbd
000003f0: 543c 50be f0b8 533e a9b2 ddbc 514c e43d
-0.081527345 0.039593548 0.0024741031 -0.060013987 -0.03282375 0.07022598 0.067306064 -0.019646553
-0.0397214 0.107422225 -0.027647002 0.0077925115 0.061516818 -0.039263383 -0.06815785 -0.11689192
-0.05263443 0.20084375 0.019777443 0.04989924 -0.11351084 -0.10325519 0.12014528 -0.054504655
0.03447431 0.011808656 0.018744897 0.06545847 0.00031889355 0.026084686 -0.044367734 0.09347804
0.03760689 -0.051191278 -0.11852967 0.057411604 -0.016790409 0.14381818 -0.10691177 -0.103518456
-0.05957277 -0.04390002 0.10440441 0.02681622 0.037693433 -0.06114052 0.025525443 -0.055224393
0.051693194 -0.009887572 -0.037327982 -0.077856906 0.10188188 0.1404477 -0.15557513 -0.10464994
-0.062912576 -0.055540696 -0.09542675 -0.019409059 -0.13443008 0.050734017 -0.07088288 -0.08460726
-0.11278864 -0.06057657 0.0808153 0.19008373 0.15011346 0.025925897 0.08864885 0.09511542
-0.02367232 0.048318125 -0.055152353 0.29282716 -0.18821599 0.08715632 0.10314943 -0.06539226
-0.09363792 0.23084286 0.08310191 0.19755915 0.17653006 -0.111403175 -0.194744 -0.03156817
-0.052886054 0.18563974 0.16864541 0.08876754 -0.01012395 -0.16821767 0.15182564 -0.01655303
-0.074289635 0.024302458 -0.02923801 -0.084931 -0.09875188 -0.0474892 0.15737298 0.062251326
-0.015293483 -0.17335857 0.17777938 0.19296283 -0.10913942 -0.026527494 0.13074224 0.047607884
-0.14988363 -0.18437548 -0.05195245 0.101271495 0.14706977 -0.16413166 -0.020789066 0.089397706
-0.05146191 -0.11538216 0.0623464 0.11638661 0.042891495 0.09726727 0.1621424 0.20645797
-0.04284399 0.047308035 0.025353681 0.22707699 0.44699022 0.084498525 0.16155879 0.067271106
0.19614303 0.17940791 -0.14108205 0.25817275 -0.14657615 0.10804845 0.07475895 -0.046326738
-0.23940736 0.10326047 -0.14655825 0.1297946 0.13062404 -0.10734639 -0.07891823 -0.20582603
0.09016573 0.08586715 -0.0038105203 0.04976745 0.11060162 -0.17507821 0.113965616 0.037064616
-0.19140263 0.07685977 -0.06286599 -0.06266665 -0.05942345 -0.025922967 0.17758442 0.09646173
-0.009980997 -0.05851581 0.15676507 0.023576966 0.009939682 -0.046360668 0.06850755 0.23294577
-0.15766911 -0.24821894 -0.13942291 0.1520583 0.074074425 -0.06916706 0.0859135 0.11045725
0.07030438 -0.034455184 0.21544813 0.09886379 0.33988625 0.025614785 0.100569814 0.10086678
0.13401306 0.18564762 -0.06754275 -0.1560067 -0.06719012 0.044060893 0.048013307 -0.17781776
0.040480778 -0.07074799 0.13606228 0.09229372 0.1370939 0.022689035 0.043444358 0.03843554
0.026214145 -0.0547712 -0.058897343 -0.03436416 0.051092815 0.08754389 0.24370024 -0.018341651
0.035963636 -0.003810791 0.02475389 0.042736348 -0.11003485 0.08070996 -0.034980647 -0.074234225
-0.07568376 -0.073296286 0.05309753 0.013933553 -0.036234975 0.27416015 -0.13097417 -0.047541626
-0.053892776 -0.066746734 0.019306326 -0.041278552 -0.033998504 -0.06639743 -0.067937605 -0.0947495
0.08245929 0.06258579 0.058408316 -0.093354 0.093772046 0.01977624 0.055801038 0.15084949
0.099122 -0.028777827 -0.06559665 -0.03423853 -0.20335513 0.20676017 -0.02706273 0.11147369

lstm.bias_ih_l1 f4 [256]
00000000: d21e 96bd 1c5f c1bd 916e 2dbe ddfe 1dbd
00000010: cdd5 6fbe 13f0 e8bc e81c f1bd 9457 0b3d
00000020: 89bd 66bd fbb4 1cbd 8130 56be 6a87 38be
00000030: 2fda afba 9aea 19bd 67f6 b0bd 25b0 d0bc
00000040: 6ff0 0abc 2fc5 62bd 15df 1dbe 551b 9abd
00000050: 9237 b7bd c7b7 3ebe 8740 3cbe ec71 97bc
00000060: 395c a0bc a0a0 02be 0137 863c c207 39bd
00000070: 330f 02be aabc eebd 34a8 043d 12a6 94bb
00000080: 9aeb 12bb 3032 8fbe da77 023d e55d aabd
00000090: 0987 49be 1530 96bd 9e84 b7bd 3c57 f93c
000000a0: 7cca 183d d100 c5bd 3997 c2bd 3dd8 6ebd
000000b0: 616f 00be b025 1abe 7d1d 8abe ad1f d63c
000000c0: 484e 663d 607f b23d 2f10 bc3d cb93 c2bd
000000d0: b48a 7bbd 6324 363c fc1e 8dbd 95a7 02be
000000e0: e8a8 c1bd d0b7 12be b976 63be 6158 753d
000000f0: c732 75bc 01cd 54be c2b6 063d 0aab 51be
00000100: 34cf e83d 5cbb 1c3d d1b6 f53d 3ef7 b63d
00000110: a53f 923d b879 ad3d f2ba 5dbc 2838 033e
00000120: 2f36 1f3e 1695 f53d 99b3 933e 6a5d 283b
00000130: 64f0 d23d 4e0b f03c c043 3c3e c7be 1d3e
00000140: 1831 4a3e fdbf 7c3d 5539 943d 6277 48bd
00000150: 5b60 babb a9d0 07be c43b 8c3e 8999 043e
00000160: 9dba 673b f98d 4b3d be16 37bd f12e 46bd
00000170: 0fac c63c 713e 283e 5e3b 8bbc 2ac3 1d3e
00000180: 9e7f 7bbd 91e4 923d 6c17 d43d da46 013e
00000190: ddc8 f43d 43ab 9e3d 5917 f43d 2ab1 e13d
000001a0: 0cf5 fe3d 7ed8 493d 57e9 263e 2651 1a3e
000001b0: 6bb4 78bd 1ff0 81bd f163 e83d ecd4 4c3e
000001c0: e87a 233e 1163 c43c e530 fdbb d9de fd3d
000001d0: 710e 213d f1db e53d 753d a4bb 4254 a33e
000001e0: c958 983d 7801 b43d 4deb c63c e19c 943d
000001f0: 440e 633e 4f76 af3d 7e14 cb3d 7c18 523e
00000200: 834c a7bd 7947 abbc e81e c6bd d111 6bbd
00000210: 1b23 22bd 02df a5bd 54af 2a3d 35fc 7cbd
00000220: 5719 87bd 66d0 e2bc 3d42 82bd 2a28 efbd
00000230: 409f f6bc ee8f 88bd e4d3 f93c 185f 0a3d
00000240: 56cc 9e3d ace6 823d 77c5 9fbb d63a 423d
00000250: 2d0e c5bd cf65 03bd dab6 ddbc 08af 2f3d
00000260: 0723 453c 47c6 f2bd 5f97 48bd 54db c4bd
00000270: d92b e8bd 2aa5 67bd 1135 2fbe d162 2cbe
00000280: e180 923d cdb9 05be 80ca 043e 9258 68bd
00000290: 077e 88bd 0a51 81bc 713a 9fbd e5ba 883c
000002a0: d1bc bebd 16ea 4f3d 0064 133d 3266 cc3d
000002b0: c52f 95bc 96ee 583d e4ad 53bc 7d55 353b
000002c0: 1974 e03c ec7a 8dbc d165 98bd bedb 8dbd
000002d0: 5ca9 e7bd 9f23 8abd f4fe 24bd a8e5 8f3d
000002e0: dfad c1bd cf4a 943d 0df5 cdbd 1dad d5bd
000002f0: 02a3 98bd ef63 473d 044d 9c3c a701 99bc
00000300: 20cc d0bc 158e 8a3d 7246 7bbe dafc bd3d
00000310: a1e1 853d c578 6f3d 26d9 e3bc bbe4 003d
00000320: cb63 643c 99f0 d23c 2478 033e 2c4e 6fbc
00000330: 2368 183e 8311 aabc 4524 203d 7ba5 e9bd
00000340: 32f7 183d 99e5 4e3d 866c 713c 8df5 babd
00000350: dea3 77bd f587 ecbd 99b3 8b3d aabc cdbd
00000360: 3672 18be 77ea e8bc 0566 9cbd a28a 4cbc
00000370: 8116 753d f1a9 e83d 1426 ea3d f56e 62bd
00000380: 26cc 363b af5c 823d 9223 373d c167 6bbd
00000390: 19c8 f5bd 509a aebc a45a a53d 360d 02be
000003a0: b5f3 96bb d028 bc3d 7ad5 623d c84c 5ebd
000003b0: 6ede d6bd 921c 0dbc 65a9 3b3c 6edc 91bd
000003c0: 254a 013d f949 153e 3f8b c83d b08a b43d
000003d0: f65c 1ebd 6545 b53d 1381 17ba 326c f4bd
000003e0: c83e 0ebc bc80 67bd 7e4b 06be f381 c33c
000003f0: fe12 dc3d 195a 87bd 1ba0 153d ead7 3ebd
-0.07330097 -0.09441969 -0.16936709 -0.038573135 -0.23421402 -0.028434789 -0.117730916 0.034019068
-0.0563331 -0.038258534 -0.2091694 -0.18020406 -0.0013416464 -0.03757725 -0.086407475 -0.025474617
-0.008480175 -0.05536383 -0.1541713 -0.075247444 -0.08946146 -0.18624793 -0.1838399 -0.01848694
-0.019575225 -0.12756586 0.01638365 -0.045173414 -0.1270111 -0.116570786 0.032386974 -0.0045363987
-0.0022418262 -0.27967978 0.03185258 -0.0831869 -0.19680418 -0.0733339 -0.089608416 0.030437104
0.03730248 -0.09619296 -0.095015 -0.05831169 -0.12542488 -0.15053439 -0.26975623 0.026138151
0.056227 0.08715701 0.09182774 -0.095008455 -0.061411574 0.011117074 -0.068906754 -0.1275924
-0.094560444 -0.14327931 -0.22213258 0.059898738 -0.01496572 -0.20781328 0.032889135 -0.20475402
0.11367646 0.038264617 0.1199776 0.089338765 0.071410455 0.08470482 -0.013533341 0.1281439
0.15548013 0.119913265 0.2884796 0.0025690445 0.10299757 0.029302265 0.1838522 0.15404807
0.1974529 0.06170653 0.07237498 -0.048941977 -0.005687756 -0.13263191 0.27389348 0.12949194
0.0035359033 0.049695943 -0.044699423 -0.04838461 0.024251966 0.1643007 -0.016996082 0.1540648
-0.061401002 0.07172502 0.1035603 0.12624684 0.11952374 0.07747509 0.11918516 0.110201195
0.12449083 0.04927873 0.1629995 0.15070018 -0.060718935 -0.063446276 0.11347187 0.20003098
0.15964854 0.02397302 -0.007726776 0.123960204 0.039320413 0.11223591 -0.005012209 0.3190022
0.074388094 0.08789343 0.024282122 0.07256485 0.2217341 0.085674874 0.09916018 0.20517153
-0.0816889 -0.020908104 -0.09673864 -0.057390038 -0.03958426 -0.08099176 0.041671112 -0.06176396
-0.0659663 -0.027687263 -0.0636029 -0.116775826 -0.030105233 -0.066680774 0.030496545 0.033782095
0.07753818 0.063916534 -0.0048758346 0.04741939 -0.096218444 -0.032079514 -0.02706473 0.042891532
0.012032277 -0.11854225 -0.048972484 -0.09612146 -0.11336488 -0.056553997 -0.17110087 -0.1683457
0.07153488 -0.13059159 0.12967873 -0.056725092 -0.06664663 -0.015785713 -0.07774819 0.01669068
-0.093133576 0.05076035 0.03598404 0.0998043 -0.018211255 0.05296191 -0.012919877 0.0027669363
0.02739911 -0.017270528 -0.07441295 -0.06926678 -0.113115996 -0.067450754 -0.040282205 0.07026225
-0.094569914 0.07240831 -0.10056505 -0.10433409 -0.07452966 0.04867929 0.019079693 -0.018677546
-0.02548796 0.06765381 -0.24538592 0.09276743 0.06537176 0.058464784 -0.027813505 0.031468134
0.013939808 0.025749492 0.12838799 -0.01460604 0.14883475 -0.020760303 0.03909709 -0.11408516
0.03734512 0.05051193 0.014735347 -0.09128866 -0.06045901 -0.11549369 0.06821365 -0.100457504
-0.14887318 -0.028432114 -0.07636646 -0.0124842245 0.059835915 0.11360539 0.11433044 -0.055281598
0.0027892678 0.06365334 0.044711657 -0.057471994 -0.12001056 -0.021313816 0.08073929 -0.12700352
-0.004606689 0.09187472 0.05537937 -0.054272443 -0.10491644 -0.008612769 0.011453961 -0.07122122
0.03156485 0.14579 0.09792184 0.08815515 -0.038662873 0.088511266 -0.00057794264 -0.11934699
-0.00868196 -0.056519255 -0.13114735 0.023865676 0.1074581 -0.06608982 0.03652964 -0.04659263

lstm.bias_hh_l1 f4 [256]
00000000: d278 7cbd 14ca d6bd 8c96 32be 5921 403d
00000010: a543 28be 3883 d6bd e47d e5bc 31c1 84bd
00000020: 7d8e bcbd 392f 01bd 545a 09be c736 cdbc
00000030: 431c 943d 962f 9bbd 343d 39be e911 453d
00000040: 51b3 a2bd d6e8 dcbd e377 a3bd d69f 46be
00000050: c21e bebd 912c 82bd 87e2 96bd 06ff ccbc
00000060: 73e7 42be 24c0 653c e56c f9bd e9a2 03be
00000070: 9027 4bbd f75a 8e3d 3629 743c 007f 903d
00000080: 1bfd 2fbd 3e23 71be 9767 2cbd dc1c a23c
00000090: 1b5d 99bc 060d 95bb 4a3c ac3d 698f e0bd
000000a0: 913d 5d3c 92e5 ed3b 0af0 d1bd f7c6 c8bc
000000b0: aef2 8f3d aec0 19bd d19e b4be 4929 cfbd
000000c0: ebdd 51bc 4e1a b5bd e7fe 0c3d 3600 cb3d
000000d0: 40fc 013e 6317 8abd 2f79 a7bd dba1 86be
000000e0: dc65 f5bd 5a8c c6bc 1b69 7ebe e96b f4bd
000000f0: bc24 0bbd cf0d 7dbe 1515 163c 4506 44be
00000100: cd69 b9bd c7f0 a03d 2bad ef3d d9a3 8d3d
00000110: f501 393e a050 b63d 72e5 15bd 6726 8f3d
00000120: 6174 143e f893 803d 8755 8b3e 080a 463d
00000130: e5b2 0a3e 2f49 f73d dce5 3b3e 3f57 8b3d
00000140: 8f46 413e ac9a 233e ec54 58bc fb9b 043d
00000150: 1404 963d 2f7a d13c fc57 853e 731a c83c
00000160: 0351 073e a732 b23d 4216 36bd 8abf 9d3d
00000170: 0a40 b7bd d07f 083d 5e86 37bc 27c3 2cbd
00000180: cc42 6f3d a747 443e 69f2 9e3d 1880 183e
00000190: a675 303e 43ac 83bb 734e 093e 26ac fc3c
000001a0: 57a5 38bd ccb1 9abd 34ae 863d a60c e03c
000001b0: d056 6fbd 3492 193d 52bb bc3d c398 e73d
000001c0: 5fe2 c63d 9bc1 e4ba 9438 1c3d de78 143c
000001d0: 7268 183c 5a60 483d 60d3 1cbc 2252 b93e
000001e0: f416 1fbd 741c 83bd 90d3 943d d1e6 cc3d
000001f0: 2c08 223e 70d8 4b3e a2cb 193e ab5f ee3c
00000200: e0e2 013e eeda f83c b2cd f23c 4b15 15be
00000210: 0c9f 8cbd 0e80 c3bd 92a6 65bc 71ed 90bb
00000220: eacf c4bd e08a e2bc 8630 4bbd bb2a b2bd
00000230: 643b 6c3d 01c2 243c 837e 62bd a306 72bd
00000240: 2d4e 133d c4e2 87bd cd5c 603b ba6b 76bd
00000250: 4ba6 813d 5f68 50bc 2489 f93b b147 1d3e
00000260: fec1 65bd 2040 2e3d f5f6 773d ee3c a03d
00000270: 40ff 05bd 00b9 b93d 2504 273d 39ed 0e3d
00000280: 4e39 a03d 9afa d7bc 36c7 043d 8115 a73d
00000290: 3a0b e23c f829 c83d 2dfc bebc 940d d4bd
000002a0: 4468 4d3c 5d84 323d 6bf6 4a3d f3f0 e8bc
000002b0: b9aa ca3c a490 2cbd aee0 093d 01a7 99bd
000002c0: cc87 91bb 738f c53d 164b e43d 7c9b b33b
000002d0: 33e5 a1bd 4724 aa3d 9d18 a23c 0008 c9bd
000002e0: 3230 913d 5225 e03d 4703 8dbc d0f2 103c
000002f0: 58fe 1fbd 2d32 08be 20c2 59bd 99d7 c93b
00000300: fc2b c5bd 0c44 213d ac0f ccbd 6acf 553c
00000310: d15b c73c 1a4a a1bd 0110 a2bc 06d7 abbd
00000320: 4eb4 f03d d491 c8bd 2f9d f93c e9e6 10be
00000330: 1e87 743d b90d f43d 0b4f d83d 7b4d 32bd
00000340: af8d 4fbd ad34 023e b969 0abd b203 2cbd
00000350: 91b9 b8bd 4647 40bd a9af e53d b83b c9bd
00000360: 956a d8bd dbb9 983d 1f99 d8bd fd85 333d
00000370: fb66 983d a6a0 bb3d 7a79 6ebd 8b61 a33d
00000380: 7aa4 64bd 4775 463d dc23 9dbd 875f bfbd
00000390: 3baf 12be 228f cdbd b1a8 89bc 23b3 543d
000003a0: 7dd7 99bc 12e5 ca3c 12c4 6b3d a1c9 6bbd
000003b0: 1348 89bd 602e 32bc f6da c3bd 1934 0a3e
000003c0: 38d2 05bc cfb6 1dbd c45e 963c 3f36 823d
000003d0: 3dd0 4e3c bb11 98bd 1900 06be 0b4c c2bd
000003e0: 0554 96bd be40 a53c 8e60 b6bd 2a5b dcbd
000003f0: 6f5e ac3d f329 7f3d 038d f3bd c34d 363d
-0.06163866 -0.10487762 -0.17440242 0.046906803 -0.16432054 -0.10474247 -0.02801413 -0.06482161
-0.09206865 -0.031539176 -0.13413364 -0.025050534 0.07231953 -0.07577436 -0.18089753 0.048112784
-0.07944358 -0.107865974 -0.07981851 -0.1939691 -0.0928321 -0.063561566 -0.073674254 -0.025023948
-0.19033603 0.014022861 -0.12178973 -0.12855114 -0.049598277 0.06950944 0.014902404 0.07055473
-0.04296599 -0.235486 -0.04209098 0.019789152 -0.018721154 -0.0045486717 0.08409937 -0.10964853
0.013503448 0.007260033 -0.10250862 -0.024508936 0.07028709 -0.03753727 -0.35277417 -0.101152964
-0.012809257 -0.08842908 0.03442278 0.099121496 0.12693882 -0.06742742 -0.08177411 -0.2629536
-0.11982319 -0.024236847 -0.24844782 -0.11934645 -0.03397058 -0.24712299 0.0091603 -0.19143017
-0.09053383 0.07858425 0.11702951 0.06916017 0.18067153 0.08902097 -0.03659577 0.069897465
0.1449752 0.06278223 0.2721369 0.04834941 0.13544805 0.120745055 0.18349403 0.0680375
0.18874572 0.15976971 -0.013203841 0.032375317 0.073249966 0.025570957 0.2604369 0.024426674
0.13214497 0.087010674 -0.04445482 0.07702549 -0.08947761 0.033325016 -0.011201469 -0.0421783
0.05841331 0.19167958 0.0776108 0.14892614 0.1723238 -0.004018338 0.13408832 0.030843806
-0.045079555 -0.07553443 0.06576195 0.027349781 -0.0584324 0.037492946 0.09215416 0.11308434
0.097111456 -0.0017452718 0.038139895 0.00906202 0.009302245 0.048920013 -0.00957188 0.36195475
-0.03884025 -0.064019114 0.07266915 0.10004962 0.1582343 0.19906783 0.15019086 0.029098352
0.12684202 0.030377831 0.029639099 -0.14558904 -0.06866273 -0.09545909 -0.014016764 -0.0044228365
-0.09609969 -0.027654111 -0.049606822 -0.086995564 0.057673827 0.01005602 -0.055296432 -0.05908836
0.035963226 -0.06635049 0.0034235 -0.06016133 0.06330546 -0.0127201965 0.0076152254 0.1535938
-0.05609321 0.042541623 0.06053825 0.078241214 -0.03271413 0.09068489 0.040775437 0.034894202
0.0782343 -0.026364613 0.032416545 0.081583984 0.027593244 0.0977363 -0.023313606 -0.10354152
0.012537066 0.043583263 0.04955141 -0.028435206 0.02473961 -0.042130128 0.033661537 -0.075025566
-0.004441237 0.096465014 0.11147134 0.0054811817 -0.079050444 0.083077006 0.019787127 -0.09815979
0.07089271 0.10944618 -0.017213477 0.0088469535 -0.03906092 -0.1330039 -0.053163648 0.0061597344
-0.0962753 0.039371535 -0.09963927 0.01304994 0.024335774 -0.07875462 -0.019783022 -0.08390622
0.117531404 -0.097934395 0.030470459 -0.14150585 0.05969917 0.1191668 0.10561951 -0.043530922
-0.05067223 0.12715407 -0.03379223 -0.04199571 -0.09019769 -0.04694297 0.11215145 -0.098258436
-0.10567204 0.07457324 -0.105760805 0.043828953 0.07441517 0.09161501 -0.058221318 0.07977589
-0.05582092 0.04845169 -0.07672855 -0.09344392 -0.14324658 -0.10037066 -0.016804071 0.05192865
-0.01877951 0.024767432 0.057560034 -0.057565335 -0.067032 -0.0108753145 -0.09563248 0.13496436
-0.008167796 -0.038504418 0.018355735 0.06358003 0.01262289 -0.07425257 -0.13085975 -0.0948716
-0.07340244 0.020172473 -0.08905135 -0.10759576 0.08416449 0.062295865 -0.1189213 0.044507753
