LSTM_model/best_model7.pt_epoch3.pt (torch, 703249 bytes, 33 tensors)

lstm.weight_ih_l0 f4 [256, 20]
000000 08 6a 0f 3e ea 56 f2 3d 06 16 2e 3e 17 cb b4 3b
       0.14005291 0.11832984 0.17000589 0.0055173743
000010 59 a6 11 3d 75 0e 9e bc b3 85 fc bd 46 22 84 bd
       0.035559032 -0.019294003 -0.123301886 -0.0645185
000020 91 d2 f1 bd 34 75 3b be 75 ad 7d bd 07 1a 1d bc
       -0.118077405 -0.18306428 -0.061933 -0.009588725
000030 e8 b3 f5 3d 8f e9 b7 bd e7 65 10 3e 1b ef 07 3e
       0.11997205 -0.08980095 0.14101373 0.13274805
000040 ad bd fb 3d ed 6d 37 3e 0d 2b 0b be b0 33 00 38
       0.12292037 0.17913027 -0.13590641 3.0565716e-05
000050 75 0f 86 3e 41 57 fd 3c 95 9f c6 bd 40 e3 9a 3d
       0.26183668 0.030925395 -0.096984066 0.07562876
000060 6a b2 14 bd 2f 67 c4 3c 1b 48 b8 3c d7 20 3e bd
       -0.03630296 0.023974983 0.02249532 -0.046418037
000070 dd 90 7a be be a9 ab bc e5 b3 88 3d d0 fe 27 3e
       -0.24469323 -0.020954963 0.06674937 0.16405797
000080 d1 4d a8 3d c8 7e 15 3e 36 88 60 bd e7 16 64 bd
       0.08217967 0.14599144 -0.0548174 -0.055685904
000090 db a3 a5 3b 23 a0 75 3d 93 7a d1 3c c8 a4 8e 3d
       0.0050549335 0.05996717 0.025571143 0.06965023
0000a0 0c 27 47 3e fd 8b f4 bb f8 27 99 3d 5e d2 c9 bd
       0.19448489 -0.007462977 0.074783266 -0.098545775
0000b0 42 1e ed bd c9 4b 87 bd 68 18 80 3d 8e 76 e3 3d
       -0.11578037 -0.06606252 0.06254655 0.11106597
0000c0 f5 1a b2 3d c4 1f 33 3d e7 97 cf 3d d0 5f ef bc
       0.08696548 0.043731466 0.10136395 -0.029220492
0000d0 24 b1 ca 3d 39 94 6d 3d b8 e2 e9 3d a0 ab ee 3d
       0.09897068 0.058002684 0.11420196 0.116538286
0000e0 39 29 33 bd a7 9f 13 bc e3 0c b1 3d b5 8f ec 3d
       -0.043740485 -0.009010232 0.08645036 0.115508474
0000f0 ef b8 04 3e c8 0e 9c 3c 4b 0b 6b bd eb ca da 3c
       0.12961172 0.019050017 -0.057383817 0.026708087
000100 fa 31 ff bd 38 d8 09 be c6 a6 a4 bd 07 6f c9 3d
       -0.12460704 -0.13461387 -0.08039622 0.0983563
000110 4b 85 c6 bd 30 6f 51 bd bf e8 85 3c bb d1 e1 3c
       -0.09693392 -0.051131427 0.016346334 0.027565828
000120 5e 1e 2e bd 17 cd 90 3d eb 24 32 3e 5d d9 0c 3e
       -0.04250943 0.07070368 0.17396896 0.13754793
000130 cd 09 90 3d 30 a2 cf 3c 18 9f 55 3d 95 d0 14 3d
       0.07033119 0.025345892 0.052153677 0.03633173
000140 cb f0 66 bd bd ab 08 3d 08 09 53 3d 88 77 9a bd
       -0.05638198 0.033366907 0.051522285 -0.0754233
000150 f9 f3 0f bd 5f e9 f0 bd 15 b3 c9 bd a9 71 13 3e
       -0.03514478 -0.11763262 -0.0984861 0.14398827
000160 55 47 6c bd 57 e9 01 bd d4 97 3a 3d 5d 0f 8a 3d
       -0.057685215 -0.03171667 0.04555495 0.067412116
000170 41 87 c0 3d c0 e1 7d 3c 96 44 30 bc d4 d0 e0 3d
       0.09400798 0.0154957175 -0.01075854 0.10977331
000180 7f 2a 01 3e 8b bc 99 3d 45 92 4e bd 75 a7 a2 bd
       0.12613867 0.07506665 -0.050432462 -0.07942096
000190 60 a7 0f bf 17 1d d3 3d f2 c5 90 bd 84 94 37 3d
       -0.5611477 0.10308283 -0.07069005 0.04481937
0001a0 61 c1 fe bd 97 3d 3d be 4e ab c5 3d c9 60 2c bb
       -0.12439228 -0.18480526 0.096518144 -0.0026302806
0001b0 18 f3 5b bd 9a 02 a2 3d 06 bf ee 3d e0 54 a9 3d
       -0.05369863 0.079106525 0.116575286 0.08268142
0001c0 9b 28 cb 3c b6 26 3c bd 71 18 cb 3d bf c7 2b 3e
       0.024799636 -0.045935355 0.09916771 0.16775416
0001d0 8b bd ac 3d 03 30 40 3c f8 3c 5f be 60 da c0 bb
       0.0843459 0.011730197 -0.21800601 -0.0058854073
0001e0 b2 3a e9 bd 81 8b 82 3c 1d c2 5c bc f3 07 08 bd
       -0.11388148 0.015935661 -0.013474015 -0.033210706
0001f0 36 cf 3f 3d 9a e7 45 bd 37 ad 24 3e fa f9 a4 bd
       0.04682847 -0.048316576 0.16081701 -0.08055492
000200 fa 40 05 3d e4 33 21 bd d8 0e 21 3e 74 56 11 3b
       0.03253267 -0.039356127 0.15728319 0.0022176774
000210 94 34 df bc bb 95 8f 3d e4 8d 0b 3e 04 b5 62 3d
       -0.02724675 0.07010981 0.13628346 0.05534841
000220 57 c1 95 3d e4 a1 73 3e 53 15 18 3c 10 99 b3 3d
       0.07312267 0.23792225 0.009282428 0.08769429
000230 8a 02 84 3e 56 b0 aa bd 31 92 49 be a8 8e 35 bc
       0.25783187 -0.08334415 -0.19684674 -0.011081375
000240 6a 1d 8b be 47 c4 73 be 4b 31 c9 bc c3 81 c6 bd
       -0.2717088 -0.23805343 -0.024559638 -0.09692719
000250 16 3e 5f 3d 44 fc d5 bd 16 76 e5 3d 17 ca 0d 3e
       0.05450257 -0.104485065 0.11204164 0.13846622
000260 4e 7b e3 bc 6a c8 b8 3c 84 48 56 bd e3 d7 bf 3d
       -0.027768757 0.022556502 -0.05231525 0.09367349
000270 9d b9 95 3d fc fb db 3d 77 64 46 be 7b 3b c2 bd
       0.073107935 0.107414216 -0.19374262 -0.09484001
000280 15 c2 d9 3b 5d 18 b7 bd d4 82 1a 3e d2 b4 e4 bd
       0.006645451 -0.08940194 0.1508897 -0.11167301
000290 3f 56 11 3d 09 fe d7 3d 72 f3 2c 3b 23 dd 27 3d
       0.03548264 0.105465 0.0026390222 0.040982377
0002a0 33 5b ec bc 7a 95 1d bd dd 29 d3 3c c0 c4 9a 3d
       -0.02885208 -0.03847263 0.025776798 0.07557058
0002b0 b1 34 37 3e be dd b7 bc 66 a3 fc bb 0f 90 f7 3d
       0.17891194 -0.022444602 -0.0077099083 0.12088024
0002c0 7d d3 b4 3d 6a fd 0f 3c 2c f5 10 3e a4 e5 a1 bc
       0.08829401 0.008788446 0.14156026 -0.019762821
0002d0 56 16 bd 3d c7 f1 ba bc d5 00 07 be 34 e0 18 bd
       0.09232776 -0.022820367 -0.13183911 -0.03732319
0002e0 04 8f 40 be 90 87 29 be 85 f4 c7 bc 16 09 ab bd
       -0.18804556 -0.16555619 -0.024408588 -0.083513424
0002f0 91 90 a8 3d f8 88 21 be b7 78 05 3e 55 06 36 3e
       0.08230699 -0.15774906 0.1303433 0.17775853
000300 64 67 bd bd 7e e4 bd 3e 7f 7e 47 3d 89 39 50 3d
       -0.09248236 0.37088388 0.04870462 0.05083612
000310 60 1a 9b bc 40 0a 96 3e 5f f3 bd 3d f5 fe 23 3e
       -0.018933475 0.29304695 0.09274935 0.16015227
000320 29 81 40 be 6f 74 7a 3e ab bc f2 3d f7 a9 81 bc
       -0.1879927 0.24458478 0.11852392 -0.015828116
000330 e9 87 01 3e fd 50 9d 3d c0 27 d6 3c c4 eb 02 bd
       0.12649502 0.07681463 0.026142001 -0.031963125
000340 e6 47 2a be b2 67 47 3d 3d b6 ca 3d 15 62 0b be
       -0.1662899 0.048682876 0.098980404 -0.13611634
000350 cd 07 4d 3e 53 ea b0 bd 74 e1 ad bd 0b 60 d0 bd
       0.20022507 -0.08638444 -0.084902674 -0.10174569
000360 54 12 85 3d fe 2a d2 bd 1e 0a 44 bc 1b 7f 85 bd
       0.064976364 -0.10262106 -0.011965303 -0.06518384
000370 c6 c6 14 3e 81 18 45 3d 80 ea e8 bd 03 61 df 3d
       0.14528951 0.048119072 -0.11372852 0.109071754
000380 aa 21 df bd d7 ed e4 3c 27 86 e7 bd 6a 61 1e bc
       -0.10895093 0.027945442 -0.113048844 -0.00966678
000390 a0 a2 fd bb 36 9a 2a bd f9 fa b9 bc bf 9b a6 3c
       -0.0077403337 -0.041650973 -0.02270268 0.020337937
0003a0 7e 1a 02 3d 65 47 3f 3e 7f 91 6e bd 6c d0 6d bd
       0.031763546 0.18679579 -0.058244225 -0.058060095
0003b0 34 62 8b bd c9 55 a5 3d 3a 14 d7 bd ad a5 71 bd
       -0.0680584 0.08073003 -0.10501905 -0.05899589
0003c0 ff 7d e1 bd 0a f6 97 3c b9 31 7d bd 9f 63 22 3e
       -0.1101036 0.018549938 -0.061814997 0.15858315
0003d0 0a 3c 11 3e 74 f1 5d bd 91 47 98 3d 98 37 a3 3d
       0.1418306 -0.054185346 0.07435525 0.07969588
0003e0 0c 18 89 bd 8b dc c1 3c ca e1 32 3d cf ce de bd
       -0.0669404 0.023664733 0.04367236 -0.10879289
0003f0 6e 95 2c bd 11 62 ab be 5d e0 03 bd 01 f1 4c bd
       -0.042134695 -0.33473256 -0.03219639 -0.050034527

lstm.weight_hh_l0 f4 [256, 64]
000000 6d 1a 18 be da eb 17 be 22 1a 28 3a e3 a1 e3 bc
       -0.1485383 -0.14836064 0.00064125855 -0.027787155
000010 0d 2f 5b 3c 38 be 2a 3e dd 42 1c be 2a 27 23 bd
       0.013377917 0.16674125 -0.15259881 -0.03983227
000020 12 97 81 be 9e 8a ee bd 14 f8 55 3d 6f b6 3c bd
       -0.2531057 -0.11647533 0.05223854 -0.04607242
000030 67 47 bc bd 6e 52 fe 3a c9 6c 77 3d 36 ef 38 bd
       -0.091933064 0.0019403228 0.06040648 -0.045150004
000040 e6 f8 7f be 55 80 23 3d 8f 66 63 be 1e 13 11 be
       -0.24997291 0.03991731 -0.22207092 -0.14167449
000050 37 b3 31 be 92 2e ba bc ea 72 45 be 69 4a 32 3e
       -0.17353521 -0.022727285 -0.19282117 0.17411198
000060 ac 2c bf 3a 29 ec 38 be 17 0a 8c 3d 93 9e 19 3d
       0.0014585457 -0.18058838 0.06837862 0.037504744
000070 9f 45 dd bc e4 8d 8c 3d 5b 0d 5c 3d 4a f0 09 bd
       -0.027010737 0.06863001 0.053723674 -0.033676423
000080 3f 76 c0 bd e8 ad bc bd a7 56 07 3d 30 fe a4 3c
       -0.09397554 -0.092128575 0.033041622 0.020140737
000090 cb 0a c0 3d b8 b6 88 3d 7e a4 75 bd 82 44 2c 3d
       0.093770586 0.06675476 -0.059971325 0.04205752
0000a0 2e 56 9c bd e2 26 cb 3b c4 57 72 bc 61 b1 2a 3d
       -0.07633625 0.0061997036 -0.014791433 0.041673068
0000b0 db 04 81 3d d5 8c e8 bc af 86 25 3d 7e 6b 2d be
       0.06299754 -0.028387466 0.040411647 -0.16935536
0000c0 b9 2e 63 bd 53 11 49 bd 8c fe 0c bd 19 a9 27 3d
       -0.05546448 -0.049088787 -0.034422442 0.04093275
0000d0 b2 19 65 3d 86 eb 1d be fc db a7 bc ee 98 e5 bd
       0.055932708 -0.15421876 -0.020490639 -0.1121081
0000e0 bc 47 4f 3e 98 c6 f5 bd 72 53 99 bd b1 80 9e 3d
       0.20242208 -0.120007694 -0.07486619 0.0773939
0000f0 4e 4b 87 bd b8 1a 43 be 5d 7e dc 3c 2b 7c a4 3d
       -0.0660616 -0.19053161 0.026915723 0.08031496
000100 cd 70 a8 3b 3b f9 ea 3d 31 77 2e bc 07 e4 63 3d
       0.0051404 0.11473318 -0.010648535 0.055637386
000110 eb 1e d9 3d 6f d4 40 bc 4f 6d 07 be 1a cd d3 3b
       0.106016 -0.011769398 -0.13225292 0.006463659
000120 ea a2 78 be f9 7f 90 bd 3d 66 29 3e e0 90 fc 3c
       -0.24280897 -0.07055659 0.16542907 0.0308308
000130 9b 96 1d be 7b 92 cc bd bf 59 13 3e 22 44 11 bd
       -0.15389483 -0.099888764 0.14389704 -0.035465367
000140 19 ed ab bd 53 96 f8 bd 8a 60 31 be 34 38 a9 3c
       -0.08394832 -0.12138047 -0.17321983 0.020656683
000150 30 8d e7 3d 7c f2 de bc b1 e0 b5 bd 89 0b 38 3e
       0.11306226 -0.027215235 -0.08880747 0.1797315
000160 c3 da 8f 3e a1 2b 78 3c ca 10 27 bd 2c 91 0a 3c
       0.2809659 0.015147121 -0.040787496 0.008457463
000170 9b b8 2e be 87 9d db 3d 60 73 91 3d f7 76 4b 3d
       -0.17062609 0.10723405 0.07102084 0.049674
000180 5a f6 91 bd 35 3a dd bc b1 55 92 bd 80 8d a6 3c
       -0.07127066 -0.027005294 -0.071452506 0.020331144
000190 ea 9c b3 3d e9 7e cc 3c ad ef 35 be df 1c ab 3d
       0.08770163 0.02496286 -0.1776721 0.08355116
0001a0 e3 ff 22 bd 1a 13 b9 bc 2c 40 0b be dd b9 49 3d
       -0.039794814 -0.022592116 -0.13598698 0.04924952
0001b0 11 37 a5 3d e6 f1 9b bd c5 a8 ca 3d 70 07 27 bd
       0.08067144 -0.07614498 0.098954715 -0.040778577
0001c0 d8 ff 16 bb 84 0e 12 bc ca 38 76 bb 84 f1 08 bd
       -0.0023040678 -0.008914594 -0.003757047 -0.033433452
0001d0 56 24 38 bd d9 98 c1 bd cc e5 92 bd 97 5e d4 3d
       -0.044956528 -0.094529815 -0.071727365 0.10369604
0001e0 af 22 d0 3c e5 d2 cd bc f8 e1 2f 3d 08 d4 48 3d
       0.025407163 -0.025124976 0.04294011 0.049030334
0001f0 16 af b7 bd 5b 35 1d bc 32 0f 17 bd 20 11 80 bd
       -0.08968942 -0.0095952405 -0.036879726 -0.06253266
000200 1a 99 65 3c 56 a1 6c bd be ea dd 3d ee f1 6f bd
       0.014013553 -0.05777105 0.10835789 -0.05858033
000210 2d ee 8e 3d f6 3f 20 3d f8 35 d5 3d f5 b8 45 3e
       0.06979022 0.039123498 0.10410684 0.19308837
000220 27 df 97 3d a6 85 6b bb 6e 6c f8 bd 05 4e 93 3d
       0.0741561 -0.0035937815 -0.12130056 0.071926154
000230 78 fa 04 3e 41 4c 21 3e 2b c4 f5 bb 6b 26 48 3d
       0.12986171 0.15751745 -0.0075001917 0.048864763
000240 52 9c 2c bd c0 38 e8 3c 27 a7 c2 3d 92 da 9d bd
       -0.042141266 0.028347373 0.09504538 -0.077077046
000250 7e e7 05 be 23 eb 90 bd 91 b3 61 be 67 49 52 be
       -0.13076589 -0.07076099 -0.22041155 -0.20535813
000260 fe 68 ee 3d 93 a4 5b bd 4c 73 67 3d bc a0 2c 3d
       0.116411194 -0.053623747 0.05650644 0.042145476
000270 9f 2f cb bd 39 85 58 bb da ad bd 3d b4 9b 43 bd
       -0.099211924 -0.0033038391 0.09261675 -0.047755912
000280 eb e0 18 3e 35 64 8f 3d 58 33 01 3d f6 10 01 3e
       0.1492955 0.07001535 0.031543106 0.12604126
000290 5d b3 63 3d d4 aa 81 bd 69 b4 24 3e b9 88 d7 bc
       0.055590976 -0.06331411 0.16084446 -0.026310312
0002a0 86 d0 34 be 49 b5 d5 bc f7 2f e0 bc 0a b9 6a bc
       -0.1765767 -0.02608742 -0.027366621 -0.014326343
0002b0 57 7a 49 3d e2 e0 3d bd fd cb cf bd 00 08 91 3c
       0.049188938 -0.046357043 -0.101463296 0.01770401
0002c0 b4 9d c2 3c 0f 12 7a bd bd 43 23 3d 4a 8d 9a 3d
       0.02375684 -0.06105238 0.039859522 0.0754648
0002d0 10 90 f6 bc ae 21 92 bc 9a 6c 83 3c 21 82 92 bd
       -0.030097991 -0.017838325 0.016042996 -0.07153726
0002e0 5c b1 76 bd ab ca c4 bd 14 09 28 3d 89 c7 a5 3d
       -0.060227737 -0.09608968 0.041024283 0.08094699
0002f0 5d ee 87 bd ba ae 04 3b 6d dc 1b 3e 31 6d e5 3d
       -0.06637261 0.0020245747 0.15220805 0.11202467
000300 4e 28 84 bd 48 22 5b bd 2c d9 08 bd 09 93 bf bd
       -0.06453 -0.05349949 -0.033410236 -0.093542166
000310 54 52 5d 3e ad 97 46 3d 27 af 23 3c 0f 6c 72 bc
       0.21613437 0.048484493 0.00999049 -0.014796271
000320 83 25 8b bd aa c9 d0 3d b6 08 c0 bd ab b5 9d 3d
       -0.06794264 0.10194714 -0.093766615 0.07700666
000330 ce 55 c4 bd 0e 12 0c 3e d0 ba 1f 3e 2f 7d 79 3a
       -0.095866784 0.13678762 0.15598607 0.000951725
000340 7c 1a ba bd 4c 0a 4f bc e5 29 04 be f4 9c ec 3d
       -0.09087083 -0.012636732 -0.12906606 0.11553374
000350 17 84 bd 3d ac 62 d2 bd fc 97 f7 bd f8 51 20 3d
       0.0925371 -0.102727264 -0.120895356 0.03914067
000360 2e 70 10 3d 0c 4b ec bd 7e d0 2a 3e 8b 93 11 bd
       0.035263233 -0.115377516 0.16681096 -0.0355411
000370 42 02 a4 bd ec 18 a0 3c b7 33 49 3e fa 11 90 3d
       -0.08008243 0.019543134 0.19648634 0.07034679
000380 23 1f 23 3e 3c 99 ca bd 04 06 4b 3d c0 f2 03 3e
       0.15929846 -0.098925084 0.049566284 0.1288557
000390 bd a7 8c 3d 65 02 07 3d ad 8c b2 bb e9 79 f1 bd
       0.06867931 0.032961268 -0.0054488988 -0.11790831
0003a0 7c 56 cb bd 36 58 e4 3d f8 46 57 3d 52 86 a2 3d
       -0.09928605 0.111496374 0.052557915 0.07935776
0003b0 b6 81 4f bd 94 5d 10 3e a5 9e 6b bd 1a f0 f4 3d
       -0.05066081 0.14098197 -0.057524342 0.11959858
0003c0 54 ee 8e 3d 6d 78 18 bd 01 a1 3a bc 27 3b 2c bd
       0.06979051 -0.037224222 -0.011390925 -0.0420486
0003d0 07 d8 9f 3d b4 04 22 be bf 2c 57 bd c1 40 8b bd
       0.07804876 -0.15822107 -0.052532908 -0.0679946
0003e0 20 df d9 bd 07 00 bb bc 7d 32 2e be ad fc 54 3c
       -0.10638261 -0.022827161 -0.17011447 0.012999696
0003f0 2b 98 4d bd d6 3d 6a 3c 25 09 c4 3d ae 9b 5d 3d
       -0.050193947 0.014296969 0.09572057 0.054103546

lstm.bias_ih_l0 f4 [256]
000000 b5 d4 e7 bc 09 ab 66 bd 04 3f 20 bd 28 2e f6 bd
       -0.028299669 -0.056315456 -0.039122596 -0.12020522
000010 94 a7 9e bd ea 4a 31 3e 39 62 5c 3d 4f d9 07 be
       -0.07746807 0.17313734 0.05380461 -0.1326649
000020 4e 6f e5 bd 78 d2 17 3e 9b 81 2c 3d b8 8f af bd
       -0.1120287 0.14826381 0.04211579 -0.08572334
000030 5f ab f1 3d 01 8e 31 3e 5a 1c d7 3d a6 a4 56 3d
       0.118002646 0.17339326 0.105034545 0.052403115
000040 7e a0 0b be 8d 41 7d bd 1c ad b1 3d db dc b7 3d
       -0.13635442 -0.061830092 0.08675596 0.08977672
000050 80 4a e0 bc 02 49 31 3e 2a 82 cc bc 78 e5 18 3e
       -0.027379274 0.17313007 -0.02496441 0.14931285
000060 ed f0 ef bd 95 c8 51 bd c5 16 95 bd 58 05 c8 bd
       -0.11715875 -0.05121668 -0.072797336 -0.09766644
000070 ae 5b 37 be 75 26 34 bd bc bc 8c bd 41 3c 54 3d
       -0.17906067 -0.043981988 -0.06871936 0.051815275
000080 b1 ca c0 bd 31 ee 23 be 93 3a db 3d 39 fe 10 bc
       -0.0941366 -0.16008832 0.107045315 -0.008849674
000090 5c c5 e3 3c 98 4c 42 bd b0 28 cb 3b 08 e5 c4 bd
       0.02780407 -0.047436327 0.0061999187 -0.09613997
0000a0 a3 38 e6 3d d7 4e dd bd fb 46 0e be 20 6d b1 bc
       0.11241271 -0.10806053 -0.13894264 -0.02165848
0000b0 9f fa 82 bd ff 4d 99 3d 68 1f c5 bd 85 61 e2 3d
       -0.063954584 0.0748558 -0.09625131 0.110537566
0000c0 ef 11 56 3d cc 54 f4 3d f6 92 e5 bd 3e de 97 bd
       0.052263197 0.11930236 -0.11209671 -0.07415436
0000d0 d9 a9 f3 3c f9 c3 5a be ed 16 9e bd 4a c4 00 3e
       0.029744076 -0.2136382 -0.077192165 0.12574878
0000e0 ef 12 5b 3c 6a 70 0a be c9 63 94 3d 83 ca 1f 3e
       0.013371213 -0.13519445 0.07245595 0.15604596
0000f0 6c 6f 1b be 86 f8 15 3d b2 97 1b bd 96 76 05 3d
       -0.15179223 0.036613964 -0.037986465 0.032583795
000100 7a 4e c8 3b 05 23 c5 3d 8a 6a a6 bb c1 3f 22 3e
       0.0061128708 0.0962582 -0.0050786184 0.15844633
000110 49 7e 4c 3e c0 f8 2a 3e 8b 6e 0c bc c9 4b c5 bd
       0.19970049 0.16696453 -0.008571277 -0.096335955
000120 2d d0 c4 3d 14 19 8a 3e 8b 01 26 3e 09 e8 f4 3d
       0.09610019 0.26972258 0.16211526 0.1195832
000130 bd 55 b6 bb e7 d2 ea 3d f1 c8 e5 3d fa 14 61 3e
       -0.00556442 0.11466008 0.11219967 0.21980658
000140 86 c3 7b bd 4e 23 99 3c 56 27 17 bd b4 fa a1 3d
       -0.061465763 0.018693592 -0.036902748 0.07909146
000150 96 37 54 3c a8 bc 44 3d 01 b7 25 3e f9 b3 00 bc
       0.012952706 0.04803148 0.16183092 -0.007855409
000160 99 6f ea 3d 2b 1c fc 3c 6f 58 f2 3d 81 5e 09 3e
       0.11447067 0.03077515 0.118332736 0.13414957
000170 5f 1b 1d 3e e8 2f a4 bd 29 67 a0 bc 0c a9 f1 3d
       0.15342472 -0.0801695 -0.01958044 0.11799821
000180 31 f7 d1 3d 26 97 02 bd ef 42 fe 3d 33 3d ab 3d
       0.10252226 -0.031882428 0.1241511 0.08361282
000190 2a b8 8b 3d 42 60 2f 3e 87 df 0d be c1 38 2f 3d
       0.06822236 0.17126563 -0.138548 0.042778734
0001a0 b3 9b 60 3e 4f 2c 1f 3e 61 26 50 3b 8a ca d6 b8
       0.21934395 0.15544246 0.0031761157 -0.00010242041
0001b0 24 fb 88 3c e2 28 48 3d 1d ae d7 3c 45 c5 44 3d
       0.016721316 0.048867114 0.02632814 0.048039693
0001c0 91 b1 c4 3d df 98 09 3e b4 6c a1 bd 18 4c 25 3e
       0.096041806 0.13437222 -0.078820616 0.16142309
0001d0 27 72 5c 3c 04 41 97 bd 68 b5 4e 3e 9f ae 85 3c
       0.01345495 -0.073854476 0.20186388 0.016318617
0001e0 06 ae 4c bd b8 a9 a5 3d 9d b7 d8 3d 61 92 14 3e
       -0.04997065 0.08089012 0.105818965 0.14508964
0001f0 a4 fc a4 3c 54 42 05 bd d7 4c 70 3e cf ad 75 3d
       0.02014 -0.03253396 0.23466812 0.05998021
000200 d1 93 ad 3d 79 dd 1a 3d df 5c 10 bc 02 6f 9a 3d
       0.08475459 0.03780887 -0.008811205 0.07540704
000210 0b fc 03 be 2f 6f af bd 3a a9 59 3d 5e e0 1c bd
       -0.12889116 -0.085661285 0.053139903 -0.03829991
000220 81 1d 8d bd f8 a4 f9 bb d4 6d 8b bd b9 59 85 3c
       -0.06890393 -0.0076185428 -0.068080574 0.016278135
000230 79 5e 93 bd e5 7c c1 3c 6a 9f 55 3d 89 88 df bc
       -0.071957536 0.023619125 0.052153982 -0.027286785
000240 8c 25 a7 bd 3d 8e cc 3d f2 82 96 3c 72 cc a0 3c
       -0.081614584 0.09988067 0.018372986 0.019628737
000250 2a 30 80 3d 01 11 ca 3d cc 63 21 be 33 2f bb 39
       0.062591866 0.098665245 -0.15760726 0.00035702586
000260 c8 41 80 bd e9 b4 13 3c ec 59 fd bc 58 2c 55 3c
       -0.06262547 0.0090153 -0.030926667 0.013011061
000270 2e 92 96 3d 84 a1 69 3d 9e 77 e8 bc 08 e2 da 3c
       0.073521 0.0570388 -0.02837735 0.026719108
000280 96 d6 82 bd 1e 21 01 3e 87 c9 23 3d 54 fb 2c bc
       -0.06388585 0.1261029 0.039987113 -0.010557968
000290 fc ad 36 bd fa 7a d1 3d a6 39 b7 bd 37 b9 56 3d
       -0.04459952 0.10228534 -0.089465424 0.05242273
0002a0 f0 b1 b2 bd cb 2f 83 3d bc 3f 83 bd 20 9f b9 3d
       -0.08725345 0.064056 -0.06408641 0.09063554
0002b0 55 1a 41 3d ea 70 db bd f3 81 86 3c bf 5c 3c bd
       0.047144253 -0.10714896 0.016419386 -0.045986887
0002c0 e3 69 c1 bd df 6a f3 3c 6a 08 58 3d 75 45 aa bd
       -0.094440244 0.029714046 0.0527424 -0.08314029
0002d0 bc a5 41 bd a4 e7 ca bd b2 2e 6b 3c b4 73 bd bd
       -0.047277197 -0.09907463 0.014354395 -0.09250584
0002e0 51 d9 16 3e eb a4 bd bd 4c 34 6c 3d ae bd 55 3e
       0.14731337 -0.09259971 0.05766706 0.20873138
0002f0 89 00 d9 bc fa c9 7f ba bb e9 bf ba db b4 37 3d
       -0.026489513 -0.0009757575 -0.0014641801 0.04485021
000300 6c fa c1 3d 1d 19 29 3d 8f 4f cc 3d d8 30 02 3e
       0.09471592 0.041283716 0.09976112 0.12713945
000310 d7 46 9f bd 2d 54 25 3e ca e0 df bc be 81 21 bd
       -0.077771835 0.16145392 -0.027328867 -0.039430372
000320 06 f7 b7 bd 57 a9 1d 3c fe bd 7f 3e 7d ed 03 3e
       -0.08982663 0.009622893 0.2497482 0.12883563
000330 3f 2e 33 3c 81 af 26 3e c8 ce 0b 3d 99 24 ab 3d
       0.010936319 0.16277887 0.03413275 0.0835659
000340 8e bf 86 bc bf 03 a1 bd 0c bb ad 3c 6a 95 89 3c
       -0.016448762 -0.07862043 0.021207355 0.016794879
000350 26 c7 e6 3d 18 ab 7c 3d 32 37 c7 3b f0 aa 05 3e
       0.11268453 0.061686605 0.006079578 0.13053489
000360 65 98 26 bd 66 86 ca 3d c4 63 23 3e 72 f0 16 3e
       -0.04067268 0.09888916 0.15956026 0.1474016
000370 7a ad 1e 3c 4a 1d bc 3d a2 b8 1b bc 2f ed ec 3d
       0.009684915 0.09185274 -0.009504469 0.11568677
000380 cc fc 14 3b e8 fe 26 bd 42 3a be bc 3c aa cd 3d
       0.0022733686 -0.04077044 -0.023221139 0.10042235
000390 3f 00 94 bc c1 8e 1e 3e 9d cd f2 bd 1f 8e 81 3d
       -0.018066524 0.15484144 -0.11855624 0.063259356
0003a0 a7 a0 42 3e 8f 70 72 bd f2 3e 5d bd be 1d 2c 3e
       0.19006597 -0.059189375 -0.054015107 0.1680822
0003b0 7c e5 a4 bb 3d 94 4e 3d 5a 8f f9 3d 6e b6 ab 3d
       -0.0050322395 0.05043434 0.12185545 0.08384405
0003c0 3f 33 00 3e 39 41 27 3e fb c6 d4 3b 3b 57 0f 3e
       0.12519549 0.16333474 0.006493447 0.1399812
0003d0 9f 6a 87 3c 58 9d bd 3d b1 ba 88 3d 09 05 3b 3e
       0.016530333 0.092585266 0.066762336 0.1826364
0003e0 59 f8 64 3d 6f e2 9c 3c 0b 8c b9 bd c7 a6 6f 3c
       0.055900905 0.01915094 -0.09059914 0.014627165
0003f0 9e ee 9d bd 8d a1 f7 bc ce 7d 98 3d f9 b0 e9 bb
       -0.07711528 -0.0302284 0.0744587 -0.0071316925

lstm.bias_hh_l0 f4 [256]
000000 59 f2 de bc 9f bc 10 3d 29 8d b9 bd 73 38 bc bd
       -0.02721517 0.035336133 -0.09060127 -0.09190454
000010 3b 80 3f bd 94 f0 2e bd 5c 5c fe 3c 5d b1 f8 3c
       -0.04675315 -0.042709902 0.0310499 0.03035801
000020 db a1 66 bd 57 e7 b7 bd be fa ec bc 5b bb c3 3d
       -0.0563067 -0.089796714 -0.028928157 0.095572196
000030 1b a0 09 3d 27 8f 1c 3e 8b 0b 7a bd 9c c0 ab 3d
       0.033599954 0.15288983 -0.061046164 0.08386347
000040 29 55 29 3d af 67 ab 3c 82 c5 17 b9 5f cd b3 3c
       0.04134098 0.020923464 -0.0001447406 0.021948515
000050 75 5c 8f 3c 9e d7 3f 3d 54 01 65 bd 91 6b 09 3e
       0.017500142 0.046836488 -0.05590947 0.1341994
000060 a8 50 ef bb 4b 7a 91 3d 38 9d 1b 3d 87 7b 8d 3d
       -0.007303316 0.07103404 0.037991732 0.069083266
000070 b2 6c 19 be 19 ab 31 3c b0 91 a0 3d d0 41 70 bc
       -0.1498287 0.0108440155 0.07840288 -0.014664128
000080 1b 9a 74 bd 33 e9 5f bd 58 0e 22 3d 60 1b a5 bc
       -0.05971728 -0.054665755 0.03956446 -0.020154655
000090 67 ac 4b 3c 18 47 b7 3d 7d 4d 4d 3d 79 af 21 bd
       0.012431241 0.08949107 0.050122727 -0.039473984
0000a0 1f 31 9a 3d f7 26 c9 bd e4 fb 57 3d 83 8f d0 3d
       0.075289 -0.09821885 0.052730456 0.10183623
0000b0 34 3a 85 3d 54 eb b8 38 fc a0 0b bc 43 44 a7 3d
       0.06505242 8.817637e-05 -0.008522268 0.08167317
0000c0 3b 44 cb bc 1d 86 a5 bd cd d6 33 3d 22 42 14 3e
       -0.024812808 -0.08082221 0.043906022 0.14478353
0000d0 c8 49 e7 3d 44 9d bd bc 69 37 11 bd af f0 49 3d
       0.112933695 -0.02314628 -0.035453234 0.0493018
0000e0 85 f6 00 3e c2 e2 b5 bc bc a7 92 3c f9 1b 80 bd
       0.1259404 -0.022202853 0.017902248 -0.06255335
0000f0 9c a6 2d 3d ef 63 47 3d 72 dc 0b 3e ca 8a 45 3c
       0.04239522 0.04867929 0.13658312 0.012057016
000100 ad 07 8e 3d 91 2a 11 3e 43 c1 15 3e c0 8d 06 3e
       0.06935058 0.14176394 0.14624505 0.13140011
000110 30 06 27 3e 7f 7b 33 3e d4 7a 4f 3e 32 37 a0 3d
       0.16310954 0.17527579 0.20261699 0.07823028
000120 f1 be 78 bd 74 90 8b 3e 30 1d 45 3e 26 0c 41 3d
       -0.06072897 0.27258646 0.19249415 0.047130726
000130 2c 0e 27 3d 8b 8d 91 3d f6 3d 1c 3e 65 19 99 3d
       0.040785 0.07107075 0.15258011 0.07475547
000140 58 c6 59 bd 7b 9d 13 3e cd 02 00 3d f2 a5 a1 3d
       -0.05316767 0.14415543 0.03125267 0.0789298
000150 8d 1e 1a 3e 09 57 7f bc 71 f4 e9 3d c5 87 05 3e
       0.15050717 -0.015584716 0.114235766 0.13040073
000160 63 05 04 3e d1 ab 8c 3c 3b bc 94 3c 39 47 20 bd
       0.1289268 0.017171772 0.018156162 -0.039130423
000170 b5 4d 91 bc 3b 37 74 bd a8 9a 65 bd 2b c9 33 3e
       -0.017737249 -0.059622984 -0.056055695 0.17557208
000180 1b df 1a 3c 80 ca f9 3d 29 c6 59 3c 56 d2 91 3d
       0.009452607 0.12196827 0.013291874 0.071201965
000190 c0 b9 14 3e 52 35 00 3e 54 d0 27 3d fa 60 91 bd
       0.14523983 0.1252034 0.04097016 -0.07098575
0001a0 df 71 c3 3d 7f e9 b4 3d 8d 72 19 3e 44 af af bc
       0.095432036 0.08833598 0.14985104 -0.021445878
0001b0 ea af 15 3d c7 6e 9f 3d ad 32 52 3e 79 44 c6 3d
       0.036544718 0.07784801 0.20527144 0.09681029
0001c0 a8 31 2c bd 29 48 39 3e 9a 29 45 3d 47 4b 54 3e
       -0.042039543 0.18093933 0.048135377 0.20731841
0001d0 95 1f cc 3d 2c 19 cb bd 16 20 22 39 0e 57 66 3e
       0.09966961 -0.099169105 0.00015461477 0.22494146
0001e0 01 03 8a bc 5a dc 85 bd 7f d2 82 bb 96 74 09 3e
       -0.016847135 -0.06536169 -0.0039923782 0.1342338
0001f0 7f e8 0a 3e 32 c2 9e 3d c4 74 67 3e b2 0f 1e bd
       0.13565253 0.077518836 0.22603136 -0.038589187
000200 09 78 10 bc cb cb ab 3d ee 65 fb bc 32 32 8a bd
       -0.008817681 0.0838848 -0.030688252 -0.06747855
000210 c9 0e a5 bc 4a cc c6 3a 21 dd 82 bd 2c 14 0d 3d
       -0.020148652 0.0015167084 -0.06389833 0.034443066
000220 dd 94 e1 3d 90 6a c1 3d 27 2a d5 3b b6 4f 84 3c
       0.110147215 0.09444153 0.006505269 0.01615129
000230 48 d0 46 3c e9 1c 07 be af 4f 9a bd ac 18 3a bd
       0.012134619 -0.13194622 -0.0753473 -0.045433685
000240 aa 94 e7 bd 18 51 b9 bc 72 1b b1 bd e0 5d 82 3d
       -0.11307652 -0.022621676 -0.08647813 0.063655615
000250 e1 bc 31 be 63 f2 bc bd c5 f0 76 3d af 47 3e bb
       -0.17357208 -0.09225919 0.06028821 -0.0029034426
000260 70 18 ca bd a4 81 0f bd b4 5a d3 3d b3 be ce 3d
       -0.09867942 -0.035035744 0.103200346 0.10094967
000270 c0 1c 00 3d c9 87 13 bd 60 42 a7 3c 0d 2e e6 bd
       0.031277418 -0.036018167 0.020417392 -0.11239252
000280 3e fc be 3c 70 e4 0e bd ef 2e 32 be 3a ee ad bc
       0.023313638 -0.034885824 -0.17400716 -0.02123176
000290 ee e2 a6 bc 66 8b 73 3d 17 34 07 be 30 05 36 3c
       -0.02037188 0.059459113 -0.13203464 0.011109635
0002a0 7a 3c fb 3c 0a 17 69 3c 81 78 0f bd 94 c5 88 bd
       0.030668486 0.014226684 -0.03502703 -0.0667831
0002b0 03 d0 1d bd 21 5d 1f be 6a 44 68 3d d4 fb be bd
       -0.038528454 -0.1556287 0.05670587 -0.09325376
0002c0 ad 34 d4 bd 41 66 af bd ac 20 ff bc 45 e2 97 3c
       -0.103616096 -0.08564425 -0.031143509 0.01854051
0002d0 f5 c7 04 3e 4e 0f 08 be 5f 67 75 3d 3f e5 ed bd
       0.12966903 -0.13287088 0.059913035 -0.11615991
0002e0 60 e3 d4 bc 93 7c ca bd f1 5c 19 bc 6b fd fa 3c
       -0.025987327 -0.09887042 -0.009360538 0.030638417
0002f0 e0 e3 d5 3d b3 fc 13 bd 9c 4d 9e 3d d0 85 15 bd
       0.10443854 -0.036129665 0.077296466 -0.036504567
000300 7e 8f 29 bb a8 35 62 bd f5 c6 e4 3d 3c 95 87 3d
       -0.0025872882 -0.05522695 0.111707605 0.06620261
000310 0f cd b5 bd 87 80 08 3d 0c 83 e4 3d 22 5d be 3c
       -0.088770024 0.0333257 0.11157808 0.023237769
000320 90 61 bd 3d 22 44 11 bd d0 5c 91 3d d7 28 25 3d
       0.09247124 -0.035465367 0.07097781 0.04032215
000330 a5 00 bd bd 2f cd 20 bd 01 2f 23 3e 4c 31 b9 bd
       -0.092286386 -0.03925818 0.159359 -0.09042606
000340 52 98 1d bd 9f 98 81 3d 36 f3 37 3e 46 d8 ae bd
       -0.038475342 0.06327938 0.17963871 -0.08537345
000350 d3 a8 2e bc f2 1e 45 3e 63 63 07 bc cd 23 34 3e
       -0.010660368 0.19250086 -0.008263442 0.17591782
000360 bc 40 9e bc 56 f5 0d 3e 8c 66 d8 3d 41 0b ad bc
       -0.019317977 0.1386312 0.10566434 -0.02112353
000370 f8 a5 ec 3d ab 73 8c bd f0 ee 24 bc 9f 30 10 3d
       0.115550935 -0.068579994 -0.010066733 0.03520262
000380 0b dd 87 3d 2b 1b 31 bd b5 ed 7c bd 0b 29 18 bc
       0.066339575 -0.0432388 -0.061750133 -0.009287129
000390 95 a4 00 bd 25 54 93 bd e1 0c 34 3d 85 47 a1 3d
       -0.031406958 -0.07193784 0.043957595 0.078749694
0003a0 78 af e4 3d 5a 87 49 3d 95 b5 36 bd be f6 3c 3e
       0.111662805 0.049201347 -0.044606764 0.184535
0003b0 36 57 6b bd 50 61 cb 3d f4 34 1a 3e a3 ee 4b 3d
       -0.057456218 0.0993067 0.15059263 0.04978813
0003c0 42 b7 db 3d be 35 06 3e 8b d5 b6 3d ae 52 08 3e
       0.10728313 0.13106439 0.08927449 0.1331279
0003d0 f3 44 9a 3c 01 f4 9a 3d bc 12 39 bd 93 73 c5 3c
       0.018831706 0.07566071 -0.045183882 0.024102962
0003e0 ef cc a4 bd 08 ca 9e bd e6 45 9f 3d 73 bc 46 bd
       -0.080469005 -0.07753378 0.07777004 -0.048519563
0003f0 98 bc f0 bd cb 60 88 3d 29 d3 cb 3d da b8 ce bd
       -0.117547214 0.06659087 0.09952385 -0.100938514

lstm.weight_ih_l1 f4 [256, 64]
000000 60 82 32 3e 59 4e 5a 3c c6 3d 1d 3d 96 f0 8a 3c
       0.17432547 0.013324344 0.03838899 0.016960423
000010 77 5d f6 3d a3 c0 89 3b 51 46 88 bd 83 a7 10 bd
       0.12029546 0.0042038723 -0.06654037 -0.035316
000020 5a f6 1c 3c ff c7 8d be 59 43 e1 bd 95 e2 49 bd
       0.009580219 -0.27691647 -0.10999174 -0.04928835
000030 1f 29 ae bd 73 0a 0a bd 85 39 f5 3d 8d 7d c4 3d
       -0.08503937 -0.03370137 0.119738616 0.095942594
000040 eb 3d ce bc 8c 4c 98 3d 58 05 9f bd f4 6b d2 3d
       -0.02517601 0.07436475 -0.07764691 0.10274497
000050 75 9c 88 3d 6d b3 2e 3c 9d 9d 46 bd 92 43 ff bd
       0.06670467 0.010662896 -0.048490155 -0.1246406
000060 f8 28 a5 3b 0c 89 8a bb fd 9f 55 bd 5e 56 2d bd
       0.0050402842 -0.004227763 -0.05215453 -0.042318694
000070 d6 b8 0a bd 0c 2c ad 3c 04 48 00 3e 90 0c 7e 3d
       -0.03386768 0.021139167 0.12527472 0.0620237
000080 09 df d1 3c 51 bd 29 3e 7e 85 c3 3d 43 af cd bd
       0.025619047 0.16576125 0.09546946 -0.10043194
000090 2f 5e 04 3d 94 8d 9a 3b 81 fd 0d 3e 9e 31 32 bb
       0.032316383 0.0047165845 0.13866235 -0.0027190219
0000a0 cf c9 8c bd 49 d8 16 be 7c d6 f1 3c b2 bc a8 bd
       -0.068744294 -0.14730944 0.02952122 -0.08239116
0000b0 e7 38 87 bc 5a 0f 89 3d 0e b7 97 bd b4 a1 c3 3c
       -0.016506625 0.06692381 -0.07407962 0.023880817
0000c0 42 9c c6 bd d7 7b 94 bc b6 8f 54 bd bc d2 ae bc
       -0.096977726 -0.018125458 -0.051894866 -0.02134072
0000d0 09 7a 0c 3d 19 f6 11 3e ca 6f 25 3d 89 8f f5 3d
       0.03429607 0.14254035 0.040389813 0.11990268
0000e0 5a 9c 8f 3d 41 7c a1 bd be bd 80 bd bf 7b ab 3d
       0.070122436 -0.07885028 -0.062861905 0.08373212
0000f0 03 6f f5 3c 72 b6 5c 3e 4b f0 54 bd c5 bb c0 bd
       0.029960161 0.21553972 -0.051986974 -0.09410814
000100 04 b4 44 3e 8a 93 0a bb be 4e af 3c 3c 6c 3a bd
       0.19209296 -0.002114507 0.021399852 -0.045513377
000110 40 ab 78 bd bc 74 5d 3d 48 b0 c4 3c ca 4b 39 bc
       -0.06071019 0.054066405 0.024009839 -0.011309573
000120 3b 74 08 3d a0 8d c4 3c 1e da 60 3e 47 8e de bd
       0.03331397 0.023993313 0.21958205 -0.10866981
000130 f0 f9 47 3e 9f cf b2 3d 42 e6 46 3d fe 0b 67 3e
       0.19528937 0.08731007 0.048559435 0.22563168
000140 a0 bb b7 bd 15 ab 0d be fb e3 21 bd b7 79 84 bc
       -0.089713335 -0.13834794 -0.03952406 -0.01617132
000150 4e 1f 11 be 39 ec 87 bd 59 ee 18 3e 90 93 8c bd
       -0.14172098 -0.06636853 0.14934672 -0.06864083
000160 1b f6 b1 3d c9 08 08 be f3 26 4c be 84 65 de bd
       0.08689519 -0.13284601 -0.19936733 -0.10859206
000170 51 e3 8a be 29 6b 20 3e f8 e9 f8 bd b5 12 7d bd
       -0.27126554 0.15665878 -0.12154001 -0.06178542
000180 37 7f 1e be 99 36 de 3c 28 6c fc 3d 8f d3 95 3d
       -0.15478216 0.027125644 0.12325317 0.07315742
000190 55 cd 52 be c9 9a ef bd d2 58 bb 3d b0 b9 10 bd
       -0.2058614 -0.11699445 0.091478005 -0.035333335
0001a0 14 72 a1 3e 84 04 d8 3c 2a 4b 1d 3e 3c 44 56 3d
       0.31532347 0.02636934 0.15360704 0.052311167
0001b0 06 08 db bc 9d 24 d9 3d 97 82 a9 bd fb 08 08 3e
       -0.026737224 0.106026866 -0.08276861 0.13284676
0001c0 10 64 ab 3d 5d c7 f7 3d c5 d7 54 3d 91 fa 41 3d
       0.08368695 0.120985724 0.051963586 0.0473581
0001d0 a2 0a 1c 3e 46 fb 2e 3d fd 84 f2 3b 09 fd a9 bb
       0.15238431 0.0427201 0.0074011073 -0.005187635
0001e0 d4 50 da bd 54 5f 74 bb ce bd 1e be 5a 10 0c bd
       -0.10659948 -0.0037288265 -0.15502092 -0.03419528
0001f0 e3 a7 12 3d fa b4 34 be 07 64 df 3d 01 04 74 3d
       0.03580464 -0.17647162 0.109077506 0.05957413
000200 cb 98 6d 3e 57 a9 18 be 05 48 2e 3e 59 6a d3 3d
       0.23202817 -0.14908348 0.17019661 0.103230186
000210 03 f0 ac 3d dc e6 a8 3e e7 e2 87 3d d2 68 44 3d
       0.08444216 0.32988632 0.06635075 0.047951527
000220 1a fb 48 be 25 88 71 3d 77 ff 9a 3e a1 0c 73 bd
       -0.19627038 0.05896773 0.3027303 -0.059338216
000230 13 ee 9b 3e a1 35 d6 3c c0 15 da bc 1c 2f ee 3d
       0.30455074 0.02614862 -0.0266217 0.11630079
000240 ee 7d 45 bd 85 b3 99 3c bb 60 dc bd 84 05 87 be
       -0.0482158 0.01876236 -0.107606374 -0.26371396
000250 d5 55 01 be e0 9c 7d be f4 94 2e be e9 b3 6a 3d
       -0.12630399 -0.24766874 -0.17049009 0.057300482
000260 24 cb c8 3d 92 fc 94 bd ed c3 b4 bd 50 81 2c be
       0.09804371 -0.072747365 -0.088264324 -0.16846204
000270 56 f9 51 be 5d fc 1a 3d fd 08 23 be 16 3e 28 be
       -0.2050527 0.03783833 -0.15921398 -0.16429934
000280 c0 aa 86 be 03 1e c7 bd 50 81 4f 3c c0 fb 81 3e
       -0.26302147 -0.09722521 0.012665108 0.25387383
000290 1d 7b cf bd 10 48 c9 39 e8 12 e1 bd ca 62 e9 3d
       -0.10130904 0.00038391398 -0.10989934 0.11395796
0002a0 b9 94 6f 3e 10 de 7e 3c 92 98 df 3d be b5 3b 3e
       0.23396577 0.0155558735 0.10917772 0.18331048
0002b0 50 e0 de 3d eb 83 91 3d c0 1f 16 bd f6 ab 0f 3e
       0.10882628 0.071052395 -0.036651373 0.14030442
0002c0 45 c4 19 bd ab 17 8c bd 82 f5 01 3d 18 50 ff bd
       -0.037540693 -0.06840452 0.031728275 -0.124664485
0002d0 c2 21 ad 3d 4e fe 1d 3d 69 6f 89 3e 72 76 6a 3e
       0.084537044 0.038572602 0.26842812 0.22896746
0002e0 e7 20 2d bd c6 7a 78 3b 87 b4 a6 3d de 69 2b be
       -0.042267706 0.0037914976 0.081399016 -0.16739604
0002f0 6c 93 a3 3d f0 d6 f0 3d f4 fe 8a 3d 7f 6b 6b bd
       0.07987103 0.11759746 0.0678691 -0.057475563
000300 d7 e4 77 3c 7f e7 85 3d c5 86 60 bd ef a8 eb bd
       0.015130243 0.06538295 -0.054816026 -0.11506831
000310 a5 ee 06 3e 80 bb a4 3d 22 01 2f be 1a 44 a4 bc
       0.13176973 0.08043575 -0.17090276 -0.020052005
000320 83 3c 9a bd 81 0e e3 3a 11 a1 21 bd 74 30 3e 3d
       -0.07531073 0.0017323048 -0.039460246 0.046432927
000330 55 25 58 3d 33 55 0d be 34 3c 2e bc 78 86 27 3e
       0.052769978 -0.13802032 -0.010634471 0.1635989
000340 fe 12 d5 3c 04 22 25 3d c1 0e 25 3d a1 80 ac bd
       0.026010033 0.040315643 0.040297274 -0.084229715
000350 33 ad a0 3d d1 d7 93 3c 46 ac f2 3d 08 62 ad 3d
       0.07845535 0.018047245 0.11849265 0.084659636
000360 3d 94 db 3d ad 8c 0c 3a 59 d5 fe bd d1 b2 85 3d
       0.107216336 0.00053615385 -0.124430366 0.06528247
000370 f4 b4 92 3d 3d f9 b9 bd a4 ad f7 bc fa 89 49 bd
       0.0716342 -0.090807416 -0.030234165 -0.04920385
000380 d1 c2 ca bd 83 1c 09 bd f7 5c 61 3c 0f 3a a9 3d
       -0.099004395 -0.033474457 0.013755075 0.08263027
000390 fc b3 28 3d 64 33 06 bd c8 d3 9c bc 77 c2 00 3e
       0.04118727 -0.032763854 -0.019143954 0.12574182
0003a0 10 3c 0e be d8 14 75 bd 25 df af bd c2 b9 f9 3d
       -0.138901 -0.05983433 -0.08587483 0.121936336
0003b0 30 44 01 be 7f 1c d3 bb 0e 86 52 3b 1d 6f 21 be
       -0.12623668 -0.006442606 0.003212336 -0.15765043
0003c0 d3 c1 82 bd 41 87 83 bd 91 48 6e bd 44 ef 96 bd
       -0.06384625 -0.06422282 -0.058174673 -0.07369855
0003d0 d8 95 da 3c 39 80 bb 3d a3 e3 bc bd d5 13 1d be
       0.02668278 0.09155316 -0.09223106 -0.15339597
0003e0 ba b2 f6 3d 62 45 87 bd d3 cf 63 bd 54 cb 37 bd
       0.12045808 -0.066050306 -0.05561812 -0.044871643
0003f0 ea 83 c1 bd 7e 98 a8 bd d4 96 18 bd 0e 64 49 bd
       -0.09448989 -0.082322106 -0.037253216 -0.049167685

lstm.weight_hh_l1 f4 [256, 64]
000000 92 13 c3 bd 91 e2 60 3c 8d 44 1f bd 4a b5 65 bd
       -0.09525217 0.013725893 -0.038883734 -0.056081094
000010 52 02 5a bc 8b c8 ba 3d f9 14 bf 3d f3 fc a8 bc
       -0.013306217 0.09120282 0.09330172 -0.020628428
000020 ca a5 0c bd 16 ee df 3d ed 83 c9 bc a5 d1 bc 3c
       -0.034337796 0.10934083 -0.02459904 0.023049185
000030 b1 3c 77 3d 60 3f 0b bd f3 b6 89 bd 1e 66 f0 bd
       0.060360614 -0.033995986 -0.06724348 -0.11738227
000040 9d 97 80 bd 63 4b 34 3e 40 5f ac 3b 58 91 a7 3d
       -0.06278918 0.17606883 0.005260378 0.08182019
000050 13 1a 03 be 9c 2b f0 bd 86 da bd 3d a8 9e 86 bd
       -0.12802915 -0.11727068 0.09270196 -0.0657323
000060 c1 59 6b 3d bc a5 66 3c fc 8b 1a 3d b5 35 b9 3d
       0.057458643 0.0140776 0.037731156 0.09043447
000070 93 8a ab 3b 00 cb f1 3c 15 fd d2 bc 5a a0 bc 3d
       0.005235025 0.029515743 -0.025755445 0.09210272
000080 78 23 20 3d 4d ab a9 bd 3e 3f f4 bd 1a f3 6b 3d
       0.039096326 -0.08284626 -0.11926125 0.057604887
000090 15 0c 06 bd 1e af ea 3d de 57 d6 bd c8 33 a5 bd
       -0.032726366 0.11459182 -0.10465978 -0.08066517
0000a0 8f bd 77 bd ea ca 37 bd 9d 5c db 3d cb e6 5a 3c
       -0.06048351 -0.04487125 0.10711024 0.013360689
0000b0 25 ff 90 3c ee 04 93 bd 71 b6 07 bc ba 10 6c bd
       0.017699787 -0.07178675 -0.0082832435 -0.05763314
0000c0 2b 6f 50 3d 6a 00 a4 bc 1c 5b 08 bd d9 6f ae bd
       0.050887268 -0.020019729 -0.033290014 -0.08517427
0000d0 52 6e d6 3d 9b bd 15 3e 84 0a ed bd c4 1c 01 be
       0.10470261 0.1462311 -0.11574271 -0.1260863
0000e0 40 86 a3 bd b7 5f 5e bd f5 f2 90 bd 04 aa a6 bc
       -0.079845905 -0.0542905 -0.070775904 -0.020344742
0000f0 e3 49 0f be 15 f3 a7 3c 6c 3d 8b bd 6f 23 67 bd
       -0.1399303 0.020501653 -0.06798825 -0.056430276
000100 bb 57 de bd e1 3a 8b bd e8 7a ad 3d 62 03 36 3e
       -0.10856577 -0.0679834 0.08470708 0.17774728
000110 47 e3 a2 3d d8 57 5b 3c e8 c6 9f 3d 1a 94 be 3d
       0.07953506 0.013387643 0.0780161 0.09305592
000120 50 5a f1 bc 94 4f 26 3d f0 50 3f bd 5b 1e 9d 3e
       -0.02946201 0.040603235 -0.046708047 0.30687222
000130 15 0d 3b be 9d 03 ac 3d 4e 24 c4 3d b1 c1 74 bd
       -0.18266709 0.08399127 0.09577237 -0.05975503
000140 76 e4 b4 bd 83 47 4f 3e f3 56 81 3d 9a 72 45 3e
       -0.08832638 0.20242123 0.06315412 0.19281998
000150 73 69 31 3e 35 c0 f3 bd fb f9 39 be 24 fa be bc
       0.17325382 -0.11901895 -0.18161766 -0.023312636
000160 bf 8a 3b bd 93 74 3c 3e 73 5c 37 3e f6 eb a4 3d
       -0.045786615 0.18403845 0.1790636 0.080528185
000170 3b eb 5e bc 52 52 26 be c2 82 0e 3e 38 eb c9 bc
       -0.013605888 -0.1624234 0.13917068 -0.024648294
000180 4a b6 8e bd 47 7a 41 3c 17 2f a8 bc 0b ce a3 bd
       -0.06968363 0.011808938 -0.020530267 -0.07998284
000190 e7 70 7f bd 2c e5 04 bd 4e 39 1b 3e 01 d4 79 3d
       -0.06236353 -0.032445118 0.15158579 0.0609932
0001a0 e5 08 34 bc ea 6b 27 be 1b b0 2c 3e 3b 60 3f 3e
       -0.010988449 -0.1634976 0.16864054 0.18689053
0001b0 c9 bb de bd 0b 49 17 bd 49 46 b4 3d e3 f9 1d 3d
       -0.10875661 -0.036934894 0.08802468 0.03856839
0001c0 76 cd 11 be f4 00 3c be 4f 3b 48 bd 62 7a c5 3d
       -0.14238533 -0.18359739 -0.048884686 0.09642483
0001d0 05 0d 15 3e 60 1c 1c be de 3f e8 bc 9e 20 b1 3d
       0.14555748 -0.15245199 -0.028350767 0.08648799
0001e0 a7 98 8b bd 02 a8 d5 bd 63 a2 96 3d bc ce da 3d
       -0.068162255 -0.104324356 0.073551916 0.10683963
0001f0 42 6f 11 3d 13 64 c3 3d 50 9a 24 3e 63 51 64 3e
       0.035506494 0.09540572 0.1607449 0.22296672
000200 42 97 27 bd 9e 3e 56 3d 1e 05 3a 3d be 05 67 3e
       -0.040915735 0.05230581 0.045415036 0.22560784
000210 2c 0f ce 3e 75 f5 b8 3d 3f e7 2f 3e 6b 4d 84 3d
       0.4024595 0.09031192 0.17178057 0.06460079
000220 bd 3e 43 3e 34 a1 37 3e 79 d7 0c be d9 31 80 3e
       0.19066902 0.17932588 -0.13754071 0.2503803
000230 1c 43 11 be 5f 95 bc 3d 21 49 99 3d 4a bb 33 bd
       -0.14185756 0.09208178 0.07484651 -0.043879785
000240 2e 3e 6c be 5e cf 72 3d d3 08 06 be 14 92 de 3d
       -0.23070595 0.059279792 -0.13089304 0.10867706
000250 b8 cb 06 3e 34 5f df bd 6f 2c fa bd ab 51 56 be
       0.1316365 -0.109068304 -0.12215506 -0.20929591
000260 57 de cd 3d b7 29 aa 3d 7a 5b d5 bb 03 49 3d 3d
       0.100521736 0.08308738 -0.006511149 0.046212208
000270 0e 7b d5 3d 0a 60 2d be f6 8e d0 3d 42 19 2a 3d
       0.104238614 -0.16931167 0.10183518 0.041527994
000280 ba a7 3e be 2d 5b 9f 3d bd 0e 61 bd d7 0f 4a bd
       -0.1861867 0.07781062 -0.054945696 -0.049331512
000290 15 a7 83 bd 3a 60 96 bd c9 c7 31 3e 17 39 7a 3d
       -0.06428353 -0.073425725 0.17361368 0.0610896
0002a0 dd 8e 02 bc ec 93 49 bd 23 47 1c 3e 98 9d a5 3c
       -0.007968632 -0.049213335 0.15261512 0.020216748
0002b0 5a 72 12 3d 36 95 05 bd 1b 8a 8e 3d 98 34 65 3e
       0.035753585 -0.032613 0.06959935 0.22383344
0002c0 36 1b 23 be 4d f9 67 be 82 8f 01 be 2c 49 15 3e
       -0.15928349 -0.22653694 -0.126524 0.14578694
0002d0 23 e2 89 3d af ce 95 bd fc d5 be 3d ca 24 c0 3d
       0.06732585 -0.073148124 0.09318158 0.09382017
0002e0 66 3b 50 3d c3 0e eb bc e3 3f 2f 3e e1 7f cf 3d
       0.050837897 -0.028693562 0.17114215 0.10131813
0002f0 7c 6e a2 3e ca 06 ae 3c ba fc ba 3d 9e 99 22 3d
       0.31724918 0.021243472 0.09130235 0.039697282
000300 5f 68 fd 3d 68 ff 0a 3e 5a 9e 85 bd 22 13 16 be
       0.12373423 0.13573992 -0.06524344 -0.14655736
000310 eb b9 85 bd 77 8b 70 3d d8 ef c0 3b f2 84 25 be
       -0.06529602 0.058726754 0.0058879666 -0.16163996
000320 bd 15 60 3d 7a af 7f bd dc f1 d5 3d b8 25 ab 3d
       0.05470823 -0.062423207 0.10446522 0.08356804
000330 ba 0f 05 3e 5f 45 74 3c d9 dd 86 3d ef 68 d8 3c
       0.1299428 0.0149091175 0.06585283 0.026417224
000340 1b 52 c0 3c 0a 32 9c bd 7c 8f 20 bd ff 90 c7 3c
       0.023476651 -0.07626732 -0.039199337 0.024361132
000350 c0 d3 46 3d 9f a5 a2 3d eb 82 52 3e 9c 51 5b bd
       0.048541784 0.07941746 0.20557754 -0.053544626
000360 a0 bc 68 3d 70 c0 b6 3a 4c 70 0f 3c 98 b8 a8 bc
       0.05682051 0.0013942849 0.008754801 -0.020595834
000370 25 5e db bd b3 cc 98 3d d7 c0 23 bd 3d a9 86 bd
       -0.10711316 0.07460918 -0.03997883 -0.065752484
000380 47 4f ad bd 2f f8 63 bd 43 62 51 3d dd 27 bf 3a
       -0.084623866 -0.05565661 0.0511191 0.0014584024
000390 ec 2a b3 bd b0 de 49 3e f0 d5 ff bd e3 21 03 bd
       -0.08748421 0.19713855 -0.12491977 -0.03201474
0003a0 20 f5 8d bd 0c f2 ad bd 06 7f f4 3c b8 98 1b bd
       -0.069315195 -0.084934324 0.029845726 -0.03798744
0003b0 ec ac a7 bb 9e 00 52 bd 92 79 95 bd d3 cb a0 bd
       -0.0051170494 -0.05127012 -0.07298578 -0.078513764
0003c0 d4 6d a2 3d b0 73 67 3d 48 ed 5f 3d 54 e5 99 bd
       0.07931104 0.056506813 0.05466965 -0.07514444
0003d0 d2 23 d0 3d 48 a7 b9 3c 5a 22 84 3d 41 54 d5 3d
       0.10163082 0.022662774 0.064518645 0.10416461
0003e0 7b c5 7c 3d d1 8c 20 bd 29 33 a1 bd d2 1e 5f bc
       0.06171177 -0.039196793 -0.07871086 -0.013618188
0003f0 3e 65 3d be d5 6f 36 3e 87 da db bb d0 4e b8 3d
       -0.18495652 0.17816098 -0.0067094 0.08999407

lstm.bias_ih_l1 f4 [256]
000000 8d f2 83 bd bc 64 b6 bd 73 aa 28 be f5 b4 17 bd
       -0.06442747 -0.08905932 -0.16471271 -0.03703781
000010 a5 e1 4e be bf 3a 8e bc 8a 55 e7 bd b8 6f 07 3d
       -0.20203264 -0.017361997 -0.11295612 0.033065528
000020 06 fc 5b bd dc ac de bc b3 6f 4a be 49 fb 38 be
       -0.053707145 -0.027182035 -0.19769172 -0.18064608
000030 5e d2 0e bb f8 94 23 bb cd 3a 2b bd 43 93 db bc
       -0.002179287 -0.0024960618 -0.041804124 -0.026803618
000040 19 d7 a2 39 2e db 08 bd e7 bf 14 be bd 91 7e bd
       0.00031059308 -0.03341215 -0.1452633 -0.062150706
000050 c8 cf af bd c9 8d 1b be 60 cf 21 be 3c 84 e5 3b
       -0.08584553 -0.15190805 -0.15801764 0.007004289
000060 5b cc 84 bb 2e a7 f4 bd 42 a9 0e 3d 71 e8 21 bd
       -0.0040526814 -0.119459495 0.034829386 -0.039528314
000070 2c 87 ea bd ae 11 f0 bd 07 fe ff 3c 4a 96 e1 ba
       -0.11451563 -0.11722122 0.03124906 -0.0017210927
000080 5f 4c bd 3b 9d 53 8a be b0 2d 1b 3d a1 a7 98 bd
       0.0057769264 -0.27016917 0.037885368 -0.07453848
000090 7e 38 17 be f4 ee 62 bd 1e 5a b4 bd 27 b8 04 3d
       -0.14767644 -0.055403665 -0.08806251 0.032402184
0000a0 65 e9 0a 3d 7f 34 b8 bd b5 9d bc bd e8 68 3e bd
       0.03391399 -0.08994388 -0.09209768 -0.046486765
0000b0 aa 38 0e be 2f b6 0c be ec 19 5c be 0b ef 80 3c
       -0.13888803 -0.13741373 -0.21494263 0.015738985
0000c0 20 a8 1a 3d f6 90 a0 3d ec ba a5 3d 99 02 b5 bd
       0.037757993 0.07840149 0.08092293 -0.08838386
0000d0 1b 7b 8d bd 5a 3c 13 3c 04 6a 85 bd d9 9b c2 bd
       -0.06908246 0.008986557 -0.065143615 -0.09502382
0000e0 47 15 93 bd 63 5e 10 be 4c e5 53 be e0 1e 90 3d
       -0.07181793 -0.14098506 -0.20692939 0.07037139
0000f0 a0 f3 0d bc 7d bd 4a be 8d 7c 14 3d 7a 32 1c be
       -0.008664042 -0.19798847 0.036251593 -0.1525363
000100 10 67 eb 3d ef bc db 3c 45 0f dc 3d 38 c3 a6 3d
       0.11494267 0.026823489 0.107451 0.08142704
000110 6d 64 4c 3d ca 77 ae 3d 58 90 53 bd 3f 66 ec 3d
       0.04990046 0.08518942 -0.05165133 0.115429394
000120 38 d4 06 3e 15 90 f5 3d d2 ea 87 3e 82 a7 51 bc
       0.13166893 0.11990372 0.2654634 -0.012796285
000130 99 be ba 3d 02 11 b3 3b c9 64 29 3e 82 6d 10 3e
       0.09118385 0.005464674 0.16542353 0.14104274
000140 e3 a4 40 3e a7 2d 2e 3d 91 95 6a 3d 22 f2 73 bd
       0.188129 0.042524006 0.057271544 -0.059557088
000150 ba 95 60 bd a5 68 f7 bd dd 52 6c 3e d0 d1 d3 3d
       -0.05483029 -0.12080506 0.23078485 0.10342753
000160 d1 89 9c 3b c2 13 31 3d fb 47 3d bd 4c 2d 72 bd
       0.004777171 0.043231733 -0.046211224 -0.05912523
000170 33 38 a0 3c 79 bf 22 3e 3f 63 fd bc fd 73 0e 3e
       0.019558048 0.15893354 -0.030931113 0.13911434
000180 ca 59 7a bd fc a4 61 3d 8c 0c d0 3d 52 28 ff 3d
       -0.061120786 0.055088982 0.10158643 0.12458862
000190 81 27 c3 3d 95 ed 9a 3d ca 83 ea 3d d2 a3 bc 3d
       0.09529019 0.075648464 0.11450918 0.09210934
0001a0 0b 1d ef 3d cf 25 4a 3d e2 d9 1b 3e 94 d6 10 3e
       0.116754614 0.049352463 0.15219834 0.14144355
0001b0 51 49 98 bd 9c 7b 5d bd eb 3b c8 3d 33 d0 3d 3e
       -0.07435859 -0.05407296 0.097770534 0.18536453
0001c0 e3 16 04 3e 4e 16 da 3b 7a 26 0a bd 70 35 f2 3d
       0.12899356 0.006655491 -0.0337281 0.11826599
0001d0 bd 69 bf 3c ef ba ae 3d d7 6b a2 bc 39 f3 82 3e
       0.02336585 0.085317485 -0.019826813 0.2557619
0001e0 85 0d 8f 3d 1d 5b b8 3d 00 97 07 3d 7d 89 80 3d
       0.069850005 0.090017535 0.03310299 0.06276224
0001f0 99 8d 57 3e be 27 92 3d 1c 68 a4 3d 9e 61 45 3e
       0.21050109 0.071364865 0.0802767 0.19275519
000200 e4 30 b7 bd 3e de 96 bc 4f bb c3 bd 3c 1f 65 bd
       -0.08944872 -0.01841652 -0.09557211 -0.05593799
000210 26 77 08 bd 88 67 9d bd 80 d1 51 3d 25 8b 82 bd
       -0.033316754 -0.07685763 0.051225185 -0.06374196
000220 46 19 82 bd 85 de ef bc da 8e 7f bd c0 59 e0 bd
       -0.06352477 -0.02928091 -0.062392093 -0.109546185
000230 9a 17 1a bd 4f f3 83 bd 3d 50 e4 3c a3 93 0f 3d
       -0.037620164 -0.06442892 0.027870292 0.035052907
000240 fd b0 89 3d 91 ed 79 3d ff 27 b4 bc b7 2a 5c 3d
       0.06723211 0.061017577 -0.021991728 0.053751674
000250 24 c2 b3 bd 73 08 21 bd 61 bd 7f bc 67 47 19 3d
       -0.08777264 -0.0393147 -0.015609116 0.03742161
000260 e4 f5 39 3c a1 9e eb bd bb a3 47 bd c3 0c ba bd
       0.011350129 -0.115048654 -0.04874013 -0.09084465
000270 c3 a8 dc bd 92 1b 6b bd 79 93 26 be 5b dd 25 be
       -0.10774376 -0.05739934 -0.16267194 -0.16197722
000280 dc 34 9b 3d b7 16 06 be b3 f2 04 3e ad 43 76 bd
       0.075784415 -0.13094603 0.12983207 -0.060123134
000290 47 26 8c bd e0 4b 96 bc 68 40 9f bd c4 4d e7 3c
       -0.06843238 -0.018346727 -0.077759564 0.028235324
0002a0 af 3c b8 bd 7b 49 62 3d 57 a5 23 3d 60 80 bf 3d
       -0.089959495 0.055245858 0.039952602 0.093506575
0002b0 e4 ac 65 bc 29 d5 74 3d c3 79 b3 bc 95 4f e4 3b
       -0.014018271 0.059773598 -0.021908646 0.0069674947
0002c0 0e 9b 8d 3c 82 10 17 bd a4 44 9d bd 1e 36 87 bd
       0.01728585 -0.036880977 -0.07679108 -0.06602119
0002d0 da ce f6 bd e6 59 98 bd 88 82 0f bd e6 70 8f 3d
       -0.120511726 -0.07439022 -0.035036594 0.070039555
0002e0 86 9a bc bd 41 05 97 3d b3 4b c4 bd 5d 5e d8 bd
       -0.092091605 0.07374049 -0.09584751 -0.10564873
0002f0 db 3b 91 bd fa 39 4f 3d 0a 8c 91 3c a7 dc 71 bc
       -0.07091495 0.0505924 0.017766971 -0.01476208
000300 68 c7 64 bc a7 52 85 3d 99 c9 71 be d6 29 c7 3d
       -0.013963558 0.06509905 -0.2361206 0.097247764
000310 7d 73 59 3d 14 c2 91 3d 37 3c 01 bd ed ae 13 3d
       0.053088654 0.071170956 -0.031551566 0.036055494
000320 af 38 06 3c dc ac 27 3d 64 c6 03 3e a8 58 80 3c
       0.008192225 0.040936336 0.12868649 0.015667275
000330 f0 ba 12 3e c6 ed c6 bc 74 60 1d 3d 59 e1 e3 bd
       0.14329123 -0.024283301 0.038422063 -0.11126966
000340 b7 b0 13 3d f7 46 34 3d e6 c4 f2 3b 19 f7 a4 bd
       0.0360572 0.04401299 0.007408726 -0.08054943
000350 67 95 88 bd a1 c6 a6 bd 74 e0 99 3d f8 d9 b6 bd
       -0.06669121 -0.08143354 0.07513514 -0.08928293
000360 e5 3f 09 be b9 ea a7 bc 8f 63 85 bd de 0c 98 bc
       -0.1340328 -0.020497667 -0.0651313 -0.018560823
000370 3a 64 8f 3d 5e c8 e6 3d b2 cb ec 3d f3 13 50 bd
       0.070015386 0.11268686 0.11562289 -0.050800275
000380 af dd 16 3c 69 78 9a 3d 36 df 59 3d c0 db 52 bd
       0.009208127 0.07542498 0.053191386 -0.0514791
000390 04 4e c8 bd 2e 01 dd bc a0 d0 b0 3d 64 cb f1 bd
       -0.09780505 -0.026978102 0.08633542 -0.11806372
0003a0 e6 fc 95 bb 28 32 d5 3d 9b ce 5b 3d 1d a3 67 bd
       -0.004577267 0.10409957 0.05366383 -0.05655204
0003b0 1f 5a fd bd a6 8a 34 3a f8 4e c7 3b 0b 79 93 bd
       -0.12370705 0.00068871153 0.006082412 -0.072008215
0003c0 63 40 de 3c a7 76 0c 3e 8a 86 ae 3d 64 a6 c4 3d
       0.027130311 0.13717137 0.08521755 0.09602049
0003d0 7d 63 2b bd e9 ca b5 3d 69 41 01 bc 30 0d 05 be
       -0.041842926 0.08876593 -0.00788913 -0.12993312
0003e0 b6 38 04 bb f2 05 48 bd b4 89 ef bd a3 4e ef 3c
       -0.0020175404 -0.048833795 -0.11696187 0.029212302
0003f0 cc 76 c7 3d a4 20 25 bd 5a f9 29 3d d8 40 94 bd
       0.097394556 -0.04031433 0.041497566 -0.072389305
